{"format": "graph-model", "generatedBy": "2.16.2", "convertedBy": "TensorFlow.js Converter v4.20.0", "signature": {"outputs": {"Identity:0": {"name": "Identity:0"}}}, "modelTopology": {"node": [{"name": "ConstantFolding/PartitionedCall/model_31/tf.math.divide/truediv_recip", "op": "Const", "attr": {"dtype": {"type": "DT_FLOAT"}, "value": {"tensor": {"dtype": "DT_FLOAT", "tensorShape": {"dim": [{"size": "1"}, {"size": "1"}, {"size": "1"}]}}}}}, {"name": "22024", "op": "Const", "attr": {"dtype": {"type": "DT_FLOAT"}, "value": {"tensor": {"dtype": "DT_FLOAT", "tensorShape": {"dim": [{"size": "1"}, {"size": "2"}, {"size": "8400"}]}}}}}, {"name": "22016", "op": "Const", "attr": {"value": {"tensor": {"dtype": "DT_INT64", "tensorShape": {"dim": [{"size": "3"}]}}}, "dtype": {"type": "DT_INT64"}}}, {"name": "22018", "op": "Const", "attr": {"dtype": {"type": "DT_INT64"}, "value": {"tensor": {"dtype": "DT_INT64", "tensorShape": {"dim": [{"size": "3"}]}}}}}, {"name": "PartitionedCall/model_31/tf.strided_slice_19/ones_like", "op": "Const", "attr": {"dtype": {"type": "DT_INT64"}, "value": {"tensor": {"dtype": "DT_INT64", "tensorShape": {"dim": [{"size": "3"}]}}}}}, {"name": "22026", "op": "Const", "attr": {"value": {"tensor": {"dtype": "DT_FLOAT", "tensorShape": {"dim": [{"size": "1"}, {"size": "2"}, {"size": "8400"}]}}}, "dtype": {"type": "DT_FLOAT"}}}, {"name": "22010", "op": "Const", "attr": {"value": {"tensor": {"dtype": "DT_INT64", "tensorShape": {"dim": [{"size": "3"}]}}}, "dtype": {"type": "DT_INT64"}}}, {"name": "22012", "op": "Const", "attr": {"dtype": {"type": "DT_INT64"}, "value": {"tensor": {"dtype": "DT_INT64", "tensorShape": {"dim": [{"size": "3"}]}}}}}, {"name": "PartitionedCall/model_31/tf.strided_slice_16/StridedSlice/strides", "op": "Const", "attr": {"dtype": {"type": "DT_INT64"}, "value": {"tensor": {"dtype": "DT_INT64", "tensorShape": {"dim": [{"size": "3"}]}}}}}, {"name": "PartitionedCall/model_31/tf.reshape_11/Reshape/shape", "op": "Const", "attr": {"dtype": {"type": "DT_INT32"}, "value": {"tensor": {"dtype": "DT_INT32", "tensorShape": {"dim": [{"size": "4"}]}}}}}, {"name": "PartitionedCall/model_31/tf.compat.v1.transpose_33/transpose/perm", "op": "Const", "attr": {"value": {"tensor": {"dtype": "DT_INT32", "tensorShape": {"dim": [{"size": "4"}]}}}, "dtype": {"type": "DT_INT32"}}}, {"name": "PartitionedCall/model_31/tf.compat.v1.transpose_34/transpose/perm", "op": "Const", "attr": {"dtype": {"type": "DT_INT32"}, "value": {"tensor": {"dtype": "DT_INT32", "tensorShape": {"dim": [{"size": "4"}]}}}}}, {"name": "22014", "op": "Const", "attr": {"dtype": {"type": "DT_FLOAT"}, "value": {"tensor": {"dtype": "DT_FLOAT", "tensorShape": {"dim": [{"size": "1"}, {"size": "1"}, {"size": "16"}, {"size": "1"}]}}}}}, {"name": "PartitionedCall/model_31/tf.compat.v1.transpose_39/transpose/perm", "op": "Const", "attr": {"value": {"tensor": {"dtype": "DT_INT32", "tensorShape": {"dim": [{"size": "4"}]}}}, "dtype": {"type": "DT_INT32"}}}, {"name": "PartitionedCall/model_31/tf.reshape_14/Reshape/shape", "op": "Const", "attr": {"dtype": {"type": "DT_INT32"}, "value": {"tensor": {"dtype": "DT_INT32", "tensorShape": {"dim": [{"size": "3"}]}}}}}, {"name": "22020", "op": "Const", "attr": {"value": {"tensor": {"dtype": "DT_INT64", "tensorShape": {"dim": [{"size": "3"}]}}}, "dtype": {"type": "DT_INT64"}}}, {"name": "22022", "op": "Const", "attr": {"dtype": {"type": "DT_INT64"}, "value": {"tensor": {"dtype": "DT_INT64", "tensorShape": {"dim": [{"size": "3"}]}}}}}, {"name": "PartitionedCall/model_31/tf.strided_slice_18/ones_like", "op": "Const", "attr": {"dtype": {"type": "DT_INT64"}, "value": {"tensor": {"dtype": "DT_INT64", "tensorShape": {"dim": [{"size": "3"}]}}}}}, {"name": "PartitionedCall/model_31/tf.concat_20/concat/axis", "op": "Const", "attr": {"value": {"tensor": {"dtype": "DT_INT32", "tensorShape": {}}}, "dtype": {"type": "DT_INT32"}}}, {"name": "PartitionedCall/model_31/tf.math.multiply_436/Mul/y", "op": "Const", "attr": {"dtype": {"type": "DT_FLOAT"}, "value": {"tensor": {"dtype": "DT_FLOAT", "tensorShape": {"dim": [{"size": "1"}, {"size": "1"}, {"size": "8400"}]}}}}}, {"name": "21936", "op": "Const", "attr": {"dtype": {"type": "DT_FLOAT"}, "value": {"tensor": {"dtype": "DT_FLOAT", "tensorShape": {"dim": [{"size": "3"}, {"size": "3"}, {"size": "320"}, {"size": "80"}]}}}}}, {"name": "21940", "op": "Const", "attr": {"dtype": {"type": "DT_FLOAT"}, "value": {"tensor": {"dtype": "DT_FLOAT", "tensorShape": {"dim": [{"size": "80"}]}}}}}, {"name": "21962", "op": "Const", "attr": {"dtype": {"type": "DT_FLOAT"}, "value": {"tensor": {"dtype": "DT_FLOAT", "tensorShape": {"dim": [{"size": "3"}, {"size": "3"}, {"size": "80"}, {"size": "80"}]}}}}}, {"name": "21964", "op": "Const", "attr": {"value": {"tensor": {"dtype": "DT_FLOAT", "tensorShape": {"dim": [{"size": "80"}]}}}, "dtype": {"type": "DT_FLOAT"}}}, {"name": "21996", "op": "Const", "attr": {"dtype": {"type": "DT_FLOAT"}, "value": {"tensor": {"dtype": "DT_FLOAT", "tensorShape": {"dim": [{"size": "1"}, {"size": "1"}, {"size": "80"}, {"size": "64"}]}}}}}, {"name": "22006", "op": "Const", "attr": {"dtype": {"type": "DT_FLOAT"}, "value": {"tensor": {"dtype": "DT_FLOAT", "tensorShape": {"dim": [{"size": "64"}]}}}}}, {"name": "21950", "op": "Const", "attr": {"dtype": {"type": "DT_FLOAT"}, "value": {"tensor": {"dtype": "DT_FLOAT", "tensorShape": {"dim": [{"size": "3"}, {"size": "3"}, {"size": "320"}, {"size": "320"}]}}}}}, {"name": "21960", "op": "Const", "attr": {"value": {"tensor": {"dtype": "DT_FLOAT", "tensorShape": {"dim": [{"size": "320"}]}}}, "dtype": {"type": "DT_FLOAT"}}}, {"name": "21974", "op": "Const", "attr": {"value": {"tensor": {"dtype": "DT_FLOAT", "tensorShape": {"dim": [{"size": "3"}, {"size": "3"}, {"size": "320"}, {"size": "320"}]}}}, "dtype": {"type": "DT_FLOAT"}}}, {"name": "21984", "op": "Const", "attr": {"value": {"tensor": {"dtype": "DT_FLOAT", "tensorShape": {"dim": [{"size": "320"}]}}}, "dtype": {"type": "DT_FLOAT"}}}, {"name": "21994", "op": "Const", "attr": {"value": {"tensor": {"dtype": "DT_FLOAT", "tensorShape": {"dim": [{"size": "1"}, {"size": "1"}, {"size": "320"}, {"size": "1"}]}}}, "dtype": {"type": "DT_FLOAT"}}}, {"name": "22008", "op": "Const", "attr": {"dtype": {"type": "DT_FLOAT"}, "value": {"tensor": {"dtype": "DT_FLOAT", "tensorShape": {"dim": [{"size": "1"}]}}}}}, {"name": "PartitionedCall/model_31/tf.concat_10/concat/axis", "op": "Const", "attr": {"dtype": {"type": "DT_INT32"}, "value": {"tensor": {"dtype": "DT_INT32", "tensorShape": {}}}}}, {"name": "PartitionedCall/model_31/tf.compat.v1.transpose_16/transpose/perm", "op": "Const", "attr": {"value": {"tensor": {"dtype": "DT_INT32", "tensorShape": {"dim": [{"size": "4"}]}}}, "dtype": {"type": "DT_INT32"}}}, {"name": "PartitionedCall/model_31/tf.reshape_2/Reshape/shape", "op": "Const", "attr": {"value": {"tensor": {"dtype": "DT_INT32", "tensorShape": {"dim": [{"size": "3"}]}}}, "dtype": {"type": "DT_INT32"}}}, {"name": "21948", "op": "Const", "attr": {"value": {"tensor": {"dtype": "DT_FLOAT", "tensorShape": {"dim": [{"size": "3"}, {"size": "3"}, {"size": "640"}, {"size": "80"}]}}}, "dtype": {"type": "DT_FLOAT"}}}, {"name": "21958", "op": "Const", "attr": {"value": {"tensor": {"dtype": "DT_FLOAT", "tensorShape": {"dim": [{"size": "80"}]}}}, "dtype": {"type": "DT_FLOAT"}}}, {"name": "21972", "op": "Const", "attr": {"value": {"tensor": {"dtype": "DT_FLOAT", "tensorShape": {"dim": [{"size": "3"}, {"size": "3"}, {"size": "80"}, {"size": "80"}]}}}, "dtype": {"type": "DT_FLOAT"}}}, {"name": "21982", "op": "Const", "attr": {"value": {"tensor": {"dtype": "DT_FLOAT", "tensorShape": {"dim": [{"size": "80"}]}}}, "dtype": {"type": "DT_FLOAT"}}}, {"name": "21992", "op": "Const", "attr": {"value": {"tensor": {"dtype": "DT_FLOAT", "tensorShape": {"dim": [{"size": "1"}, {"size": "1"}, {"size": "80"}, {"size": "64"}]}}}, "dtype": {"type": "DT_FLOAT"}}}, {"name": "22002", "op": "Const", "attr": {"dtype": {"type": "DT_FLOAT"}, "value": {"tensor": {"dtype": "DT_FLOAT", "tensorShape": {"dim": [{"size": "64"}]}}}}}, {"name": "21946", "op": "Const", "attr": {"dtype": {"type": "DT_FLOAT"}, "value": {"tensor": {"dtype": "DT_FLOAT", "tensorShape": {"dim": [{"size": "3"}, {"size": "3"}, {"size": "640"}, {"size": "320"}]}}}}}, {"name": "21956", "op": "Const", "attr": {"dtype": {"type": "DT_FLOAT"}, "value": {"tensor": {"dtype": "DT_FLOAT", "tensorShape": {"dim": [{"size": "320"}]}}}}}, {"name": "21970", "op": "Const", "attr": {"value": {"tensor": {"dtype": "DT_FLOAT", "tensorShape": {"dim": [{"size": "3"}, {"size": "3"}, {"size": "320"}, {"size": "320"}]}}}, "dtype": {"type": "DT_FLOAT"}}}, {"name": "21980", "op": "Const", "attr": {"value": {"tensor": {"dtype": "DT_FLOAT", "tensorShape": {"dim": [{"size": "320"}]}}}, "dtype": {"type": "DT_FLOAT"}}}, {"name": "21990", "op": "Const", "attr": {"dtype": {"type": "DT_FLOAT"}, "value": {"tensor": {"dtype": "DT_FLOAT", "tensorShape": {"dim": [{"size": "1"}, {"size": "1"}, {"size": "320"}, {"size": "1"}]}}}}}, {"name": "22004", "op": "Const", "attr": {"dtype": {"type": "DT_FLOAT"}, "value": {"tensor": {"dtype": "DT_FLOAT", "tensorShape": {"dim": [{"size": "1"}]}}}}}, {"name": "PartitionedCall/model_31/tf.concat_13/concat/axis", "op": "Const", "attr": {"value": {"tensor": {"dtype": "DT_INT32", "tensorShape": {}}}, "dtype": {"type": "DT_INT32"}}}, {"name": "PartitionedCall/model_31/tf.compat.v1.transpose_21/transpose/perm", "op": "Const", "attr": {"value": {"tensor": {"dtype": "DT_INT32", "tensorShape": {"dim": [{"size": "4"}]}}}, "dtype": {"type": "DT_INT32"}}}, {"name": "PartitionedCall/model_31/tf.reshape_5/Reshape/shape", "op": "Const", "attr": {"dtype": {"type": "DT_INT32"}, "value": {"tensor": {"dtype": "DT_INT32", "tensorShape": {"dim": [{"size": "3"}]}}}}}, {"name": "21944", "op": "Const", "attr": {"value": {"tensor": {"dtype": "DT_FLOAT", "tensorShape": {"dim": [{"size": "3"}, {"size": "3"}, {"size": "640"}, {"size": "80"}]}}}, "dtype": {"type": "DT_FLOAT"}}}, {"name": "21954", "op": "Const", "attr": {"value": {"tensor": {"dtype": "DT_FLOAT", "tensorShape": {"dim": [{"size": "80"}]}}}, "dtype": {"type": "DT_FLOAT"}}}, {"name": "21968", "op": "Const", "attr": {"dtype": {"type": "DT_FLOAT"}, "value": {"tensor": {"dtype": "DT_FLOAT", "tensorShape": {"dim": [{"size": "3"}, {"size": "3"}, {"size": "80"}, {"size": "80"}]}}}}}, {"name": "21978", "op": "Const", "attr": {"dtype": {"type": "DT_FLOAT"}, "value": {"tensor": {"dtype": "DT_FLOAT", "tensorShape": {"dim": [{"size": "80"}]}}}}}, {"name": "21988", "op": "Const", "attr": {"value": {"tensor": {"dtype": "DT_FLOAT", "tensorShape": {"dim": [{"size": "1"}, {"size": "1"}, {"size": "80"}, {"size": "64"}]}}}, "dtype": {"type": "DT_FLOAT"}}}, {"name": "21998", "op": "Const", "attr": {"dtype": {"type": "DT_FLOAT"}, "value": {"tensor": {"dtype": "DT_FLOAT", "tensorShape": {"dim": [{"size": "64"}]}}}}}, {"name": "21930", "op": "Const", "attr": {"dtype": {"type": "DT_INT64"}, "value": {"tensor": {"dtype": "DT_INT64", "tensorShape": {"dim": [{"size": "4"}]}}}}}, {"name": "21932", "op": "Const", "attr": {"value": {"tensor": {"dtype": "DT_INT64", "tensorShape": {"dim": [{"size": "4"}]}}}, "dtype": {"type": "DT_INT64"}}}, {"name": "PartitionedCall/model_31/tf.strided_slice_14/ones_like", "op": "Const", "attr": {"dtype": {"type": "DT_INT64"}, "value": {"tensor": {"dtype": "DT_INT64", "tensorShape": {"dim": [{"size": "4"}]}}}}}, {"name": "21884", "op": "Const", "attr": {"value": {"tensor": {"dtype": "DT_INT64", "tensorShape": {"dim": [{"size": "4"}]}}}, "dtype": {"type": "DT_INT64"}}}, {"name": "21886", "op": "Const", "attr": {"value": {"tensor": {"dtype": "DT_INT64", "tensorShape": {"dim": [{"size": "4"}]}}}, "dtype": {"type": "DT_INT64"}}}, {"name": "PartitionedCall/model_31/tf.strided_slice_12/ones_like", "op": "Const", "attr": {"value": {"tensor": {"dtype": "DT_INT64", "tensorShape": {"dim": [{"size": "4"}]}}}, "dtype": {"type": "DT_INT64"}}}, {"name": "21838", "op": "Const", "attr": {"dtype": {"type": "DT_INT64"}, "value": {"tensor": {"dtype": "DT_INT64", "tensorShape": {"dim": [{"size": "4"}]}}}}}, {"name": "21840", "op": "Const", "attr": {"dtype": {"type": "DT_INT64"}, "value": {"tensor": {"dtype": "DT_INT64", "tensorShape": {"dim": [{"size": "4"}]}}}}}, {"name": "PartitionedCall/model_31/tf.strided_slice_10/ones_like", "op": "Const", "attr": {"dtype": {"type": "DT_INT64"}, "value": {"tensor": {"dtype": "DT_INT64", "tensorShape": {"dim": [{"size": "4"}]}}}}}, {"name": "PartitionedCall/model_31/tf.compat.v1.image.resize_nearest_neighbor_1/ResizeNearestNeighbor/size", "op": "Const", "attr": {"dtype": {"type": "DT_INT32"}, "value": {"tensor": {"dtype": "DT_INT32", "tensorShape": {"dim": [{"size": "2"}]}}}}}, {"name": "PartitionedCall/model_31/tf.concat_7/concat/axis", "op": "Const", "attr": {"value": {"tensor": {"dtype": "DT_INT32", "tensorShape": {}}}, "dtype": {"type": "DT_INT32"}}}, {"name": "21806", "op": "Const", "attr": {"dtype": {"type": "DT_FLOAT"}, "value": {"tensor": {"dtype": "DT_FLOAT", "tensorShape": {"dim": [{"size": "1"}, {"size": "1"}, {"size": "960"}, {"size": "320"}]}}}}}, {"name": "21808", "op": "Const", "attr": {"value": {"tensor": {"dtype": "DT_FLOAT", "tensorShape": {"dim": [{"size": "320"}]}}}, "dtype": {"type": "DT_FLOAT"}}}, {"name": "21810", "op": "Const", "attr": {"dtype": {"type": "DT_INT64"}, "value": {"tensor": {"dtype": "DT_INT64", "tensorShape": {"dim": [{"size": "4"}]}}}}}, {"name": "21812", "op": "Const", "attr": {"value": {"tensor": {"dtype": "DT_INT64", "tensorShape": {"dim": [{"size": "4"}]}}}, "dtype": {"type": "DT_INT64"}}}, {"name": "PartitionedCall/model_31/tf.strided_slice_11/ones_like", "op": "Const", "attr": {"dtype": {"type": "DT_INT64"}, "value": {"tensor": {"dtype": "DT_INT64", "tensorShape": {"dim": [{"size": "4"}]}}}}}, {"name": "21814", "op": "Const", "attr": {"value": {"tensor": {"dtype": "DT_FLOAT", "tensorShape": {"dim": [{"size": "3"}, {"size": "3"}, {"size": "160"}, {"size": "160"}]}}}, "dtype": {"type": "DT_FLOAT"}}}, {"name": "21816", "op": "Const", "attr": {"dtype": {"type": "DT_FLOAT"}, "value": {"tensor": {"dtype": "DT_FLOAT", "tensorShape": {"dim": [{"size": "160"}]}}}}}, {"name": "21818", "op": "Const", "attr": {"dtype": {"type": "DT_FLOAT"}, "value": {"tensor": {"dtype": "DT_FLOAT", "tensorShape": {"dim": [{"size": "3"}, {"size": "3"}, {"size": "160"}, {"size": "160"}]}}}}}, {"name": "21820", "op": "Const", "attr": {"value": {"tensor": {"dtype": "DT_FLOAT", "tensorShape": {"dim": [{"size": "160"}]}}}, "dtype": {"type": "DT_FLOAT"}}}, {"name": "21822", "op": "Const", "attr": {"dtype": {"type": "DT_FLOAT"}, "value": {"tensor": {"dtype": "DT_FLOAT", "tensorShape": {"dim": [{"size": "3"}, {"size": "3"}, {"size": "160"}, {"size": "160"}]}}}}}, {"name": "21824", "op": "Const", "attr": {"value": {"tensor": {"dtype": "DT_FLOAT", "tensorShape": {"dim": [{"size": "160"}]}}}, "dtype": {"type": "DT_FLOAT"}}}, {"name": "21826", "op": "Const", "attr": {"dtype": {"type": "DT_FLOAT"}, "value": {"tensor": {"dtype": "DT_FLOAT", "tensorShape": {"dim": [{"size": "3"}, {"size": "3"}, {"size": "160"}, {"size": "160"}]}}}}}, {"name": "21828", "op": "Const", "attr": {"dtype": {"type": "DT_FLOAT"}, "value": {"tensor": {"dtype": "DT_FLOAT", "tensorShape": {"dim": [{"size": "160"}]}}}}}, {"name": "21830", "op": "Const", "attr": {"dtype": {"type": "DT_FLOAT"}, "value": {"tensor": {"dtype": "DT_FLOAT", "tensorShape": {"dim": [{"size": "3"}, {"size": "3"}, {"size": "160"}, {"size": "160"}]}}}}}, {"name": "21832", "op": "Const", "attr": {"value": {"tensor": {"dtype": "DT_FLOAT", "tensorShape": {"dim": [{"size": "160"}]}}}, "dtype": {"type": "DT_FLOAT"}}}, {"name": "21834", "op": "Const", "attr": {"value": {"tensor": {"dtype": "DT_FLOAT", "tensorShape": {"dim": [{"size": "3"}, {"size": "3"}, {"size": "160"}, {"size": "160"}]}}}, "dtype": {"type": "DT_FLOAT"}}}, {"name": "21836", "op": "Const", "attr": {"value": {"tensor": {"dtype": "DT_FLOAT", "tensorShape": {"dim": [{"size": "160"}]}}}, "dtype": {"type": "DT_FLOAT"}}}, {"name": "PartitionedCall/model_31/tf.concat_8/concat/axis", "op": "Const", "attr": {"value": {"tensor": {"dtype": "DT_INT32", "tensorShape": {}}}, "dtype": {"type": "DT_INT32"}}}, {"name": "21842", "op": "Const", "attr": {"value": {"tensor": {"dtype": "DT_FLOAT", "tensorShape": {"dim": [{"size": "1"}, {"size": "1"}, {"size": "800"}, {"size": "320"}]}}}, "dtype": {"type": "DT_FLOAT"}}}, {"name": "21844", "op": "Const", "attr": {"value": {"tensor": {"dtype": "DT_FLOAT", "tensorShape": {"dim": [{"size": "320"}]}}}, "dtype": {"type": "DT_FLOAT"}}}, {"name": "21846", "op": "Const", "attr": {"value": {"tensor": {"dtype": "DT_INT32", "tensorShape": {"dim": [{"size": "4"}, {"size": "2"}]}}}, "dtype": {"type": "DT_INT32"}}}, {"name": "21848", "op": "Const", "attr": {"dtype": {"type": "DT_FLOAT"}, "value": {"tensor": {"dtype": "DT_FLOAT", "tensorShape": {"dim": [{"size": "3"}, {"size": "3"}, {"size": "320"}, {"size": "320"}]}}}}}, {"name": "21850", "op": "Const", "attr": {"value": {"tensor": {"dtype": "DT_FLOAT", "tensorShape": {"dim": [{"size": "320"}]}}}, "dtype": {"type": "DT_FLOAT"}}}, {"name": "21798", "op": "Const", "attr": {"value": {"tensor": {"dtype": "DT_INT64", "tensorShape": {"dim": [{"size": "4"}]}}}, "dtype": {"type": "DT_INT64"}}}, {"name": "21800", "op": "Const", "attr": {"value": {"tensor": {"dtype": "DT_INT64", "tensorShape": {"dim": [{"size": "4"}]}}}, "dtype": {"type": "DT_INT64"}}}, {"name": "PartitionedCall/model_31/tf.strided_slice_8/ones_like", "op": "Const", "attr": {"dtype": {"type": "DT_INT64"}, "value": {"tensor": {"dtype": "DT_INT64", "tensorShape": {"dim": [{"size": "4"}]}}}}}, {"name": "PartitionedCall/model_31/tf.compat.v1.image.resize_nearest_neighbor/ResizeNearestNeighbor/size", "op": "Const", "attr": {"dtype": {"type": "DT_INT32"}, "value": {"tensor": {"dtype": "DT_INT32", "tensorShape": {"dim": [{"size": "2"}]}}}}}, {"name": "PartitionedCall/model_31/tf.concat_5/concat/axis", "op": "Const", "attr": {"dtype": {"type": "DT_INT32"}, "value": {"tensor": {"dtype": "DT_INT32", "tensorShape": {}}}}}, {"name": "21766", "op": "Const", "attr": {"dtype": {"type": "DT_FLOAT"}, "value": {"tensor": {"dtype": "DT_FLOAT", "tensorShape": {"dim": [{"size": "1"}, {"size": "1"}, {"size": "1280"}, {"size": "640"}]}}}}}, {"name": "21768", "op": "Const", "attr": {"dtype": {"type": "DT_FLOAT"}, "value": {"tensor": {"dtype": "DT_FLOAT", "tensorShape": {"dim": [{"size": "640"}]}}}}}, {"name": "21770", "op": "Const", "attr": {"dtype": {"type": "DT_INT64"}, "value": {"tensor": {"dtype": "DT_INT64", "tensorShape": {"dim": [{"size": "4"}]}}}}}, {"name": "21772", "op": "Const", "attr": {"dtype": {"type": "DT_INT64"}, "value": {"tensor": {"dtype": "DT_INT64", "tensorShape": {"dim": [{"size": "4"}]}}}}}, {"name": "PartitionedCall/model_31/tf.strided_slice_9/ones_like", "op": "Const", "attr": {"value": {"tensor": {"dtype": "DT_INT64", "tensorShape": {"dim": [{"size": "4"}]}}}, "dtype": {"type": "DT_INT64"}}}, {"name": "21774", "op": "Const", "attr": {"dtype": {"type": "DT_FLOAT"}, "value": {"tensor": {"dtype": "DT_FLOAT", "tensorShape": {"dim": [{"size": "3"}, {"size": "3"}, {"size": "320"}, {"size": "320"}]}}}}}, {"name": "21776", "op": "Const", "attr": {"value": {"tensor": {"dtype": "DT_FLOAT", "tensorShape": {"dim": [{"size": "320"}]}}}, "dtype": {"type": "DT_FLOAT"}}}, {"name": "21778", "op": "Const", "attr": {"dtype": {"type": "DT_FLOAT"}, "value": {"tensor": {"dtype": "DT_FLOAT", "tensorShape": {"dim": [{"size": "3"}, {"size": "3"}, {"size": "320"}, {"size": "320"}]}}}}}, {"name": "21780", "op": "Const", "attr": {"value": {"tensor": {"dtype": "DT_FLOAT", "tensorShape": {"dim": [{"size": "320"}]}}}, "dtype": {"type": "DT_FLOAT"}}}, {"name": "21782", "op": "Const", "attr": {"value": {"tensor": {"dtype": "DT_FLOAT", "tensorShape": {"dim": [{"size": "3"}, {"size": "3"}, {"size": "320"}, {"size": "320"}]}}}, "dtype": {"type": "DT_FLOAT"}}}, {"name": "21784", "op": "Const", "attr": {"dtype": {"type": "DT_FLOAT"}, "value": {"tensor": {"dtype": "DT_FLOAT", "tensorShape": {"dim": [{"size": "320"}]}}}}}, {"name": "21786", "op": "Const", "attr": {"dtype": {"type": "DT_FLOAT"}, "value": {"tensor": {"dtype": "DT_FLOAT", "tensorShape": {"dim": [{"size": "3"}, {"size": "3"}, {"size": "320"}, {"size": "320"}]}}}}}, {"name": "21788", "op": "Const", "attr": {"value": {"tensor": {"dtype": "DT_FLOAT", "tensorShape": {"dim": [{"size": "320"}]}}}, "dtype": {"type": "DT_FLOAT"}}}, {"name": "21790", "op": "Const", "attr": {"value": {"tensor": {"dtype": "DT_FLOAT", "tensorShape": {"dim": [{"size": "3"}, {"size": "3"}, {"size": "320"}, {"size": "320"}]}}}, "dtype": {"type": "DT_FLOAT"}}}, {"name": "21792", "op": "Const", "attr": {"value": {"tensor": {"dtype": "DT_FLOAT", "tensorShape": {"dim": [{"size": "320"}]}}}, "dtype": {"type": "DT_FLOAT"}}}, {"name": "21794", "op": "Const", "attr": {"dtype": {"type": "DT_FLOAT"}, "value": {"tensor": {"dtype": "DT_FLOAT", "tensorShape": {"dim": [{"size": "3"}, {"size": "3"}, {"size": "320"}, {"size": "320"}]}}}}}, {"name": "21796", "op": "Const", "attr": {"value": {"tensor": {"dtype": "DT_FLOAT", "tensorShape": {"dim": [{"size": "320"}]}}}, "dtype": {"type": "DT_FLOAT"}}}, {"name": "PartitionedCall/model_31/tf.concat_6/concat/axis", "op": "Const", "attr": {"value": {"tensor": {"dtype": "DT_INT32", "tensorShape": {}}}, "dtype": {"type": "DT_INT32"}}}, {"name": "21802", "op": "Const", "attr": {"value": {"tensor": {"dtype": "DT_FLOAT", "tensorShape": {"dim": [{"size": "1"}, {"size": "1"}, {"size": "1600"}, {"size": "640"}]}}}, "dtype": {"type": "DT_FLOAT"}}}, {"name": "21804", "op": "Const", "attr": {"value": {"tensor": {"dtype": "DT_FLOAT", "tensorShape": {"dim": [{"size": "640"}]}}}, "dtype": {"type": "DT_FLOAT"}}}, {"name": "PartitionedCall/model_31/tf.concat_9/concat/axis", "op": "Const", "attr": {"dtype": {"type": "DT_INT32"}, "value": {"tensor": {"dtype": "DT_INT32", "tensorShape": {}}}}}, {"name": "21852", "op": "Const", "attr": {"dtype": {"type": "DT_FLOAT"}, "value": {"tensor": {"dtype": "DT_FLOAT", "tensorShape": {"dim": [{"size": "1"}, {"size": "1"}, {"size": "960"}, {"size": "640"}]}}}}}, {"name": "21854", "op": "Const", "attr": {"value": {"tensor": {"dtype": "DT_FLOAT", "tensorShape": {"dim": [{"size": "640"}]}}}, "dtype": {"type": "DT_FLOAT"}}}, {"name": "21856", "op": "Const", "attr": {"dtype": {"type": "DT_INT64"}, "value": {"tensor": {"dtype": "DT_INT64", "tensorShape": {"dim": [{"size": "4"}]}}}}}, {"name": "21858", "op": "Const", "attr": {"value": {"tensor": {"dtype": "DT_INT64", "tensorShape": {"dim": [{"size": "4"}]}}}, "dtype": {"type": "DT_INT64"}}}, {"name": "PartitionedCall/model_31/tf.strided_slice_13/ones_like", "op": "Const", "attr": {"dtype": {"type": "DT_INT64"}, "value": {"tensor": {"dtype": "DT_INT64", "tensorShape": {"dim": [{"size": "4"}]}}}}}, {"name": "21860", "op": "Const", "attr": {"dtype": {"type": "DT_FLOAT"}, "value": {"tensor": {"dtype": "DT_FLOAT", "tensorShape": {"dim": [{"size": "3"}, {"size": "3"}, {"size": "320"}, {"size": "320"}]}}}}}, {"name": "21862", "op": "Const", "attr": {"value": {"tensor": {"dtype": "DT_FLOAT", "tensorShape": {"dim": [{"size": "320"}]}}}, "dtype": {"type": "DT_FLOAT"}}}, {"name": "21864", "op": "Const", "attr": {"dtype": {"type": "DT_FLOAT"}, "value": {"tensor": {"dtype": "DT_FLOAT", "tensorShape": {"dim": [{"size": "3"}, {"size": "3"}, {"size": "320"}, {"size": "320"}]}}}}}, {"name": "21866", "op": "Const", "attr": {"dtype": {"type": "DT_FLOAT"}, "value": {"tensor": {"dtype": "DT_FLOAT", "tensorShape": {"dim": [{"size": "320"}]}}}}}, {"name": "21868", "op": "Const", "attr": {"value": {"tensor": {"dtype": "DT_FLOAT", "tensorShape": {"dim": [{"size": "3"}, {"size": "3"}, {"size": "320"}, {"size": "320"}]}}}, "dtype": {"type": "DT_FLOAT"}}}, {"name": "21870", "op": "Const", "attr": {"value": {"tensor": {"dtype": "DT_FLOAT", "tensorShape": {"dim": [{"size": "320"}]}}}, "dtype": {"type": "DT_FLOAT"}}}, {"name": "21872", "op": "Const", "attr": {"dtype": {"type": "DT_FLOAT"}, "value": {"tensor": {"dtype": "DT_FLOAT", "tensorShape": {"dim": [{"size": "3"}, {"size": "3"}, {"size": "320"}, {"size": "320"}]}}}}}, {"name": "21874", "op": "Const", "attr": {"value": {"tensor": {"dtype": "DT_FLOAT", "tensorShape": {"dim": [{"size": "320"}]}}}, "dtype": {"type": "DT_FLOAT"}}}, {"name": "21876", "op": "Const", "attr": {"value": {"tensor": {"dtype": "DT_FLOAT", "tensorShape": {"dim": [{"size": "3"}, {"size": "3"}, {"size": "320"}, {"size": "320"}]}}}, "dtype": {"type": "DT_FLOAT"}}}, {"name": "21878", "op": "Const", "attr": {"dtype": {"type": "DT_FLOAT"}, "value": {"tensor": {"dtype": "DT_FLOAT", "tensorShape": {"dim": [{"size": "320"}]}}}}}, {"name": "21880", "op": "Const", "attr": {"dtype": {"type": "DT_FLOAT"}, "value": {"tensor": {"dtype": "DT_FLOAT", "tensorShape": {"dim": [{"size": "3"}, {"size": "3"}, {"size": "320"}, {"size": "320"}]}}}}}, {"name": "21882", "op": "Const", "attr": {"value": {"tensor": {"dtype": "DT_FLOAT", "tensorShape": {"dim": [{"size": "320"}]}}}, "dtype": {"type": "DT_FLOAT"}}}, {"name": "PartitionedCall/model_31/tf.concat_11/concat/axis", "op": "Const", "attr": {"value": {"tensor": {"dtype": "DT_INT32", "tensorShape": {}}}, "dtype": {"type": "DT_INT32"}}}, {"name": "21888", "op": "Const", "attr": {"dtype": {"type": "DT_FLOAT"}, "value": {"tensor": {"dtype": "DT_FLOAT", "tensorShape": {"dim": [{"size": "1"}, {"size": "1"}, {"size": "1600"}, {"size": "640"}]}}}}}, {"name": "21890", "op": "Const", "attr": {"value": {"tensor": {"dtype": "DT_FLOAT", "tensorShape": {"dim": [{"size": "640"}]}}}, "dtype": {"type": "DT_FLOAT"}}}, {"name": "21892", "op": "Const", "attr": {"dtype": {"type": "DT_INT32"}, "value": {"tensor": {"dtype": "DT_INT32", "tensorShape": {"dim": [{"size": "4"}, {"size": "2"}]}}}}}, {"name": "21894", "op": "Const", "attr": {"value": {"tensor": {"dtype": "DT_FLOAT", "tensorShape": {"dim": [{"size": "3"}, {"size": "3"}, {"size": "640"}, {"size": "640"}]}}}, "dtype": {"type": "DT_FLOAT"}}}, {"name": "21896", "op": "Const", "attr": {"value": {"tensor": {"dtype": "DT_FLOAT", "tensorShape": {"dim": [{"size": "640"}]}}}, "dtype": {"type": "DT_FLOAT"}}}, {"name": "21750", "op": "Const", "attr": {"value": {"tensor": {"dtype": "DT_INT64", "tensorShape": {"dim": [{"size": "4"}]}}}, "dtype": {"type": "DT_INT64"}}}, {"name": "21752", "op": "Const", "attr": {"value": {"tensor": {"dtype": "DT_INT64", "tensorShape": {"dim": [{"size": "4"}]}}}, "dtype": {"type": "DT_INT64"}}}, {"name": "PartitionedCall/model_31/tf.strided_slice_6/ones_like", "op": "Const", "attr": {"dtype": {"type": "DT_INT64"}, "value": {"tensor": {"dtype": "DT_INT64", "tensorShape": {"dim": [{"size": "4"}]}}}}}, {"name": "21704", "op": "Const", "attr": {"value": {"tensor": {"dtype": "DT_INT64", "tensorShape": {"dim": [{"size": "4"}]}}}, "dtype": {"type": "DT_INT64"}}}, {"name": "21706", "op": "Const", "attr": {"value": {"tensor": {"dtype": "DT_INT64", "tensorShape": {"dim": [{"size": "4"}]}}}, "dtype": {"type": "DT_INT64"}}}, {"name": "PartitionedCall/model_31/tf.strided_slice_4/ones_like", "op": "Const", "attr": {"dtype": {"type": "DT_INT64"}, "value": {"tensor": {"dtype": "DT_INT64", "tensorShape": {"dim": [{"size": "4"}]}}}}}, {"name": "21634", "op": "Const", "attr": {"dtype": {"type": "DT_INT64"}, "value": {"tensor": {"dtype": "DT_INT64", "tensorShape": {"dim": [{"size": "4"}]}}}}}, {"name": "21636", "op": "Const", "attr": {"value": {"tensor": {"dtype": "DT_INT64", "tensorShape": {"dim": [{"size": "4"}]}}}, "dtype": {"type": "DT_INT64"}}}, {"name": "PartitionedCall/model_31/tf.strided_slice_2/ones_like", "op": "Const", "attr": {"dtype": {"type": "DT_INT64"}, "value": {"tensor": {"dtype": "DT_INT64", "tensorShape": {"dim": [{"size": "4"}]}}}}}, {"name": "21564", "op": "Const", "attr": {"value": {"tensor": {"dtype": "DT_INT64", "tensorShape": {"dim": [{"size": "4"}]}}}, "dtype": {"type": "DT_INT64"}}}, {"name": "21566", "op": "Const", "attr": {"value": {"tensor": {"dtype": "DT_INT64", "tensorShape": {"dim": [{"size": "4"}]}}}, "dtype": {"type": "DT_INT64"}}}, {"name": "PartitionedCall/model_31/tf.strided_slice/ones_like", "op": "Const", "attr": {"dtype": {"type": "DT_INT64"}, "value": {"tensor": {"dtype": "DT_INT64", "tensorShape": {"dim": [{"size": "4"}]}}}}}, {"name": "21520", "op": "Const", "attr": {"value": {"tensor": {"dtype": "DT_INT32", "tensorShape": {"dim": [{"size": "4"}, {"size": "2"}]}}}, "dtype": {"type": "DT_INT32"}}}, {"name": "21522", "op": "Const", "attr": {"dtype": {"type": "DT_FLOAT"}, "value": {"tensor": {"dtype": "DT_FLOAT", "tensorShape": {"dim": [{"size": "3"}, {"size": "3"}, {"size": "3"}, {"size": "80"}]}}}}}, {"name": "21524", "op": "Const", "attr": {"value": {"tensor": {"dtype": "DT_FLOAT", "tensorShape": {"dim": [{"size": "80"}]}}}, "dtype": {"type": "DT_FLOAT"}}}, {"name": "21526", "op": "Const", "attr": {"dtype": {"type": "DT_INT32"}, "value": {"tensor": {"dtype": "DT_INT32", "tensorShape": {"dim": [{"size": "4"}, {"size": "2"}]}}}}}, {"name": "21528", "op": "Const", "attr": {"value": {"tensor": {"dtype": "DT_FLOAT", "tensorShape": {"dim": [{"size": "3"}, {"size": "3"}, {"size": "80"}, {"size": "160"}]}}}, "dtype": {"type": "DT_FLOAT"}}}, {"name": "21530", "op": "Const", "attr": {"dtype": {"type": "DT_FLOAT"}, "value": {"tensor": {"dtype": "DT_FLOAT", "tensorShape": {"dim": [{"size": "160"}]}}}}}, {"name": "21532", "op": "Const", "attr": {"dtype": {"type": "DT_FLOAT"}, "value": {"tensor": {"dtype": "DT_FLOAT", "tensorShape": {"dim": [{"size": "1"}, {"size": "1"}, {"size": "160"}, {"size": "160"}]}}}}}, {"name": "21534", "op": "Const", "attr": {"value": {"tensor": {"dtype": "DT_FLOAT", "tensorShape": {"dim": [{"size": "160"}]}}}, "dtype": {"type": "DT_FLOAT"}}}, {"name": "21536", "op": "Const", "attr": {"value": {"tensor": {"dtype": "DT_INT64", "tensorShape": {"dim": [{"size": "4"}]}}}, "dtype": {"type": "DT_INT64"}}}, {"name": "21538", "op": "Const", "attr": {"dtype": {"type": "DT_INT64"}, "value": {"tensor": {"dtype": "DT_INT64", "tensorShape": {"dim": [{"size": "4"}]}}}}}, {"name": "PartitionedCall/model_31/tf.strided_slice_1/ones_like", "op": "Const", "attr": {"dtype": {"type": "DT_INT64"}, "value": {"tensor": {"dtype": "DT_INT64", "tensorShape": {"dim": [{"size": "4"}]}}}}}, {"name": "21540", "op": "Const", "attr": {"dtype": {"type": "DT_FLOAT"}, "value": {"tensor": {"dtype": "DT_FLOAT", "tensorShape": {"dim": [{"size": "3"}, {"size": "3"}, {"size": "80"}, {"size": "80"}]}}}}}, {"name": "21542", "op": "Const", "attr": {"dtype": {"type": "DT_FLOAT"}, "value": {"tensor": {"dtype": "DT_FLOAT", "tensorShape": {"dim": [{"size": "80"}]}}}}}, {"name": "21544", "op": "Const", "attr": {"dtype": {"type": "DT_FLOAT"}, "value": {"tensor": {"dtype": "DT_FLOAT", "tensorShape": {"dim": [{"size": "3"}, {"size": "3"}, {"size": "80"}, {"size": "80"}]}}}}}, {"name": "21546", "op": "Const", "attr": {"value": {"tensor": {"dtype": "DT_FLOAT", "tensorShape": {"dim": [{"size": "80"}]}}}, "dtype": {"type": "DT_FLOAT"}}}, {"name": "21548", "op": "Const", "attr": {"dtype": {"type": "DT_FLOAT"}, "value": {"tensor": {"dtype": "DT_FLOAT", "tensorShape": {"dim": [{"size": "3"}, {"size": "3"}, {"size": "80"}, {"size": "80"}]}}}}}, {"name": "21550", "op": "Const", "attr": {"dtype": {"type": "DT_FLOAT"}, "value": {"tensor": {"dtype": "DT_FLOAT", "tensorShape": {"dim": [{"size": "80"}]}}}}}, {"name": "21552", "op": "Const", "attr": {"value": {"tensor": {"dtype": "DT_FLOAT", "tensorShape": {"dim": [{"size": "3"}, {"size": "3"}, {"size": "80"}, {"size": "80"}]}}}, "dtype": {"type": "DT_FLOAT"}}}, {"name": "21554", "op": "Const", "attr": {"value": {"tensor": {"dtype": "DT_FLOAT", "tensorShape": {"dim": [{"size": "80"}]}}}, "dtype": {"type": "DT_FLOAT"}}}, {"name": "21556", "op": "Const", "attr": {"dtype": {"type": "DT_FLOAT"}, "value": {"tensor": {"dtype": "DT_FLOAT", "tensorShape": {"dim": [{"size": "3"}, {"size": "3"}, {"size": "80"}, {"size": "80"}]}}}}}, {"name": "21558", "op": "Const", "attr": {"value": {"tensor": {"dtype": "DT_FLOAT", "tensorShape": {"dim": [{"size": "80"}]}}}, "dtype": {"type": "DT_FLOAT"}}}, {"name": "21560", "op": "Const", "attr": {"value": {"tensor": {"dtype": "DT_FLOAT", "tensorShape": {"dim": [{"size": "3"}, {"size": "3"}, {"size": "80"}, {"size": "80"}]}}}, "dtype": {"type": "DT_FLOAT"}}}, {"name": "21562", "op": "Const", "attr": {"value": {"tensor": {"dtype": "DT_FLOAT", "tensorShape": {"dim": [{"size": "80"}]}}}, "dtype": {"type": "DT_FLOAT"}}}, {"name": "PartitionedCall/model_31/tf.concat/concat/axis", "op": "Const", "attr": {"dtype": {"type": "DT_INT32"}, "value": {"tensor": {"dtype": "DT_INT32", "tensorShape": {}}}}}, {"name": "21568", "op": "Const", "attr": {"value": {"tensor": {"dtype": "DT_FLOAT", "tensorShape": {"dim": [{"size": "1"}, {"size": "1"}, {"size": "400"}, {"size": "160"}]}}}, "dtype": {"type": "DT_FLOAT"}}}, {"name": "21570", "op": "Const", "attr": {"dtype": {"type": "DT_FLOAT"}, "value": {"tensor": {"dtype": "DT_FLOAT", "tensorShape": {"dim": [{"size": "160"}]}}}}}, {"name": "21572", "op": "Const", "attr": {"value": {"tensor": {"dtype": "DT_INT32", "tensorShape": {"dim": [{"size": "4"}, {"size": "2"}]}}}, "dtype": {"type": "DT_INT32"}}}, {"name": "21574", "op": "Const", "attr": {"dtype": {"type": "DT_FLOAT"}, "value": {"tensor": {"dtype": "DT_FLOAT", "tensorShape": {"dim": [{"size": "3"}, {"size": "3"}, {"size": "160"}, {"size": "320"}]}}}}}, {"name": "21576", "op": "Const", "attr": {"value": {"tensor": {"dtype": "DT_FLOAT", "tensorShape": {"dim": [{"size": "320"}]}}}, "dtype": {"type": "DT_FLOAT"}}}, {"name": "21578", "op": "Const", "attr": {"value": {"tensor": {"dtype": "DT_FLOAT", "tensorShape": {"dim": [{"size": "1"}, {"size": "1"}, {"size": "320"}, {"size": "320"}]}}}, "dtype": {"type": "DT_FLOAT"}}}, {"name": "21580", "op": "Const", "attr": {"dtype": {"type": "DT_FLOAT"}, "value": {"tensor": {"dtype": "DT_FLOAT", "tensorShape": {"dim": [{"size": "320"}]}}}}}, {"name": "21582", "op": "Const", "attr": {"dtype": {"type": "DT_INT64"}, "value": {"tensor": {"dtype": "DT_INT64", "tensorShape": {"dim": [{"size": "4"}]}}}}}, {"name": "21584", "op": "Const", "attr": {"dtype": {"type": "DT_INT64"}, "value": {"tensor": {"dtype": "DT_INT64", "tensorShape": {"dim": [{"size": "4"}]}}}}}, {"name": "PartitionedCall/model_31/tf.strided_slice_3/ones_like", "op": "Const", "attr": {"value": {"tensor": {"dtype": "DT_INT64", "tensorShape": {"dim": [{"size": "4"}]}}}, "dtype": {"type": "DT_INT64"}}}, {"name": "21586", "op": "Const", "attr": {"dtype": {"type": "DT_FLOAT"}, "value": {"tensor": {"dtype": "DT_FLOAT", "tensorShape": {"dim": [{"size": "3"}, {"size": "3"}, {"size": "160"}, {"size": "160"}]}}}}}, {"name": "21588", "op": "Const", "attr": {"value": {"tensor": {"dtype": "DT_FLOAT", "tensorShape": {"dim": [{"size": "160"}]}}}, "dtype": {"type": "DT_FLOAT"}}}, {"name": "21590", "op": "Const", "attr": {"value": {"tensor": {"dtype": "DT_FLOAT", "tensorShape": {"dim": [{"size": "3"}, {"size": "3"}, {"size": "160"}, {"size": "160"}]}}}, "dtype": {"type": "DT_FLOAT"}}}, {"name": "21592", "op": "Const", "attr": {"value": {"tensor": {"dtype": "DT_FLOAT", "tensorShape": {"dim": [{"size": "160"}]}}}, "dtype": {"type": "DT_FLOAT"}}}, {"name": "21594", "op": "Const", "attr": {"value": {"tensor": {"dtype": "DT_FLOAT", "tensorShape": {"dim": [{"size": "3"}, {"size": "3"}, {"size": "160"}, {"size": "160"}]}}}, "dtype": {"type": "DT_FLOAT"}}}, {"name": "21596", "op": "Const", "attr": {"value": {"tensor": {"dtype": "DT_FLOAT", "tensorShape": {"dim": [{"size": "160"}]}}}, "dtype": {"type": "DT_FLOAT"}}}, {"name": "21598", "op": "Const", "attr": {"dtype": {"type": "DT_FLOAT"}, "value": {"tensor": {"dtype": "DT_FLOAT", "tensorShape": {"dim": [{"size": "3"}, {"size": "3"}, {"size": "160"}, {"size": "160"}]}}}}}, {"name": "21600", "op": "Const", "attr": {"value": {"tensor": {"dtype": "DT_FLOAT", "tensorShape": {"dim": [{"size": "160"}]}}}, "dtype": {"type": "DT_FLOAT"}}}, {"name": "21602", "op": "Const", "attr": {"value": {"tensor": {"dtype": "DT_FLOAT", "tensorShape": {"dim": [{"size": "3"}, {"size": "3"}, {"size": "160"}, {"size": "160"}]}}}, "dtype": {"type": "DT_FLOAT"}}}, {"name": "21604", "op": "Const", "attr": {"dtype": {"type": "DT_FLOAT"}, "value": {"tensor": {"dtype": "DT_FLOAT", "tensorShape": {"dim": [{"size": "160"}]}}}}}, {"name": "21606", "op": "Const", "attr": {"dtype": {"type": "DT_FLOAT"}, "value": {"tensor": {"dtype": "DT_FLOAT", "tensorShape": {"dim": [{"size": "3"}, {"size": "3"}, {"size": "160"}, {"size": "160"}]}}}}}, {"name": "21608", "op": "Const", "attr": {"value": {"tensor": {"dtype": "DT_FLOAT", "tensorShape": {"dim": [{"size": "160"}]}}}, "dtype": {"type": "DT_FLOAT"}}}, {"name": "21610", "op": "Const", "attr": {"value": {"tensor": {"dtype": "DT_FLOAT", "tensorShape": {"dim": [{"size": "3"}, {"size": "3"}, {"size": "160"}, {"size": "160"}]}}}, "dtype": {"type": "DT_FLOAT"}}}, {"name": "21612", "op": "Const", "attr": {"value": {"tensor": {"dtype": "DT_FLOAT", "tensorShape": {"dim": [{"size": "160"}]}}}, "dtype": {"type": "DT_FLOAT"}}}, {"name": "21614", "op": "Const", "attr": {"value": {"tensor": {"dtype": "DT_FLOAT", "tensorShape": {"dim": [{"size": "3"}, {"size": "3"}, {"size": "160"}, {"size": "160"}]}}}, "dtype": {"type": "DT_FLOAT"}}}, {"name": "21616", "op": "Const", "attr": {"value": {"tensor": {"dtype": "DT_FLOAT", "tensorShape": {"dim": [{"size": "160"}]}}}, "dtype": {"type": "DT_FLOAT"}}}, {"name": "21618", "op": "Const", "attr": {"dtype": {"type": "DT_FLOAT"}, "value": {"tensor": {"dtype": "DT_FLOAT", "tensorShape": {"dim": [{"size": "3"}, {"size": "3"}, {"size": "160"}, {"size": "160"}]}}}}}, {"name": "21620", "op": "Const", "attr": {"value": {"tensor": {"dtype": "DT_FLOAT", "tensorShape": {"dim": [{"size": "160"}]}}}, "dtype": {"type": "DT_FLOAT"}}}, {"name": "21622", "op": "Const", "attr": {"dtype": {"type": "DT_FLOAT"}, "value": {"tensor": {"dtype": "DT_FLOAT", "tensorShape": {"dim": [{"size": "3"}, {"size": "3"}, {"size": "160"}, {"size": "160"}]}}}}}, {"name": "21624", "op": "Const", "attr": {"dtype": {"type": "DT_FLOAT"}, "value": {"tensor": {"dtype": "DT_FLOAT", "tensorShape": {"dim": [{"size": "160"}]}}}}}, {"name": "21626", "op": "Const", "attr": {"dtype": {"type": "DT_FLOAT"}, "value": {"tensor": {"dtype": "DT_FLOAT", "tensorShape": {"dim": [{"size": "3"}, {"size": "3"}, {"size": "160"}, {"size": "160"}]}}}}}, {"name": "21628", "op": "Const", "attr": {"value": {"tensor": {"dtype": "DT_FLOAT", "tensorShape": {"dim": [{"size": "160"}]}}}, "dtype": {"type": "DT_FLOAT"}}}, {"name": "21630", "op": "Const", "attr": {"dtype": {"type": "DT_FLOAT"}, "value": {"tensor": {"dtype": "DT_FLOAT", "tensorShape": {"dim": [{"size": "3"}, {"size": "3"}, {"size": "160"}, {"size": "160"}]}}}}}, {"name": "21632", "op": "Const", "attr": {"dtype": {"type": "DT_FLOAT"}, "value": {"tensor": {"dtype": "DT_FLOAT", "tensorShape": {"dim": [{"size": "160"}]}}}}}, {"name": "PartitionedCall/model_31/tf.concat_1/concat/axis", "op": "Const", "attr": {"dtype": {"type": "DT_INT32"}, "value": {"tensor": {"dtype": "DT_INT32", "tensorShape": {}}}}}, {"name": "21638", "op": "Const", "attr": {"value": {"tensor": {"dtype": "DT_FLOAT", "tensorShape": {"dim": [{"size": "1"}, {"size": "1"}, {"size": "1280"}, {"size": "320"}]}}}, "dtype": {"type": "DT_FLOAT"}}}, {"name": "21640", "op": "Const", "attr": {"dtype": {"type": "DT_FLOAT"}, "value": {"tensor": {"dtype": "DT_FLOAT", "tensorShape": {"dim": [{"size": "320"}]}}}}}, {"name": "21642", "op": "Const", "attr": {"dtype": {"type": "DT_INT32"}, "value": {"tensor": {"dtype": "DT_INT32", "tensorShape": {"dim": [{"size": "4"}, {"size": "2"}]}}}}}, {"name": "21644", "op": "Const", "attr": {"value": {"tensor": {"dtype": "DT_FLOAT", "tensorShape": {"dim": [{"size": "3"}, {"size": "3"}, {"size": "320"}, {"size": "640"}]}}}, "dtype": {"type": "DT_FLOAT"}}}, {"name": "21646", "op": "Const", "attr": {"dtype": {"type": "DT_FLOAT"}, "value": {"tensor": {"dtype": "DT_FLOAT", "tensorShape": {"dim": [{"size": "640"}]}}}}}, {"name": "21648", "op": "Const", "attr": {"dtype": {"type": "DT_FLOAT"}, "value": {"tensor": {"dtype": "DT_FLOAT", "tensorShape": {"dim": [{"size": "1"}, {"size": "1"}, {"size": "640"}, {"size": "640"}]}}}}}, {"name": "21650", "op": "Const", "attr": {"value": {"tensor": {"dtype": "DT_FLOAT", "tensorShape": {"dim": [{"size": "640"}]}}}, "dtype": {"type": "DT_FLOAT"}}}, {"name": "21652", "op": "Const", "attr": {"value": {"tensor": {"dtype": "DT_INT64", "tensorShape": {"dim": [{"size": "4"}]}}}, "dtype": {"type": "DT_INT64"}}}, {"name": "21654", "op": "Const", "attr": {"value": {"tensor": {"dtype": "DT_INT64", "tensorShape": {"dim": [{"size": "4"}]}}}, "dtype": {"type": "DT_INT64"}}}, {"name": "PartitionedCall/model_31/tf.strided_slice_5/ones_like", "op": "Const", "attr": {"value": {"tensor": {"dtype": "DT_INT64", "tensorShape": {"dim": [{"size": "4"}]}}}, "dtype": {"type": "DT_INT64"}}}, {"name": "21656", "op": "Const", "attr": {"dtype": {"type": "DT_FLOAT"}, "value": {"tensor": {"dtype": "DT_FLOAT", "tensorShape": {"dim": [{"size": "3"}, {"size": "3"}, {"size": "320"}, {"size": "320"}]}}}}}, {"name": "21658", "op": "Const", "attr": {"dtype": {"type": "DT_FLOAT"}, "value": {"tensor": {"dtype": "DT_FLOAT", "tensorShape": {"dim": [{"size": "320"}]}}}}}, {"name": "21660", "op": "Const", "attr": {"dtype": {"type": "DT_FLOAT"}, "value": {"tensor": {"dtype": "DT_FLOAT", "tensorShape": {"dim": [{"size": "3"}, {"size": "3"}, {"size": "320"}, {"size": "320"}]}}}}}, {"name": "21662", "op": "Const", "attr": {"dtype": {"type": "DT_FLOAT"}, "value": {"tensor": {"dtype": "DT_FLOAT", "tensorShape": {"dim": [{"size": "320"}]}}}}}, {"name": "21664", "op": "Const", "attr": {"dtype": {"type": "DT_FLOAT"}, "value": {"tensor": {"dtype": "DT_FLOAT", "tensorShape": {"dim": [{"size": "3"}, {"size": "3"}, {"size": "320"}, {"size": "320"}]}}}}}, {"name": "21666", "op": "Const", "attr": {"dtype": {"type": "DT_FLOAT"}, "value": {"tensor": {"dtype": "DT_FLOAT", "tensorShape": {"dim": [{"size": "320"}]}}}}}, {"name": "21668", "op": "Const", "attr": {"dtype": {"type": "DT_FLOAT"}, "value": {"tensor": {"dtype": "DT_FLOAT", "tensorShape": {"dim": [{"size": "3"}, {"size": "3"}, {"size": "320"}, {"size": "320"}]}}}}}, {"name": "21670", "op": "Const", "attr": {"value": {"tensor": {"dtype": "DT_FLOAT", "tensorShape": {"dim": [{"size": "320"}]}}}, "dtype": {"type": "DT_FLOAT"}}}, {"name": "21672", "op": "Const", "attr": {"dtype": {"type": "DT_FLOAT"}, "value": {"tensor": {"dtype": "DT_FLOAT", "tensorShape": {"dim": [{"size": "3"}, {"size": "3"}, {"size": "320"}, {"size": "320"}]}}}}}, {"name": "21674", "op": "Const", "attr": {"value": {"tensor": {"dtype": "DT_FLOAT", "tensorShape": {"dim": [{"size": "320"}]}}}, "dtype": {"type": "DT_FLOAT"}}}, {"name": "21676", "op": "Const", "attr": {"dtype": {"type": "DT_FLOAT"}, "value": {"tensor": {"dtype": "DT_FLOAT", "tensorShape": {"dim": [{"size": "3"}, {"size": "3"}, {"size": "320"}, {"size": "320"}]}}}}}, {"name": "21678", "op": "Const", "attr": {"dtype": {"type": "DT_FLOAT"}, "value": {"tensor": {"dtype": "DT_FLOAT", "tensorShape": {"dim": [{"size": "320"}]}}}}}, {"name": "21680", "op": "Const", "attr": {"value": {"tensor": {"dtype": "DT_FLOAT", "tensorShape": {"dim": [{"size": "3"}, {"size": "3"}, {"size": "320"}, {"size": "320"}]}}}, "dtype": {"type": "DT_FLOAT"}}}, {"name": "21682", "op": "Const", "attr": {"value": {"tensor": {"dtype": "DT_FLOAT", "tensorShape": {"dim": [{"size": "320"}]}}}, "dtype": {"type": "DT_FLOAT"}}}, {"name": "21684", "op": "Const", "attr": {"value": {"tensor": {"dtype": "DT_FLOAT", "tensorShape": {"dim": [{"size": "3"}, {"size": "3"}, {"size": "320"}, {"size": "320"}]}}}, "dtype": {"type": "DT_FLOAT"}}}, {"name": "21686", "op": "Const", "attr": {"value": {"tensor": {"dtype": "DT_FLOAT", "tensorShape": {"dim": [{"size": "320"}]}}}, "dtype": {"type": "DT_FLOAT"}}}, {"name": "21688", "op": "Const", "attr": {"value": {"tensor": {"dtype": "DT_FLOAT", "tensorShape": {"dim": [{"size": "3"}, {"size": "3"}, {"size": "320"}, {"size": "320"}]}}}, "dtype": {"type": "DT_FLOAT"}}}, {"name": "21690", "op": "Const", "attr": {"value": {"tensor": {"dtype": "DT_FLOAT", "tensorShape": {"dim": [{"size": "320"}]}}}, "dtype": {"type": "DT_FLOAT"}}}, {"name": "21692", "op": "Const", "attr": {"dtype": {"type": "DT_FLOAT"}, "value": {"tensor": {"dtype": "DT_FLOAT", "tensorShape": {"dim": [{"size": "3"}, {"size": "3"}, {"size": "320"}, {"size": "320"}]}}}}}, {"name": "21694", "op": "Const", "attr": {"dtype": {"type": "DT_FLOAT"}, "value": {"tensor": {"dtype": "DT_FLOAT", "tensorShape": {"dim": [{"size": "320"}]}}}}}, {"name": "21696", "op": "Const", "attr": {"dtype": {"type": "DT_FLOAT"}, "value": {"tensor": {"dtype": "DT_FLOAT", "tensorShape": {"dim": [{"size": "3"}, {"size": "3"}, {"size": "320"}, {"size": "320"}]}}}}}, {"name": "21698", "op": "Const", "attr": {"dtype": {"type": "DT_FLOAT"}, "value": {"tensor": {"dtype": "DT_FLOAT", "tensorShape": {"dim": [{"size": "320"}]}}}}}, {"name": "21700", "op": "Const", "attr": {"value": {"tensor": {"dtype": "DT_FLOAT", "tensorShape": {"dim": [{"size": "3"}, {"size": "3"}, {"size": "320"}, {"size": "320"}]}}}, "dtype": {"type": "DT_FLOAT"}}}, {"name": "21702", "op": "Const", "attr": {"value": {"tensor": {"dtype": "DT_FLOAT", "tensorShape": {"dim": [{"size": "320"}]}}}, "dtype": {"type": "DT_FLOAT"}}}, {"name": "PartitionedCall/model_31/tf.concat_2/concat/axis", "op": "Const", "attr": {"dtype": {"type": "DT_INT32"}, "value": {"tensor": {"dtype": "DT_INT32", "tensorShape": {}}}}}, {"name": "21708", "op": "Const", "attr": {"value": {"tensor": {"dtype": "DT_FLOAT", "tensorShape": {"dim": [{"size": "1"}, {"size": "1"}, {"size": "2560"}, {"size": "640"}]}}}, "dtype": {"type": "DT_FLOAT"}}}, {"name": "21710", "op": "Const", "attr": {"value": {"tensor": {"dtype": "DT_FLOAT", "tensorShape": {"dim": [{"size": "640"}]}}}, "dtype": {"type": "DT_FLOAT"}}}, {"name": "21712", "op": "Const", "attr": {"dtype": {"type": "DT_INT32"}, "value": {"tensor": {"dtype": "DT_INT32", "tensorShape": {"dim": [{"size": "4"}, {"size": "2"}]}}}}}, {"name": "21714", "op": "Const", "attr": {"dtype": {"type": "DT_FLOAT"}, "value": {"tensor": {"dtype": "DT_FLOAT", "tensorShape": {"dim": [{"size": "3"}, {"size": "3"}, {"size": "640"}, {"size": "640"}]}}}}}, {"name": "21716", "op": "Const", "attr": {"dtype": {"type": "DT_FLOAT"}, "value": {"tensor": {"dtype": "DT_FLOAT", "tensorShape": {"dim": [{"size": "640"}]}}}}}, {"name": "21718", "op": "Const", "attr": {"dtype": {"type": "DT_FLOAT"}, "value": {"tensor": {"dtype": "DT_FLOAT", "tensorShape": {"dim": [{"size": "1"}, {"size": "1"}, {"size": "640"}, {"size": "640"}]}}}}}, {"name": "21720", "op": "Const", "attr": {"dtype": {"type": "DT_FLOAT"}, "value": {"tensor": {"dtype": "DT_FLOAT", "tensorShape": {"dim": [{"size": "640"}]}}}}}, {"name": "21722", "op": "Const", "attr": {"dtype": {"type": "DT_INT64"}, "value": {"tensor": {"dtype": "DT_INT64", "tensorShape": {"dim": [{"size": "4"}]}}}}}, {"name": "21724", "op": "Const", "attr": {"dtype": {"type": "DT_INT64"}, "value": {"tensor": {"dtype": "DT_INT64", "tensorShape": {"dim": [{"size": "4"}]}}}}}, {"name": "PartitionedCall/model_31/tf.strided_slice_7/ones_like", "op": "Const", "attr": {"dtype": {"type": "DT_INT64"}, "value": {"tensor": {"dtype": "DT_INT64", "tensorShape": {"dim": [{"size": "4"}]}}}}}, {"name": "21726", "op": "Const", "attr": {"dtype": {"type": "DT_FLOAT"}, "value": {"tensor": {"dtype": "DT_FLOAT", "tensorShape": {"dim": [{"size": "3"}, {"size": "3"}, {"size": "320"}, {"size": "320"}]}}}}}, {"name": "21728", "op": "Const", "attr": {"dtype": {"type": "DT_FLOAT"}, "value": {"tensor": {"dtype": "DT_FLOAT", "tensorShape": {"dim": [{"size": "320"}]}}}}}, {"name": "21730", "op": "Const", "attr": {"value": {"tensor": {"dtype": "DT_FLOAT", "tensorShape": {"dim": [{"size": "3"}, {"size": "3"}, {"size": "320"}, {"size": "320"}]}}}, "dtype": {"type": "DT_FLOAT"}}}, {"name": "21732", "op": "Const", "attr": {"dtype": {"type": "DT_FLOAT"}, "value": {"tensor": {"dtype": "DT_FLOAT", "tensorShape": {"dim": [{"size": "320"}]}}}}}, {"name": "21734", "op": "Const", "attr": {"dtype": {"type": "DT_FLOAT"}, "value": {"tensor": {"dtype": "DT_FLOAT", "tensorShape": {"dim": [{"size": "3"}, {"size": "3"}, {"size": "320"}, {"size": "320"}]}}}}}, {"name": "21736", "op": "Const", "attr": {"value": {"tensor": {"dtype": "DT_FLOAT", "tensorShape": {"dim": [{"size": "320"}]}}}, "dtype": {"type": "DT_FLOAT"}}}, {"name": "21738", "op": "Const", "attr": {"value": {"tensor": {"dtype": "DT_FLOAT", "tensorShape": {"dim": [{"size": "3"}, {"size": "3"}, {"size": "320"}, {"size": "320"}]}}}, "dtype": {"type": "DT_FLOAT"}}}, {"name": "21740", "op": "Const", "attr": {"value": {"tensor": {"dtype": "DT_FLOAT", "tensorShape": {"dim": [{"size": "320"}]}}}, "dtype": {"type": "DT_FLOAT"}}}, {"name": "21742", "op": "Const", "attr": {"dtype": {"type": "DT_FLOAT"}, "value": {"tensor": {"dtype": "DT_FLOAT", "tensorShape": {"dim": [{"size": "3"}, {"size": "3"}, {"size": "320"}, {"size": "320"}]}}}}}, {"name": "21744", "op": "Const", "attr": {"dtype": {"type": "DT_FLOAT"}, "value": {"tensor": {"dtype": "DT_FLOAT", "tensorShape": {"dim": [{"size": "320"}]}}}}}, {"name": "21746", "op": "Const", "attr": {"value": {"tensor": {"dtype": "DT_FLOAT", "tensorShape": {"dim": [{"size": "3"}, {"size": "3"}, {"size": "320"}, {"size": "320"}]}}}, "dtype": {"type": "DT_FLOAT"}}}, {"name": "21748", "op": "Const", "attr": {"value": {"tensor": {"dtype": "DT_FLOAT", "tensorShape": {"dim": [{"size": "320"}]}}}, "dtype": {"type": "DT_FLOAT"}}}, {"name": "PartitionedCall/model_31/tf.concat_3/concat/axis", "op": "Const", "attr": {"value": {"tensor": {"dtype": "DT_INT32", "tensorShape": {}}}, "dtype": {"type": "DT_INT32"}}}, {"name": "21754", "op": "Const", "attr": {"dtype": {"type": "DT_FLOAT"}, "value": {"tensor": {"dtype": "DT_FLOAT", "tensorShape": {"dim": [{"size": "1"}, {"size": "1"}, {"size": "1600"}, {"size": "640"}]}}}}}, {"name": "21756", "op": "Const", "attr": {"dtype": {"type": "DT_FLOAT"}, "value": {"tensor": {"dtype": "DT_FLOAT", "tensorShape": {"dim": [{"size": "640"}]}}}}}, {"name": "21758", "op": "Const", "attr": {"value": {"tensor": {"dtype": "DT_FLOAT", "tensorShape": {"dim": [{"size": "1"}, {"size": "1"}, {"size": "640"}, {"size": "320"}]}}}, "dtype": {"type": "DT_FLOAT"}}}, {"name": "21760", "op": "Const", "attr": {"value": {"tensor": {"dtype": "DT_FLOAT", "tensorShape": {"dim": [{"size": "320"}]}}}, "dtype": {"type": "DT_FLOAT"}}}, {"name": "PartitionedCall/model_31/tf.concat_4/concat/axis", "op": "Const", "attr": {"dtype": {"type": "DT_INT32"}, "value": {"tensor": {"dtype": "DT_INT32", "tensorShape": {}}}}}, {"name": "21762", "op": "Const", "attr": {"dtype": {"type": "DT_FLOAT"}, "value": {"tensor": {"dtype": "DT_FLOAT", "tensorShape": {"dim": [{"size": "1"}, {"size": "1"}, {"size": "1280"}, {"size": "640"}]}}}}}, {"name": "21764", "op": "Const", "attr": {"value": {"tensor": {"dtype": "DT_FLOAT", "tensorShape": {"dim": [{"size": "640"}]}}}, "dtype": {"type": "DT_FLOAT"}}}, {"name": "PartitionedCall/model_31/tf.concat_12/concat/axis", "op": "Const", "attr": {"value": {"tensor": {"dtype": "DT_INT32", "tensorShape": {}}}, "dtype": {"type": "DT_INT32"}}}, {"name": "21898", "op": "Const", "attr": {"value": {"tensor": {"dtype": "DT_FLOAT", "tensorShape": {"dim": [{"size": "1"}, {"size": "1"}, {"size": "1280"}, {"size": "640"}]}}}, "dtype": {"type": "DT_FLOAT"}}}, {"name": "21900", "op": "Const", "attr": {"dtype": {"type": "DT_FLOAT"}, "value": {"tensor": {"dtype": "DT_FLOAT", "tensorShape": {"dim": [{"size": "640"}]}}}}}, {"name": "21902", "op": "Const", "attr": {"value": {"tensor": {"dtype": "DT_INT64", "tensorShape": {"dim": [{"size": "4"}]}}}, "dtype": {"type": "DT_INT64"}}}, {"name": "21904", "op": "Const", "attr": {"dtype": {"type": "DT_INT64"}, "value": {"tensor": {"dtype": "DT_INT64", "tensorShape": {"dim": [{"size": "4"}]}}}}}, {"name": "PartitionedCall/model_31/tf.strided_slice_15/ones_like", "op": "Const", "attr": {"dtype": {"type": "DT_INT64"}, "value": {"tensor": {"dtype": "DT_INT64", "tensorShape": {"dim": [{"size": "4"}]}}}}}, {"name": "21906", "op": "Const", "attr": {"value": {"tensor": {"dtype": "DT_FLOAT", "tensorShape": {"dim": [{"size": "3"}, {"size": "3"}, {"size": "320"}, {"size": "320"}]}}}, "dtype": {"type": "DT_FLOAT"}}}, {"name": "21908", "op": "Const", "attr": {"dtype": {"type": "DT_FLOAT"}, "value": {"tensor": {"dtype": "DT_FLOAT", "tensorShape": {"dim": [{"size": "320"}]}}}}}, {"name": "21910", "op": "Const", "attr": {"dtype": {"type": "DT_FLOAT"}, "value": {"tensor": {"dtype": "DT_FLOAT", "tensorShape": {"dim": [{"size": "3"}, {"size": "3"}, {"size": "320"}, {"size": "320"}]}}}}}, {"name": "21912", "op": "Const", "attr": {"dtype": {"type": "DT_FLOAT"}, "value": {"tensor": {"dtype": "DT_FLOAT", "tensorShape": {"dim": [{"size": "320"}]}}}}}, {"name": "21914", "op": "Const", "attr": {"dtype": {"type": "DT_FLOAT"}, "value": {"tensor": {"dtype": "DT_FLOAT", "tensorShape": {"dim": [{"size": "3"}, {"size": "3"}, {"size": "320"}, {"size": "320"}]}}}}}, {"name": "21916", "op": "Const", "attr": {"dtype": {"type": "DT_FLOAT"}, "value": {"tensor": {"dtype": "DT_FLOAT", "tensorShape": {"dim": [{"size": "320"}]}}}}}, {"name": "21918", "op": "Const", "attr": {"value": {"tensor": {"dtype": "DT_FLOAT", "tensorShape": {"dim": [{"size": "3"}, {"size": "3"}, {"size": "320"}, {"size": "320"}]}}}, "dtype": {"type": "DT_FLOAT"}}}, {"name": "21920", "op": "Const", "attr": {"value": {"tensor": {"dtype": "DT_FLOAT", "tensorShape": {"dim": [{"size": "320"}]}}}, "dtype": {"type": "DT_FLOAT"}}}, {"name": "21922", "op": "Const", "attr": {"dtype": {"type": "DT_FLOAT"}, "value": {"tensor": {"dtype": "DT_FLOAT", "tensorShape": {"dim": [{"size": "3"}, {"size": "3"}, {"size": "320"}, {"size": "320"}]}}}}}, {"name": "21924", "op": "Const", "attr": {"value": {"tensor": {"dtype": "DT_FLOAT", "tensorShape": {"dim": [{"size": "320"}]}}}, "dtype": {"type": "DT_FLOAT"}}}, {"name": "21926", "op": "Const", "attr": {"dtype": {"type": "DT_FLOAT"}, "value": {"tensor": {"dtype": "DT_FLOAT", "tensorShape": {"dim": [{"size": "3"}, {"size": "3"}, {"size": "320"}, {"size": "320"}]}}}}}, {"name": "21928", "op": "Const", "attr": {"dtype": {"type": "DT_FLOAT"}, "value": {"tensor": {"dtype": "DT_FLOAT", "tensorShape": {"dim": [{"size": "320"}]}}}}}, {"name": "PartitionedCall/model_31/tf.concat_14/concat/axis", "op": "Const", "attr": {"dtype": {"type": "DT_INT32"}, "value": {"tensor": {"dtype": "DT_INT32", "tensorShape": {}}}}}, {"name": "21934", "op": "Const", "attr": {"dtype": {"type": "DT_FLOAT"}, "value": {"tensor": {"dtype": "DT_FLOAT", "tensorShape": {"dim": [{"size": "1"}, {"size": "1"}, {"size": "1600"}, {"size": "640"}]}}}}}, {"name": "21938", "op": "Const", "attr": {"dtype": {"type": "DT_FLOAT"}, "value": {"tensor": {"dtype": "DT_FLOAT", "tensorShape": {"dim": [{"size": "640"}]}}}}}, {"name": "21942", "op": "Const", "attr": {"dtype": {"type": "DT_FLOAT"}, "value": {"tensor": {"dtype": "DT_FLOAT", "tensorShape": {"dim": [{"size": "3"}, {"size": "3"}, {"size": "640"}, {"size": "320"}]}}}}}, {"name": "21952", "op": "Const", "attr": {"value": {"tensor": {"dtype": "DT_FLOAT", "tensorShape": {"dim": [{"size": "320"}]}}}, "dtype": {"type": "DT_FLOAT"}}}, {"name": "21966", "op": "Const", "attr": {"dtype": {"type": "DT_FLOAT"}, "value": {"tensor": {"dtype": "DT_FLOAT", "tensorShape": {"dim": [{"size": "3"}, {"size": "3"}, {"size": "320"}, {"size": "320"}]}}}}}, {"name": "21976", "op": "Const", "attr": {"value": {"tensor": {"dtype": "DT_FLOAT", "tensorShape": {"dim": [{"size": "320"}]}}}, "dtype": {"type": "DT_FLOAT"}}}, {"name": "21986", "op": "Const", "attr": {"value": {"tensor": {"dtype": "DT_FLOAT", "tensorShape": {"dim": [{"size": "1"}, {"size": "1"}, {"size": "320"}, {"size": "1"}]}}}, "dtype": {"type": "DT_FLOAT"}}}, {"name": "22000", "op": "Const", "attr": {"value": {"tensor": {"dtype": "DT_FLOAT", "tensorShape": {"dim": [{"size": "1"}]}}}, "dtype": {"type": "DT_FLOAT"}}}, {"name": "PartitionedCall/model_31/tf.concat_15/concat/axis", "op": "Const", "attr": {"dtype": {"type": "DT_INT32"}, "value": {"tensor": {"dtype": "DT_INT32", "tensorShape": {}}}}}, {"name": "PartitionedCall/model_31/tf.compat.v1.transpose_26/transpose/perm", "op": "Const", "attr": {"dtype": {"type": "DT_INT32"}, "value": {"tensor": {"dtype": "DT_INT32", "tensorShape": {"dim": [{"size": "4"}]}}}}}, {"name": "PartitionedCall/model_31/tf.reshape_8/Reshape/shape", "op": "Const", "attr": {"value": {"tensor": {"dtype": "DT_INT32", "tensorShape": {"dim": [{"size": "3"}]}}}, "dtype": {"type": "DT_INT32"}}}, {"name": "PartitionedCall/model_31/tf.concat_16/concat/axis", "op": "Const", "attr": {"value": {"tensor": {"dtype": "DT_INT32", "tensorShape": {}}}, "dtype": {"type": "DT_INT32"}}}, {"name": "22030", "op": "Const", "attr": {"dtype": {"type": "DT_INT64"}, "value": {"tensor": {"dtype": "DT_INT64", "tensorShape": {"dim": [{"size": "3"}]}}}}}, {"name": "22032", "op": "Const", "attr": {"value": {"tensor": {"dtype": "DT_INT64", "tensorShape": {"dim": [{"size": "3"}]}}}, "dtype": {"type": "DT_INT64"}}}, {"name": "PartitionedCall/model_31/tf.strided_slice_17/StridedSlice/strides", "op": "Const", "attr": {"value": {"tensor": {"dtype": "DT_INT64", "tensorShape": {"dim": [{"size": "3"}]}}}, "dtype": {"type": "DT_INT64"}}}, {"name": "PartitionedCall/model_31/output0/concat/axis", "op": "Const", "attr": {"value": {"tensor": {"dtype": "DT_INT32", "tensorShape": {}}}, "dtype": {"type": "DT_INT32"}}}, {"name": "x", "op": "Placeholder", "attr": {"shape": {"shape": {"dim": [{"size": "1"}, {"size": "640"}, {"size": "640"}, {"size": "3"}]}}, "dtype": {"type": "DT_FLOAT"}}}, {"name": "PartitionedCall/model_31/tf.compat.v1.pad/Pad", "op": "Pad", "input": ["x", "21520"], "attr": {"Tpaddings": {"type": "DT_INT32"}, "T": {"type": "DT_FLOAT"}}}, {"name": "PartitionedCall/model_31/tf.math.add/Add", "op": "_FusedConv2D", "input": ["PartitionedCall/model_31/tf.compat.v1.pad/Pad", "21522", "21524"], "device": "/device:CPU:0", "attr": {"TArgs": {"list": {"type": ["DT_FLOAT"]}}, "use_cudnn_on_gpu": {"b": true}, "dilations": {"list": {"i": ["1", "1", "1", "1"]}}, "strides": {"list": {"i": ["1", "2", "2", "1"]}}, "padding": {"s": "VkFMSUQ="}, "epsilon": {"f": 0.0}, "leakyrelu_alpha": {"f": 0.2}, "num_host_args": {"i": "0"}, "fused_ops": {"list": {"s": ["Qmlhc0FkZA=="]}}, "data_format": {"s": "TkhXQw=="}, "filter_format": {"s": "SFdJTw=="}, "num_args": {"i": "1"}, "explicit_paddings": {"list": {}}, "T": {"type": "DT_FLOAT"}}}, {"name": "PartitionedCall/model_31/tf.math.sigmoid/Sigmoid", "op": "Sigmoid", "input": ["PartitionedCall/model_31/tf.math.add/Add"], "attr": {"T": {"type": "DT_FLOAT"}}}, {"name": "PartitionedCall/model_31/tf.math.multiply_3/Mul", "op": "Mul", "input": ["PartitionedCall/model_31/tf.math.add/Add", "PartitionedCall/model_31/tf.math.sigmoid/Sigmoid"], "attr": {"T": {"type": "DT_FLOAT"}}}, {"name": "PartitionedCall/model_31/tf.compat.v1.pad_1/Pad", "op": "Pad", "input": ["PartitionedCall/model_31/tf.math.multiply_3/Mul", "21526"], "attr": {"Tpaddings": {"type": "DT_INT32"}, "T": {"type": "DT_FLOAT"}}}, {"name": "PartitionedCall/model_31/tf.math.add_1/Add", "op": "_FusedConv2D", "input": ["PartitionedCall/model_31/tf.compat.v1.pad_1/Pad", "21528", "21530"], "device": "/device:CPU:0", "attr": {"dilations": {"list": {"i": ["1", "1", "1", "1"]}}, "padding": {"s": "VkFMSUQ="}, "TArgs": {"list": {"type": ["DT_FLOAT"]}}, "epsilon": {"f": 0.0}, "filter_format": {"s": "SFdJTw=="}, "num_args": {"i": "1"}, "leakyrelu_alpha": {"f": 0.2}, "data_format": {"s": "TkhXQw=="}, "strides": {"list": {"i": ["1", "2", "2", "1"]}}, "T": {"type": "DT_FLOAT"}, "use_cudnn_on_gpu": {"b": true}, "num_host_args": {"i": "0"}, "fused_ops": {"list": {"s": ["Qmlhc0FkZA=="]}}, "explicit_paddings": {"list": {}}}}, {"name": "PartitionedCall/model_31/tf.math.sigmoid_1/Sigmoid", "op": "Sigmoid", "input": ["PartitionedCall/model_31/tf.math.add_1/Add"], "attr": {"T": {"type": "DT_FLOAT"}}}, {"name": "PartitionedCall/model_31/tf.math.multiply_7/Mul", "op": "Mul", "input": ["PartitionedCall/model_31/tf.math.add_1/Add", "PartitionedCall/model_31/tf.math.sigmoid_1/Sigmoid"], "attr": {"T": {"type": "DT_FLOAT"}}}, {"name": "PartitionedCall/model_31/tf.math.add_4/Add", "op": "_FusedConv2D", "input": ["PartitionedCall/model_31/tf.math.multiply_7/Mul", "21532", "21534"], "device": "/device:CPU:0", "attr": {"dilations": {"list": {"i": ["1", "1", "1", "1"]}}, "num_args": {"i": "1"}, "num_host_args": {"i": "0"}, "fused_ops": {"list": {"s": ["Qmlhc0FkZA=="]}}, "explicit_paddings": {"list": {}}, "strides": {"list": {"i": ["1", "1", "1", "1"]}}, "epsilon": {"f": 0.0}, "padding": {"s": "U0FNRQ=="}, "T": {"type": "DT_FLOAT"}, "TArgs": {"list": {"type": ["DT_FLOAT"]}}, "filter_format": {"s": "SFdJTw=="}, "leakyrelu_alpha": {"f": 0.2}, "use_cudnn_on_gpu": {"b": true}, "data_format": {"s": "TkhXQw=="}}}, {"name": "PartitionedCall/model_31/tf.math.sigmoid_2/Sigmoid", "op": "Sigmoid", "input": ["PartitionedCall/model_31/tf.math.add_4/Add"], "attr": {"T": {"type": "DT_FLOAT"}}}, {"name": "PartitionedCall/model_31/tf.math.multiply_11/Mul", "op": "Mul", "input": ["PartitionedCall/model_31/tf.math.add_4/Add", "PartitionedCall/model_31/tf.math.sigmoid_2/Sigmoid"], "attr": {"T": {"type": "DT_FLOAT"}}}, {"name": "PartitionedCall/model_31/tf.strided_slice/StridedSlice", "op": "StridedSlice", "input": ["PartitionedCall/model_31/tf.math.multiply_11/Mul", "21564", "21566", "PartitionedCall/model_31/tf.strided_slice/ones_like"], "attr": {"new_axis_mask": {"i": "0"}, "shrink_axis_mask": {"i": "0"}, "ellipsis_mask": {"i": "0"}, "Index": {"type": "DT_INT64"}, "begin_mask": {"i": "15"}, "T": {"type": "DT_FLOAT"}, "end_mask": {"i": "7"}}}, {"name": "PartitionedCall/model_31/tf.strided_slice_1/StridedSlice", "op": "StridedSlice", "input": ["PartitionedCall/model_31/tf.math.multiply_11/Mul", "21536", "21538", "PartitionedCall/model_31/tf.strided_slice_1/ones_like"], "attr": {"Index": {"type": "DT_INT64"}, "shrink_axis_mask": {"i": "0"}, "end_mask": {"i": "7"}, "T": {"type": "DT_FLOAT"}, "ellipsis_mask": {"i": "0"}, "new_axis_mask": {"i": "0"}, "begin_mask": {"i": "7"}}}, {"name": "PartitionedCall/model_31/tf.math.add_5/Add", "op": "_FusedConv2D", "input": ["PartitionedCall/model_31/tf.strided_slice_1/StridedSlice", "21540", "21542"], "device": "/device:CPU:0", "attr": {"epsilon": {"f": 0.0}, "padding": {"s": "U0FNRQ=="}, "leakyrelu_alpha": {"f": 0.2}, "TArgs": {"list": {"type": ["DT_FLOAT"]}}, "filter_format": {"s": "SFdJTw=="}, "num_host_args": {"i": "0"}, "T": {"type": "DT_FLOAT"}, "data_format": {"s": "TkhXQw=="}, "dilations": {"list": {"i": ["1", "1", "1", "1"]}}, "strides": {"list": {"i": ["1", "1", "1", "1"]}}, "num_args": {"i": "1"}, "explicit_paddings": {"list": {}}, "fused_ops": {"list": {"s": ["Qmlhc0FkZA=="]}}, "use_cudnn_on_gpu": {"b": true}}}, {"name": "PartitionedCall/model_31/tf.math.sigmoid_3/Sigmoid", "op": "Sigmoid", "input": ["PartitionedCall/model_31/tf.math.add_5/Add"], "attr": {"T": {"type": "DT_FLOAT"}}}, {"name": "PartitionedCall/model_31/tf.math.multiply_15/Mul", "op": "Mul", "input": ["PartitionedCall/model_31/tf.math.add_5/Add", "PartitionedCall/model_31/tf.math.sigmoid_3/Sigmoid"], "attr": {"T": {"type": "DT_FLOAT"}}}, {"name": "PartitionedCall/model_31/tf.math.add_6/Add", "op": "_FusedConv2D", "input": ["PartitionedCall/model_31/tf.math.multiply_15/Mul", "21544", "21546"], "device": "/device:CPU:0", "attr": {"num_args": {"i": "1"}, "padding": {"s": "U0FNRQ=="}, "filter_format": {"s": "SFdJTw=="}, "leakyrelu_alpha": {"f": 0.2}, "T": {"type": "DT_FLOAT"}, "strides": {"list": {"i": ["1", "1", "1", "1"]}}, "epsilon": {"f": 0.0}, "TArgs": {"list": {"type": ["DT_FLOAT"]}}, "fused_ops": {"list": {"s": ["Qmlhc0FkZA=="]}}, "num_host_args": {"i": "0"}, "use_cudnn_on_gpu": {"b": true}, "dilations": {"list": {"i": ["1", "1", "1", "1"]}}, "explicit_paddings": {"list": {}}, "data_format": {"s": "TkhXQw=="}}}, {"name": "PartitionedCall/model_31/tf.math.sigmoid_4/Sigmoid", "op": "Sigmoid", "input": ["PartitionedCall/model_31/tf.math.add_6/Add"], "attr": {"T": {"type": "DT_FLOAT"}}}, {"name": "PartitionedCall/model_31/tf.math.multiply_19/Mul", "op": "Mul", "input": ["PartitionedCall/model_31/tf.math.add_6/Add", "PartitionedCall/model_31/tf.math.sigmoid_4/Sigmoid"], "attr": {"T": {"type": "DT_FLOAT"}}}, {"name": "PartitionedCall/model_31/tf.math.add_8/Add", "op": "AddV2", "input": ["PartitionedCall/model_31/tf.strided_slice_1/StridedSlice", "PartitionedCall/model_31/tf.math.multiply_19/Mul"], "attr": {"T": {"type": "DT_FLOAT"}}}, {"name": "PartitionedCall/model_31/tf.math.add_9/Add", "op": "_FusedConv2D", "input": ["PartitionedCall/model_31/tf.math.add_8/Add", "21548", "21550"], "device": "/device:CPU:0", "attr": {"T": {"type": "DT_FLOAT"}, "explicit_paddings": {"list": {}}, "strides": {"list": {"i": ["1", "1", "1", "1"]}}, "TArgs": {"list": {"type": ["DT_FLOAT"]}}, "use_cudnn_on_gpu": {"b": true}, "data_format": {"s": "TkhXQw=="}, "fused_ops": {"list": {"s": ["Qmlhc0FkZA=="]}}, "filter_format": {"s": "SFdJTw=="}, "dilations": {"list": {"i": ["1", "1", "1", "1"]}}, "padding": {"s": "U0FNRQ=="}, "num_host_args": {"i": "0"}, "epsilon": {"f": 0.0}, "num_args": {"i": "1"}, "leakyrelu_alpha": {"f": 0.2}}}, {"name": "PartitionedCall/model_31/tf.math.sigmoid_5/Sigmoid", "op": "Sigmoid", "input": ["PartitionedCall/model_31/tf.math.add_9/Add"], "attr": {"T": {"type": "DT_FLOAT"}}}, {"name": "PartitionedCall/model_31/tf.math.multiply_25/Mul", "op": "Mul", "input": ["PartitionedCall/model_31/tf.math.add_9/Add", "PartitionedCall/model_31/tf.math.sigmoid_5/Sigmoid"], "attr": {"T": {"type": "DT_FLOAT"}}}, {"name": "PartitionedCall/model_31/tf.math.add_10/Add", "op": "_FusedConv2D", "input": ["PartitionedCall/model_31/tf.math.multiply_25/Mul", "21552", "21554"], "device": "/device:CPU:0", "attr": {"data_format": {"s": "TkhXQw=="}, "epsilon": {"f": 0.0}, "num_args": {"i": "1"}, "filter_format": {"s": "SFdJTw=="}, "strides": {"list": {"i": ["1", "1", "1", "1"]}}, "num_host_args": {"i": "0"}, "explicit_paddings": {"list": {}}, "fused_ops": {"list": {"s": ["Qmlhc0FkZA=="]}}, "T": {"type": "DT_FLOAT"}, "use_cudnn_on_gpu": {"b": true}, "padding": {"s": "U0FNRQ=="}, "TArgs": {"list": {"type": ["DT_FLOAT"]}}, "leakyrelu_alpha": {"f": 0.2}, "dilations": {"list": {"i": ["1", "1", "1", "1"]}}}}, {"name": "PartitionedCall/model_31/tf.math.sigmoid_6/Sigmoid", "op": "Sigmoid", "input": ["PartitionedCall/model_31/tf.math.add_10/Add"], "attr": {"T": {"type": "DT_FLOAT"}}}, {"name": "PartitionedCall/model_31/tf.math.multiply_29/Mul", "op": "Mul", "input": ["PartitionedCall/model_31/tf.math.add_10/Add", "PartitionedCall/model_31/tf.math.sigmoid_6/Sigmoid"], "attr": {"T": {"type": "DT_FLOAT"}}}, {"name": "PartitionedCall/model_31/tf.math.add_12/Add", "op": "AddV2", "input": ["PartitionedCall/model_31/tf.math.add_8/Add", "PartitionedCall/model_31/tf.math.multiply_29/Mul"], "attr": {"T": {"type": "DT_FLOAT"}}}, {"name": "PartitionedCall/model_31/tf.math.add_13/Add", "op": "_FusedConv2D", "input": ["PartitionedCall/model_31/tf.math.add_12/Add", "21556", "21558"], "device": "/device:CPU:0", "attr": {"filter_format": {"s": "SFdJTw=="}, "num_host_args": {"i": "0"}, "strides": {"list": {"i": ["1", "1", "1", "1"]}}, "data_format": {"s": "TkhXQw=="}, "use_cudnn_on_gpu": {"b": true}, "leakyrelu_alpha": {"f": 0.2}, "fused_ops": {"list": {"s": ["Qmlhc0FkZA=="]}}, "dilations": {"list": {"i": ["1", "1", "1", "1"]}}, "epsilon": {"f": 0.0}, "padding": {"s": "U0FNRQ=="}, "TArgs": {"list": {"type": ["DT_FLOAT"]}}, "T": {"type": "DT_FLOAT"}, "explicit_paddings": {"list": {}}, "num_args": {"i": "1"}}}, {"name": "PartitionedCall/model_31/tf.math.sigmoid_7/Sigmoid", "op": "Sigmoid", "input": ["PartitionedCall/model_31/tf.math.add_13/Add"], "attr": {"T": {"type": "DT_FLOAT"}}}, {"name": "PartitionedCall/model_31/tf.math.multiply_35/Mul", "op": "Mul", "input": ["PartitionedCall/model_31/tf.math.add_13/Add", "PartitionedCall/model_31/tf.math.sigmoid_7/Sigmoid"], "attr": {"T": {"type": "DT_FLOAT"}}}, {"name": "PartitionedCall/model_31/tf.math.add_14/Add", "op": "_FusedConv2D", "input": ["PartitionedCall/model_31/tf.math.multiply_35/Mul", "21560", "21562"], "device": "/device:CPU:0", "attr": {"data_format": {"s": "TkhXQw=="}, "leakyrelu_alpha": {"f": 0.2}, "explicit_paddings": {"list": {}}, "num_host_args": {"i": "0"}, "TArgs": {"list": {"type": ["DT_FLOAT"]}}, "strides": {"list": {"i": ["1", "1", "1", "1"]}}, "num_args": {"i": "1"}, "padding": {"s": "U0FNRQ=="}, "fused_ops": {"list": {"s": ["Qmlhc0FkZA=="]}}, "epsilon": {"f": 0.0}, "T": {"type": "DT_FLOAT"}, "filter_format": {"s": "SFdJTw=="}, "use_cudnn_on_gpu": {"b": true}, "dilations": {"list": {"i": ["1", "1", "1", "1"]}}}}, {"name": "PartitionedCall/model_31/tf.math.sigmoid_8/Sigmoid", "op": "Sigmoid", "input": ["PartitionedCall/model_31/tf.math.add_14/Add"], "attr": {"T": {"type": "DT_FLOAT"}}}, {"name": "PartitionedCall/model_31/tf.math.multiply_39/Mul", "op": "Mul", "input": ["PartitionedCall/model_31/tf.math.add_14/Add", "PartitionedCall/model_31/tf.math.sigmoid_8/Sigmoid"], "attr": {"T": {"type": "DT_FLOAT"}}}, {"name": "PartitionedCall/model_31/tf.math.add_16/Add", "op": "AddV2", "input": ["PartitionedCall/model_31/tf.math.add_12/Add", "PartitionedCall/model_31/tf.math.multiply_39/Mul"], "attr": {"T": {"type": "DT_FLOAT"}}}, {"name": "PartitionedCall/model_31/tf.concat/concat", "op": "ConcatV2", "input": ["PartitionedCall/model_31/tf.strided_slice/StridedSlice", "PartitionedCall/model_31/tf.strided_slice_1/StridedSlice", "PartitionedCall/model_31/tf.math.add_8/Add", "PartitionedCall/model_31/tf.math.add_12/Add", "PartitionedCall/model_31/tf.math.add_16/Add", "PartitionedCall/model_31/tf.concat/concat/axis"], "attr": {"N": {"i": "5"}, "Tidx": {"type": "DT_INT32"}, "T": {"type": "DT_FLOAT"}}}, {"name": "PartitionedCall/model_31/tf.math.add_17/Add", "op": "_FusedConv2D", "input": ["PartitionedCall/model_31/tf.concat/concat", "21568", "21570"], "device": "/device:CPU:0", "attr": {"padding": {"s": "U0FNRQ=="}, "data_format": {"s": "TkhXQw=="}, "strides": {"list": {"i": ["1", "1", "1", "1"]}}, "use_cudnn_on_gpu": {"b": true}, "dilations": {"list": {"i": ["1", "1", "1", "1"]}}, "num_args": {"i": "1"}, "leakyrelu_alpha": {"f": 0.2}, "T": {"type": "DT_FLOAT"}, "explicit_paddings": {"list": {}}, "TArgs": {"list": {"type": ["DT_FLOAT"]}}, "epsilon": {"f": 0.0}, "fused_ops": {"list": {"s": ["Qmlhc0FkZA=="]}}, "filter_format": {"s": "SFdJTw=="}, "num_host_args": {"i": "0"}}}, {"name": "PartitionedCall/model_31/tf.math.sigmoid_9/Sigmoid", "op": "Sigmoid", "input": ["PartitionedCall/model_31/tf.math.add_17/Add"], "attr": {"T": {"type": "DT_FLOAT"}}}, {"name": "PartitionedCall/model_31/tf.math.multiply_45/Mul", "op": "Mul", "input": ["PartitionedCall/model_31/tf.math.add_17/Add", "PartitionedCall/model_31/tf.math.sigmoid_9/Sigmoid"], "attr": {"T": {"type": "DT_FLOAT"}}}, {"name": "PartitionedCall/model_31/tf.compat.v1.pad_2/Pad", "op": "Pad", "input": ["PartitionedCall/model_31/tf.math.multiply_45/Mul", "21572"], "attr": {"T": {"type": "DT_FLOAT"}, "Tpaddings": {"type": "DT_INT32"}}}, {"name": "PartitionedCall/model_31/tf.math.add_25/Add", "op": "_FusedConv2D", "input": ["PartitionedCall/model_31/tf.compat.v1.pad_2/Pad", "21574", "21576"], "device": "/device:CPU:0", "attr": {"explicit_paddings": {"list": {}}, "TArgs": {"list": {"type": ["DT_FLOAT"]}}, "dilations": {"list": {"i": ["1", "1", "1", "1"]}}, "num_host_args": {"i": "0"}, "leakyrelu_alpha": {"f": 0.2}, "filter_format": {"s": "SFdJTw=="}, "epsilon": {"f": 0.0}, "padding": {"s": "VkFMSUQ="}, "strides": {"list": {"i": ["1", "2", "2", "1"]}}, "num_args": {"i": "1"}, "T": {"type": "DT_FLOAT"}, "data_format": {"s": "TkhXQw=="}, "use_cudnn_on_gpu": {"b": true}, "fused_ops": {"list": {"s": ["Qmlhc0FkZA=="]}}}}, {"name": "PartitionedCall/model_31/tf.math.sigmoid_10/Sigmoid", "op": "Sigmoid", "input": ["PartitionedCall/model_31/tf.math.add_25/Add"], "attr": {"T": {"type": "DT_FLOAT"}}}, {"name": "PartitionedCall/model_31/tf.math.multiply_49/Mul", "op": "Mul", "input": ["PartitionedCall/model_31/tf.math.add_25/Add", "PartitionedCall/model_31/tf.math.sigmoid_10/Sigmoid"], "attr": {"T": {"type": "DT_FLOAT"}}}, {"name": "PartitionedCall/model_31/tf.math.add_26/Add", "op": "_FusedConv2D", "input": ["PartitionedCall/model_31/tf.math.multiply_49/Mul", "21578", "21580"], "device": "/device:CPU:0", "attr": {"num_args": {"i": "1"}, "fused_ops": {"list": {"s": ["Qmlhc0FkZA=="]}}, "use_cudnn_on_gpu": {"b": true}, "data_format": {"s": "TkhXQw=="}, "T": {"type": "DT_FLOAT"}, "dilations": {"list": {"i": ["1", "1", "1", "1"]}}, "num_host_args": {"i": "0"}, "TArgs": {"list": {"type": ["DT_FLOAT"]}}, "padding": {"s": "U0FNRQ=="}, "explicit_paddings": {"list": {}}, "filter_format": {"s": "SFdJTw=="}, "epsilon": {"f": 0.0}, "strides": {"list": {"i": ["1", "1", "1", "1"]}}, "leakyrelu_alpha": {"f": 0.2}}}, {"name": "PartitionedCall/model_31/tf.math.sigmoid_11/Sigmoid", "op": "Sigmoid", "input": ["PartitionedCall/model_31/tf.math.add_26/Add"], "attr": {"T": {"type": "DT_FLOAT"}}}, {"name": "PartitionedCall/model_31/tf.math.multiply_53/Mul", "op": "Mul", "input": ["PartitionedCall/model_31/tf.math.add_26/Add", "PartitionedCall/model_31/tf.math.sigmoid_11/Sigmoid"], "attr": {"T": {"type": "DT_FLOAT"}}}, {"name": "PartitionedCall/model_31/tf.strided_slice_2/StridedSlice", "op": "StridedSlice", "input": ["PartitionedCall/model_31/tf.math.multiply_53/Mul", "21634", "21636", "PartitionedCall/model_31/tf.strided_slice_2/ones_like"], "attr": {"ellipsis_mask": {"i": "0"}, "T": {"type": "DT_FLOAT"}, "new_axis_mask": {"i": "0"}, "begin_mask": {"i": "15"}, "end_mask": {"i": "7"}, "Index": {"type": "DT_INT64"}, "shrink_axis_mask": {"i": "0"}}}, {"name": "PartitionedCall/model_31/tf.strided_slice_3/StridedSlice", "op": "StridedSlice", "input": ["PartitionedCall/model_31/tf.math.multiply_53/Mul", "21582", "21584", "PartitionedCall/model_31/tf.strided_slice_3/ones_like"], "attr": {"end_mask": {"i": "7"}, "shrink_axis_mask": {"i": "0"}, "T": {"type": "DT_FLOAT"}, "Index": {"type": "DT_INT64"}, "ellipsis_mask": {"i": "0"}, "new_axis_mask": {"i": "0"}, "begin_mask": {"i": "7"}}}, {"name": "PartitionedCall/model_31/tf.math.add_27/Add", "op": "_FusedConv2D", "input": ["PartitionedCall/model_31/tf.strided_slice_3/StridedSlice", "21586", "21588"], "device": "/device:CPU:0", "attr": {"fused_ops": {"list": {"s": ["Qmlhc0FkZA=="]}}, "epsilon": {"f": 0.0}, "padding": {"s": "U0FNRQ=="}, "T": {"type": "DT_FLOAT"}, "leakyrelu_alpha": {"f": 0.2}, "dilations": {"list": {"i": ["1", "1", "1", "1"]}}, "filter_format": {"s": "SFdJTw=="}, "num_args": {"i": "1"}, "num_host_args": {"i": "0"}, "explicit_paddings": {"list": {}}, "strides": {"list": {"i": ["1", "1", "1", "1"]}}, "TArgs": {"list": {"type": ["DT_FLOAT"]}}, "data_format": {"s": "TkhXQw=="}, "use_cudnn_on_gpu": {"b": true}}}, {"name": "PartitionedCall/model_31/tf.math.sigmoid_12/Sigmoid", "op": "Sigmoid", "input": ["PartitionedCall/model_31/tf.math.add_27/Add"], "attr": {"T": {"type": "DT_FLOAT"}}}, {"name": "PartitionedCall/model_31/tf.math.multiply_57/Mul", "op": "Mul", "input": ["PartitionedCall/model_31/tf.math.add_27/Add", "PartitionedCall/model_31/tf.math.sigmoid_12/Sigmoid"], "attr": {"T": {"type": "DT_FLOAT"}}}, {"name": "PartitionedCall/model_31/tf.math.add_28/Add", "op": "_FusedConv2D", "input": ["PartitionedCall/model_31/tf.math.multiply_57/Mul", "21590", "21592"], "device": "/device:CPU:0", "attr": {"TArgs": {"list": {"type": ["DT_FLOAT"]}}, "explicit_paddings": {"list": {}}, "num_args": {"i": "1"}, "filter_format": {"s": "SFdJTw=="}, "dilations": {"list": {"i": ["1", "1", "1", "1"]}}, "leakyrelu_alpha": {"f": 0.2}, "use_cudnn_on_gpu": {"b": true}, "fused_ops": {"list": {"s": ["Qmlhc0FkZA=="]}}, "epsilon": {"f": 0.0}, "padding": {"s": "U0FNRQ=="}, "T": {"type": "DT_FLOAT"}, "strides": {"list": {"i": ["1", "1", "1", "1"]}}, "data_format": {"s": "TkhXQw=="}, "num_host_args": {"i": "0"}}}, {"name": "PartitionedCall/model_31/tf.math.sigmoid_13/Sigmoid", "op": "Sigmoid", "input": ["PartitionedCall/model_31/tf.math.add_28/Add"], "attr": {"T": {"type": "DT_FLOAT"}}}, {"name": "PartitionedCall/model_31/tf.math.multiply_61/Mul", "op": "Mul", "input": ["PartitionedCall/model_31/tf.math.add_28/Add", "PartitionedCall/model_31/tf.math.sigmoid_13/Sigmoid"], "attr": {"T": {"type": "DT_FLOAT"}}}, {"name": "PartitionedCall/model_31/tf.math.add_30/Add", "op": "AddV2", "input": ["PartitionedCall/model_31/tf.strided_slice_3/StridedSlice", "PartitionedCall/model_31/tf.math.multiply_61/Mul"], "attr": {"T": {"type": "DT_FLOAT"}}}, {"name": "PartitionedCall/model_31/tf.math.add_31/Add", "op": "_FusedConv2D", "input": ["PartitionedCall/model_31/tf.math.add_30/Add", "21594", "21596"], "device": "/device:CPU:0", "attr": {"fused_ops": {"list": {"s": ["Qmlhc0FkZA=="]}}, "TArgs": {"list": {"type": ["DT_FLOAT"]}}, "data_format": {"s": "TkhXQw=="}, "num_host_args": {"i": "0"}, "padding": {"s": "U0FNRQ=="}, "explicit_paddings": {"list": {}}, "epsilon": {"f": 0.0}, "filter_format": {"s": "SFdJTw=="}, "strides": {"list": {"i": ["1", "1", "1", "1"]}}, "dilations": {"list": {"i": ["1", "1", "1", "1"]}}, "num_args": {"i": "1"}, "T": {"type": "DT_FLOAT"}, "leakyrelu_alpha": {"f": 0.2}, "use_cudnn_on_gpu": {"b": true}}}, {"name": "PartitionedCall/model_31/tf.math.sigmoid_14/Sigmoid", "op": "Sigmoid", "input": ["PartitionedCall/model_31/tf.math.add_31/Add"], "attr": {"T": {"type": "DT_FLOAT"}}}, {"name": "PartitionedCall/model_31/tf.math.multiply_67/Mul", "op": "Mul", "input": ["PartitionedCall/model_31/tf.math.add_31/Add", "PartitionedCall/model_31/tf.math.sigmoid_14/Sigmoid"], "attr": {"T": {"type": "DT_FLOAT"}}}, {"name": "PartitionedCall/model_31/tf.math.add_32/Add", "op": "_FusedConv2D", "input": ["PartitionedCall/model_31/tf.math.multiply_67/Mul", "21598", "21600"], "device": "/device:CPU:0", "attr": {"epsilon": {"f": 0.0}, "fused_ops": {"list": {"s": ["Qmlhc0FkZA=="]}}, "explicit_paddings": {"list": {}}, "use_cudnn_on_gpu": {"b": true}, "leakyrelu_alpha": {"f": 0.2}, "strides": {"list": {"i": ["1", "1", "1", "1"]}}, "data_format": {"s": "TkhXQw=="}, "num_host_args": {"i": "0"}, "T": {"type": "DT_FLOAT"}, "TArgs": {"list": {"type": ["DT_FLOAT"]}}, "padding": {"s": "U0FNRQ=="}, "dilations": {"list": {"i": ["1", "1", "1", "1"]}}, "num_args": {"i": "1"}, "filter_format": {"s": "SFdJTw=="}}}, {"name": "PartitionedCall/model_31/tf.math.sigmoid_15/Sigmoid", "op": "Sigmoid", "input": ["PartitionedCall/model_31/tf.math.add_32/Add"], "attr": {"T": {"type": "DT_FLOAT"}}}, {"name": "PartitionedCall/model_31/tf.math.multiply_71/Mul", "op": "Mul", "input": ["PartitionedCall/model_31/tf.math.add_32/Add", "PartitionedCall/model_31/tf.math.sigmoid_15/Sigmoid"], "attr": {"T": {"type": "DT_FLOAT"}}}, {"name": "PartitionedCall/model_31/tf.math.add_34/Add", "op": "AddV2", "input": ["PartitionedCall/model_31/tf.math.add_30/Add", "PartitionedCall/model_31/tf.math.multiply_71/Mul"], "attr": {"T": {"type": "DT_FLOAT"}}}, {"name": "PartitionedCall/model_31/tf.math.add_35/Add", "op": "_FusedConv2D", "input": ["PartitionedCall/model_31/tf.math.add_34/Add", "21602", "21604"], "device": "/device:CPU:0", "attr": {"num_args": {"i": "1"}, "num_host_args": {"i": "0"}, "padding": {"s": "U0FNRQ=="}, "leakyrelu_alpha": {"f": 0.2}, "data_format": {"s": "TkhXQw=="}, "fused_ops": {"list": {"s": ["Qmlhc0FkZA=="]}}, "use_cudnn_on_gpu": {"b": true}, "TArgs": {"list": {"type": ["DT_FLOAT"]}}, "dilations": {"list": {"i": ["1", "1", "1", "1"]}}, "T": {"type": "DT_FLOAT"}, "epsilon": {"f": 0.0}, "filter_format": {"s": "SFdJTw=="}, "strides": {"list": {"i": ["1", "1", "1", "1"]}}, "explicit_paddings": {"list": {}}}}, {"name": "PartitionedCall/model_31/tf.math.sigmoid_16/Sigmoid", "op": "Sigmoid", "input": ["PartitionedCall/model_31/tf.math.add_35/Add"], "attr": {"T": {"type": "DT_FLOAT"}}}, {"name": "PartitionedCall/model_31/tf.math.multiply_77/Mul", "op": "Mul", "input": ["PartitionedCall/model_31/tf.math.add_35/Add", "PartitionedCall/model_31/tf.math.sigmoid_16/Sigmoid"], "attr": {"T": {"type": "DT_FLOAT"}}}, {"name": "PartitionedCall/model_31/tf.math.add_36/Add", "op": "_FusedConv2D", "input": ["PartitionedCall/model_31/tf.math.multiply_77/Mul", "21606", "21608"], "device": "/device:CPU:0", "attr": {"num_host_args": {"i": "0"}, "strides": {"list": {"i": ["1", "1", "1", "1"]}}, "leakyrelu_alpha": {"f": 0.2}, "data_format": {"s": "TkhXQw=="}, "num_args": {"i": "1"}, "use_cudnn_on_gpu": {"b": true}, "TArgs": {"list": {"type": ["DT_FLOAT"]}}, "dilations": {"list": {"i": ["1", "1", "1", "1"]}}, "T": {"type": "DT_FLOAT"}, "epsilon": {"f": 0.0}, "filter_format": {"s": "SFdJTw=="}, "padding": {"s": "U0FNRQ=="}, "fused_ops": {"list": {"s": ["Qmlhc0FkZA=="]}}, "explicit_paddings": {"list": {}}}}, {"name": "PartitionedCall/model_31/tf.math.sigmoid_17/Sigmoid", "op": "Sigmoid", "input": ["PartitionedCall/model_31/tf.math.add_36/Add"], "attr": {"T": {"type": "DT_FLOAT"}}}, {"name": "PartitionedCall/model_31/tf.math.multiply_81/Mul", "op": "Mul", "input": ["PartitionedCall/model_31/tf.math.add_36/Add", "PartitionedCall/model_31/tf.math.sigmoid_17/Sigmoid"], "attr": {"T": {"type": "DT_FLOAT"}}}, {"name": "PartitionedCall/model_31/tf.math.add_38/Add", "op": "AddV2", "input": ["PartitionedCall/model_31/tf.math.add_34/Add", "PartitionedCall/model_31/tf.math.multiply_81/Mul"], "attr": {"T": {"type": "DT_FLOAT"}}}, {"name": "PartitionedCall/model_31/tf.math.add_39/Add", "op": "_FusedConv2D", "input": ["PartitionedCall/model_31/tf.math.add_38/Add", "21610", "21612"], "device": "/device:CPU:0", "attr": {"TArgs": {"list": {"type": ["DT_FLOAT"]}}, "T": {"type": "DT_FLOAT"}, "use_cudnn_on_gpu": {"b": true}, "fused_ops": {"list": {"s": ["Qmlhc0FkZA=="]}}, "padding": {"s": "U0FNRQ=="}, "filter_format": {"s": "SFdJTw=="}, "num_args": {"i": "1"}, "explicit_paddings": {"list": {}}, "epsilon": {"f": 0.0}, "strides": {"list": {"i": ["1", "1", "1", "1"]}}, "leakyrelu_alpha": {"f": 0.2}, "dilations": {"list": {"i": ["1", "1", "1", "1"]}}, "data_format": {"s": "TkhXQw=="}, "num_host_args": {"i": "0"}}}, {"name": "PartitionedCall/model_31/tf.math.sigmoid_18/Sigmoid", "op": "Sigmoid", "input": ["PartitionedCall/model_31/tf.math.add_39/Add"], "attr": {"T": {"type": "DT_FLOAT"}}}, {"name": "PartitionedCall/model_31/tf.math.multiply_87/Mul", "op": "Mul", "input": ["PartitionedCall/model_31/tf.math.add_39/Add", "PartitionedCall/model_31/tf.math.sigmoid_18/Sigmoid"], "attr": {"T": {"type": "DT_FLOAT"}}}, {"name": "PartitionedCall/model_31/tf.math.add_40/Add", "op": "_FusedConv2D", "input": ["PartitionedCall/model_31/tf.math.multiply_87/Mul", "21614", "21616"], "device": "/device:CPU:0", "attr": {"padding": {"s": "U0FNRQ=="}, "data_format": {"s": "TkhXQw=="}, "TArgs": {"list": {"type": ["DT_FLOAT"]}}, "filter_format": {"s": "SFdJTw=="}, "num_args": {"i": "1"}, "dilations": {"list": {"i": ["1", "1", "1", "1"]}}, "num_host_args": {"i": "0"}, "leakyrelu_alpha": {"f": 0.2}, "fused_ops": {"list": {"s": ["Qmlhc0FkZA=="]}}, "use_cudnn_on_gpu": {"b": true}, "epsilon": {"f": 0.0}, "explicit_paddings": {"list": {}}, "strides": {"list": {"i": ["1", "1", "1", "1"]}}, "T": {"type": "DT_FLOAT"}}}, {"name": "PartitionedCall/model_31/tf.math.sigmoid_19/Sigmoid", "op": "Sigmoid", "input": ["PartitionedCall/model_31/tf.math.add_40/Add"], "attr": {"T": {"type": "DT_FLOAT"}}}, {"name": "PartitionedCall/model_31/tf.math.multiply_91/Mul", "op": "Mul", "input": ["PartitionedCall/model_31/tf.math.add_40/Add", "PartitionedCall/model_31/tf.math.sigmoid_19/Sigmoid"], "attr": {"T": {"type": "DT_FLOAT"}}}, {"name": "PartitionedCall/model_31/tf.math.add_42/Add", "op": "AddV2", "input": ["PartitionedCall/model_31/tf.math.add_38/Add", "PartitionedCall/model_31/tf.math.multiply_91/Mul"], "attr": {"T": {"type": "DT_FLOAT"}}}, {"name": "PartitionedCall/model_31/tf.math.add_43/Add", "op": "_FusedConv2D", "input": ["PartitionedCall/model_31/tf.math.add_42/Add", "21618", "21620"], "device": "/device:CPU:0", "attr": {"filter_format": {"s": "SFdJTw=="}, "TArgs": {"list": {"type": ["DT_FLOAT"]}}, "padding": {"s": "U0FNRQ=="}, "T": {"type": "DT_FLOAT"}, "fused_ops": {"list": {"s": ["Qmlhc0FkZA=="]}}, "dilations": {"list": {"i": ["1", "1", "1", "1"]}}, "strides": {"list": {"i": ["1", "1", "1", "1"]}}, "num_host_args": {"i": "0"}, "use_cudnn_on_gpu": {"b": true}, "epsilon": {"f": 0.0}, "num_args": {"i": "1"}, "leakyrelu_alpha": {"f": 0.2}, "data_format": {"s": "TkhXQw=="}, "explicit_paddings": {"list": {}}}}, {"name": "PartitionedCall/model_31/tf.math.sigmoid_20/Sigmoid", "op": "Sigmoid", "input": ["PartitionedCall/model_31/tf.math.add_43/Add"], "attr": {"T": {"type": "DT_FLOAT"}}}, {"name": "PartitionedCall/model_31/tf.math.multiply_97/Mul", "op": "Mul", "input": ["PartitionedCall/model_31/tf.math.add_43/Add", "PartitionedCall/model_31/tf.math.sigmoid_20/Sigmoid"], "attr": {"T": {"type": "DT_FLOAT"}}}, {"name": "PartitionedCall/model_31/tf.math.add_44/Add", "op": "_FusedConv2D", "input": ["PartitionedCall/model_31/tf.math.multiply_97/Mul", "21622", "21624"], "device": "/device:CPU:0", "attr": {"T": {"type": "DT_FLOAT"}, "strides": {"list": {"i": ["1", "1", "1", "1"]}}, "use_cudnn_on_gpu": {"b": true}, "fused_ops": {"list": {"s": ["Qmlhc0FkZA=="]}}, "num_args": {"i": "1"}, "epsilon": {"f": 0.0}, "explicit_paddings": {"list": {}}, "data_format": {"s": "TkhXQw=="}, "leakyrelu_alpha": {"f": 0.2}, "TArgs": {"list": {"type": ["DT_FLOAT"]}}, "num_host_args": {"i": "0"}, "padding": {"s": "U0FNRQ=="}, "dilations": {"list": {"i": ["1", "1", "1", "1"]}}, "filter_format": {"s": "SFdJTw=="}}}, {"name": "PartitionedCall/model_31/tf.math.sigmoid_21/Sigmoid", "op": "Sigmoid", "input": ["PartitionedCall/model_31/tf.math.add_44/Add"], "attr": {"T": {"type": "DT_FLOAT"}}}, {"name": "PartitionedCall/model_31/tf.math.multiply_101/Mul", "op": "Mul", "input": ["PartitionedCall/model_31/tf.math.add_44/Add", "PartitionedCall/model_31/tf.math.sigmoid_21/Sigmoid"], "attr": {"T": {"type": "DT_FLOAT"}}}, {"name": "PartitionedCall/model_31/tf.math.add_46/Add", "op": "AddV2", "input": ["PartitionedCall/model_31/tf.math.add_42/Add", "PartitionedCall/model_31/tf.math.multiply_101/Mul"], "attr": {"T": {"type": "DT_FLOAT"}}}, {"name": "PartitionedCall/model_31/tf.math.add_47/Add", "op": "_FusedConv2D", "input": ["PartitionedCall/model_31/tf.math.add_46/Add", "21626", "21628"], "device": "/device:CPU:0", "attr": {"fused_ops": {"list": {"s": ["Qmlhc0FkZA=="]}}, "data_format": {"s": "TkhXQw=="}, "filter_format": {"s": "SFdJTw=="}, "num_host_args": {"i": "0"}, "explicit_paddings": {"list": {}}, "use_cudnn_on_gpu": {"b": true}, "strides": {"list": {"i": ["1", "1", "1", "1"]}}, "num_args": {"i": "1"}, "TArgs": {"list": {"type": ["DT_FLOAT"]}}, "padding": {"s": "U0FNRQ=="}, "leakyrelu_alpha": {"f": 0.2}, "dilations": {"list": {"i": ["1", "1", "1", "1"]}}, "epsilon": {"f": 0.0}, "T": {"type": "DT_FLOAT"}}}, {"name": "PartitionedCall/model_31/tf.math.sigmoid_22/Sigmoid", "op": "Sigmoid", "input": ["PartitionedCall/model_31/tf.math.add_47/Add"], "attr": {"T": {"type": "DT_FLOAT"}}}, {"name": "PartitionedCall/model_31/tf.math.multiply_107/Mul", "op": "Mul", "input": ["PartitionedCall/model_31/tf.math.add_47/Add", "PartitionedCall/model_31/tf.math.sigmoid_22/Sigmoid"], "attr": {"T": {"type": "DT_FLOAT"}}}, {"name": "PartitionedCall/model_31/tf.math.add_48/Add", "op": "_FusedConv2D", "input": ["PartitionedCall/model_31/tf.math.multiply_107/Mul", "21630", "21632"], "device": "/device:CPU:0", "attr": {"dilations": {"list": {"i": ["1", "1", "1", "1"]}}, "padding": {"s": "U0FNRQ=="}, "explicit_paddings": {"list": {}}, "use_cudnn_on_gpu": {"b": true}, "filter_format": {"s": "SFdJTw=="}, "T": {"type": "DT_FLOAT"}, "leakyrelu_alpha": {"f": 0.2}, "fused_ops": {"list": {"s": ["Qmlhc0FkZA=="]}}, "num_args": {"i": "1"}, "num_host_args": {"i": "0"}, "TArgs": {"list": {"type": ["DT_FLOAT"]}}, "strides": {"list": {"i": ["1", "1", "1", "1"]}}, "data_format": {"s": "TkhXQw=="}, "epsilon": {"f": 0.0}}}, {"name": "PartitionedCall/model_31/tf.math.sigmoid_23/Sigmoid", "op": "Sigmoid", "input": ["PartitionedCall/model_31/tf.math.add_48/Add"], "attr": {"T": {"type": "DT_FLOAT"}}}, {"name": "PartitionedCall/model_31/tf.math.multiply_111/Mul", "op": "Mul", "input": ["PartitionedCall/model_31/tf.math.add_48/Add", "PartitionedCall/model_31/tf.math.sigmoid_23/Sigmoid"], "attr": {"T": {"type": "DT_FLOAT"}}}, {"name": "PartitionedCall/model_31/tf.math.add_50/Add", "op": "AddV2", "input": ["PartitionedCall/model_31/tf.math.add_46/Add", "PartitionedCall/model_31/tf.math.multiply_111/Mul"], "attr": {"T": {"type": "DT_FLOAT"}}}, {"name": "PartitionedCall/model_31/tf.concat_1/concat", "op": "ConcatV2", "input": ["PartitionedCall/model_31/tf.strided_slice_2/StridedSlice", "PartitionedCall/model_31/tf.strided_slice_3/StridedSlice", "PartitionedCall/model_31/tf.math.add_30/Add", "PartitionedCall/model_31/tf.math.add_34/Add", "PartitionedCall/model_31/tf.math.add_38/Add", "PartitionedCall/model_31/tf.math.add_42/Add", "PartitionedCall/model_31/tf.math.add_46/Add", "PartitionedCall/model_31/tf.math.add_50/Add", "PartitionedCall/model_31/tf.concat_1/concat/axis"], "attr": {"Tidx": {"type": "DT_INT32"}, "T": {"type": "DT_FLOAT"}, "N": {"i": "8"}}}, {"name": "PartitionedCall/model_31/tf.math.add_51/Add", "op": "_FusedConv2D", "input": ["PartitionedCall/model_31/tf.concat_1/concat", "21638", "21640"], "device": "/device:CPU:0", "attr": {"num_host_args": {"i": "0"}, "TArgs": {"list": {"type": ["DT_FLOAT"]}}, "fused_ops": {"list": {"s": ["Qmlhc0FkZA=="]}}, "data_format": {"s": "TkhXQw=="}, "epsilon": {"f": 0.0}, "T": {"type": "DT_FLOAT"}, "dilations": {"list": {"i": ["1", "1", "1", "1"]}}, "filter_format": {"s": "SFdJTw=="}, "padding": {"s": "U0FNRQ=="}, "leakyrelu_alpha": {"f": 0.2}, "num_args": {"i": "1"}, "use_cudnn_on_gpu": {"b": true}, "strides": {"list": {"i": ["1", "1", "1", "1"]}}, "explicit_paddings": {"list": {}}}}, {"name": "PartitionedCall/model_31/tf.math.sigmoid_24/Sigmoid", "op": "Sigmoid", "input": ["PartitionedCall/model_31/tf.math.add_51/Add"], "attr": {"T": {"type": "DT_FLOAT"}}}, {"name": "PartitionedCall/model_31/tf.math.multiply_117/Mul", "op": "Mul", "input": ["PartitionedCall/model_31/tf.math.add_51/Add", "PartitionedCall/model_31/tf.math.sigmoid_24/Sigmoid"], "attr": {"T": {"type": "DT_FLOAT"}}}, {"name": "PartitionedCall/model_31/tf.compat.v1.pad_3/Pad", "op": "Pad", "input": ["PartitionedCall/model_31/tf.math.multiply_117/Mul", "21642"], "attr": {"Tpaddings": {"type": "DT_INT32"}, "T": {"type": "DT_FLOAT"}}}, {"name": "PartitionedCall/model_31/tf.math.add_52/Add", "op": "_FusedConv2D", "input": ["PartitionedCall/model_31/tf.compat.v1.pad_3/Pad", "21644", "21646"], "device": "/device:CPU:0", "attr": {"epsilon": {"f": 0.0}, "strides": {"list": {"i": ["1", "2", "2", "1"]}}, "T": {"type": "DT_FLOAT"}, "dilations": {"list": {"i": ["1", "1", "1", "1"]}}, "use_cudnn_on_gpu": {"b": true}, "num_host_args": {"i": "0"}, "num_args": {"i": "1"}, "fused_ops": {"list": {"s": ["Qmlhc0FkZA=="]}}, "filter_format": {"s": "SFdJTw=="}, "padding": {"s": "VkFMSUQ="}, "leakyrelu_alpha": {"f": 0.2}, "data_format": {"s": "TkhXQw=="}, "explicit_paddings": {"list": {}}, "TArgs": {"list": {"type": ["DT_FLOAT"]}}}}, {"name": "PartitionedCall/model_31/tf.math.sigmoid_25/Sigmoid", "op": "Sigmoid", "input": ["PartitionedCall/model_31/tf.math.add_52/Add"], "attr": {"T": {"type": "DT_FLOAT"}}}, {"name": "PartitionedCall/model_31/tf.math.multiply_121/Mul", "op": "Mul", "input": ["PartitionedCall/model_31/tf.math.add_52/Add", "PartitionedCall/model_31/tf.math.sigmoid_25/Sigmoid"], "attr": {"T": {"type": "DT_FLOAT"}}}, {"name": "PartitionedCall/model_31/tf.math.add_53/Add", "op": "_FusedConv2D", "input": ["PartitionedCall/model_31/tf.math.multiply_121/Mul", "21648", "21650"], "device": "/device:CPU:0", "attr": {"filter_format": {"s": "SFdJTw=="}, "data_format": {"s": "TkhXQw=="}, "explicit_paddings": {"list": {}}, "use_cudnn_on_gpu": {"b": true}, "num_args": {"i": "1"}, "fused_ops": {"list": {"s": ["Qmlhc0FkZA=="]}}, "strides": {"list": {"i": ["1", "1", "1", "1"]}}, "T": {"type": "DT_FLOAT"}, "leakyrelu_alpha": {"f": 0.2}, "TArgs": {"list": {"type": ["DT_FLOAT"]}}, "epsilon": {"f": 0.0}, "padding": {"s": "U0FNRQ=="}, "dilations": {"list": {"i": ["1", "1", "1", "1"]}}, "num_host_args": {"i": "0"}}}, {"name": "PartitionedCall/model_31/tf.math.sigmoid_26/Sigmoid", "op": "Sigmoid", "input": ["PartitionedCall/model_31/tf.math.add_53/Add"], "attr": {"T": {"type": "DT_FLOAT"}}}, {"name": "PartitionedCall/model_31/tf.math.multiply_125/Mul", "op": "Mul", "input": ["PartitionedCall/model_31/tf.math.add_53/Add", "PartitionedCall/model_31/tf.math.sigmoid_26/Sigmoid"], "attr": {"T": {"type": "DT_FLOAT"}}}, {"name": "PartitionedCall/model_31/tf.strided_slice_4/StridedSlice", "op": "StridedSlice", "input": ["PartitionedCall/model_31/tf.math.multiply_125/Mul", "21704", "21706", "PartitionedCall/model_31/tf.strided_slice_4/ones_like"], "attr": {"shrink_axis_mask": {"i": "0"}, "new_axis_mask": {"i": "0"}, "begin_mask": {"i": "15"}, "T": {"type": "DT_FLOAT"}, "Index": {"type": "DT_INT64"}, "end_mask": {"i": "7"}, "ellipsis_mask": {"i": "0"}}}, {"name": "PartitionedCall/model_31/tf.strided_slice_5/StridedSlice", "op": "StridedSlice", "input": ["PartitionedCall/model_31/tf.math.multiply_125/Mul", "21652", "21654", "PartitionedCall/model_31/tf.strided_slice_5/ones_like"], "attr": {"T": {"type": "DT_FLOAT"}, "shrink_axis_mask": {"i": "0"}, "end_mask": {"i": "7"}, "begin_mask": {"i": "7"}, "ellipsis_mask": {"i": "0"}, "Index": {"type": "DT_INT64"}, "new_axis_mask": {"i": "0"}}}, {"name": "PartitionedCall/model_31/tf.math.add_54/Add", "op": "_FusedConv2D", "input": ["PartitionedCall/model_31/tf.strided_slice_5/StridedSlice", "21656", "21658"], "device": "/device:CPU:0", "attr": {"fused_ops": {"list": {"s": ["Qmlhc0FkZA=="]}}, "use_cudnn_on_gpu": {"b": true}, "filter_format": {"s": "SFdJTw=="}, "explicit_paddings": {"list": {}}, "data_format": {"s": "TkhXQw=="}, "TArgs": {"list": {"type": ["DT_FLOAT"]}}, "num_args": {"i": "1"}, "strides": {"list": {"i": ["1", "1", "1", "1"]}}, "T": {"type": "DT_FLOAT"}, "epsilon": {"f": 0.0}, "num_host_args": {"i": "0"}, "padding": {"s": "U0FNRQ=="}, "leakyrelu_alpha": {"f": 0.2}, "dilations": {"list": {"i": ["1", "1", "1", "1"]}}}}, {"name": "PartitionedCall/model_31/tf.math.sigmoid_27/Sigmoid", "op": "Sigmoid", "input": ["PartitionedCall/model_31/tf.math.add_54/Add"], "attr": {"T": {"type": "DT_FLOAT"}}}, {"name": "PartitionedCall/model_31/tf.math.multiply_129/Mul", "op": "Mul", "input": ["PartitionedCall/model_31/tf.math.add_54/Add", "PartitionedCall/model_31/tf.math.sigmoid_27/Sigmoid"], "attr": {"T": {"type": "DT_FLOAT"}}}, {"name": "PartitionedCall/model_31/tf.math.add_55/Add", "op": "_FusedConv2D", "input": ["PartitionedCall/model_31/tf.math.multiply_129/Mul", "21660", "21662"], "device": "/device:CPU:0", "attr": {"T": {"type": "DT_FLOAT"}, "filter_format": {"s": "SFdJTw=="}, "num_host_args": {"i": "0"}, "use_cudnn_on_gpu": {"b": true}, "num_args": {"i": "1"}, "epsilon": {"f": 0.0}, "strides": {"list": {"i": ["1", "1", "1", "1"]}}, "data_format": {"s": "TkhXQw=="}, "TArgs": {"list": {"type": ["DT_FLOAT"]}}, "padding": {"s": "U0FNRQ=="}, "dilations": {"list": {"i": ["1", "1", "1", "1"]}}, "leakyrelu_alpha": {"f": 0.2}, "explicit_paddings": {"list": {}}, "fused_ops": {"list": {"s": ["Qmlhc0FkZA=="]}}}}, {"name": "PartitionedCall/model_31/tf.math.sigmoid_28/Sigmoid", "op": "Sigmoid", "input": ["PartitionedCall/model_31/tf.math.add_55/Add"], "attr": {"T": {"type": "DT_FLOAT"}}}, {"name": "PartitionedCall/model_31/tf.math.multiply_133/Mul", "op": "Mul", "input": ["PartitionedCall/model_31/tf.math.add_55/Add", "PartitionedCall/model_31/tf.math.sigmoid_28/Sigmoid"], "attr": {"T": {"type": "DT_FLOAT"}}}, {"name": "PartitionedCall/model_31/tf.math.add_57/Add", "op": "AddV2", "input": ["PartitionedCall/model_31/tf.strided_slice_5/StridedSlice", "PartitionedCall/model_31/tf.math.multiply_133/Mul"], "attr": {"T": {"type": "DT_FLOAT"}}}, {"name": "PartitionedCall/model_31/tf.math.add_58/Add", "op": "_FusedConv2D", "input": ["PartitionedCall/model_31/tf.math.add_57/Add", "21664", "21666"], "device": "/device:CPU:0", "attr": {"num_host_args": {"i": "0"}, "num_args": {"i": "1"}, "T": {"type": "DT_FLOAT"}, "strides": {"list": {"i": ["1", "1", "1", "1"]}}, "padding": {"s": "U0FNRQ=="}, "filter_format": {"s": "SFdJTw=="}, "dilations": {"list": {"i": ["1", "1", "1", "1"]}}, "data_format": {"s": "TkhXQw=="}, "leakyrelu_alpha": {"f": 0.2}, "explicit_paddings": {"list": {}}, "epsilon": {"f": 0.0}, "TArgs": {"list": {"type": ["DT_FLOAT"]}}, "use_cudnn_on_gpu": {"b": true}, "fused_ops": {"list": {"s": ["Qmlhc0FkZA=="]}}}}, {"name": "PartitionedCall/model_31/tf.math.sigmoid_29/Sigmoid", "op": "Sigmoid", "input": ["PartitionedCall/model_31/tf.math.add_58/Add"], "attr": {"T": {"type": "DT_FLOAT"}}}, {"name": "PartitionedCall/model_31/tf.math.multiply_139/Mul", "op": "Mul", "input": ["PartitionedCall/model_31/tf.math.add_58/Add", "PartitionedCall/model_31/tf.math.sigmoid_29/Sigmoid"], "attr": {"T": {"type": "DT_FLOAT"}}}, {"name": "PartitionedCall/model_31/tf.math.add_59/Add", "op": "_FusedConv2D", "input": ["PartitionedCall/model_31/tf.math.multiply_139/Mul", "21668", "21670"], "device": "/device:CPU:0", "attr": {"use_cudnn_on_gpu": {"b": true}, "strides": {"list": {"i": ["1", "1", "1", "1"]}}, "T": {"type": "DT_FLOAT"}, "padding": {"s": "U0FNRQ=="}, "dilations": {"list": {"i": ["1", "1", "1", "1"]}}, "num_args": {"i": "1"}, "data_format": {"s": "TkhXQw=="}, "filter_format": {"s": "SFdJTw=="}, "TArgs": {"list": {"type": ["DT_FLOAT"]}}, "num_host_args": {"i": "0"}, "leakyrelu_alpha": {"f": 0.2}, "explicit_paddings": {"list": {}}, "epsilon": {"f": 0.0}, "fused_ops": {"list": {"s": ["Qmlhc0FkZA=="]}}}}, {"name": "PartitionedCall/model_31/tf.math.sigmoid_30/Sigmoid", "op": "Sigmoid", "input": ["PartitionedCall/model_31/tf.math.add_59/Add"], "attr": {"T": {"type": "DT_FLOAT"}}}, {"name": "PartitionedCall/model_31/tf.math.multiply_143/Mul", "op": "Mul", "input": ["PartitionedCall/model_31/tf.math.add_59/Add", "PartitionedCall/model_31/tf.math.sigmoid_30/Sigmoid"], "attr": {"T": {"type": "DT_FLOAT"}}}, {"name": "PartitionedCall/model_31/tf.math.add_61/Add", "op": "AddV2", "input": ["PartitionedCall/model_31/tf.math.add_57/Add", "PartitionedCall/model_31/tf.math.multiply_143/Mul"], "attr": {"T": {"type": "DT_FLOAT"}}}, {"name": "PartitionedCall/model_31/tf.math.add_62/Add", "op": "_FusedConv2D", "input": ["PartitionedCall/model_31/tf.math.add_61/Add", "21672", "21674"], "device": "/device:CPU:0", "attr": {"T": {"type": "DT_FLOAT"}, "fused_ops": {"list": {"s": ["Qmlhc0FkZA=="]}}, "num_args": {"i": "1"}, "epsilon": {"f": 0.0}, "use_cudnn_on_gpu": {"b": true}, "explicit_paddings": {"list": {}}, "data_format": {"s": "TkhXQw=="}, "padding": {"s": "U0FNRQ=="}, "strides": {"list": {"i": ["1", "1", "1", "1"]}}, "num_host_args": {"i": "0"}, "leakyrelu_alpha": {"f": 0.2}, "TArgs": {"list": {"type": ["DT_FLOAT"]}}, "dilations": {"list": {"i": ["1", "1", "1", "1"]}}, "filter_format": {"s": "SFdJTw=="}}}, {"name": "PartitionedCall/model_31/tf.math.sigmoid_31/Sigmoid", "op": "Sigmoid", "input": ["PartitionedCall/model_31/tf.math.add_62/Add"], "attr": {"T": {"type": "DT_FLOAT"}}}, {"name": "PartitionedCall/model_31/tf.math.multiply_149/Mul", "op": "Mul", "input": ["PartitionedCall/model_31/tf.math.add_62/Add", "PartitionedCall/model_31/tf.math.sigmoid_31/Sigmoid"], "attr": {"T": {"type": "DT_FLOAT"}}}, {"name": "PartitionedCall/model_31/tf.math.add_63/Add", "op": "_FusedConv2D", "input": ["PartitionedCall/model_31/tf.math.multiply_149/Mul", "21676", "21678"], "device": "/device:CPU:0", "attr": {"epsilon": {"f": 0.0}, "num_host_args": {"i": "0"}, "data_format": {"s": "TkhXQw=="}, "num_args": {"i": "1"}, "use_cudnn_on_gpu": {"b": true}, "dilations": {"list": {"i": ["1", "1", "1", "1"]}}, "fused_ops": {"list": {"s": ["Qmlhc0FkZA=="]}}, "padding": {"s": "U0FNRQ=="}, "T": {"type": "DT_FLOAT"}, "explicit_paddings": {"list": {}}, "strides": {"list": {"i": ["1", "1", "1", "1"]}}, "filter_format": {"s": "SFdJTw=="}, "leakyrelu_alpha": {"f": 0.2}, "TArgs": {"list": {"type": ["DT_FLOAT"]}}}}, {"name": "PartitionedCall/model_31/tf.math.sigmoid_32/Sigmoid", "op": "Sigmoid", "input": ["PartitionedCall/model_31/tf.math.add_63/Add"], "attr": {"T": {"type": "DT_FLOAT"}}}, {"name": "PartitionedCall/model_31/tf.math.multiply_153/Mul", "op": "Mul", "input": ["PartitionedCall/model_31/tf.math.add_63/Add", "PartitionedCall/model_31/tf.math.sigmoid_32/Sigmoid"], "attr": {"T": {"type": "DT_FLOAT"}}}, {"name": "PartitionedCall/model_31/tf.math.add_65/Add", "op": "AddV2", "input": ["PartitionedCall/model_31/tf.math.add_61/Add", "PartitionedCall/model_31/tf.math.multiply_153/Mul"], "attr": {"T": {"type": "DT_FLOAT"}}}, {"name": "PartitionedCall/model_31/tf.math.add_66/Add", "op": "_FusedConv2D", "input": ["PartitionedCall/model_31/tf.math.add_65/Add", "21680", "21682"], "device": "/device:CPU:0", "attr": {"TArgs": {"list": {"type": ["DT_FLOAT"]}}, "strides": {"list": {"i": ["1", "1", "1", "1"]}}, "num_args": {"i": "1"}, "filter_format": {"s": "SFdJTw=="}, "fused_ops": {"list": {"s": ["Qmlhc0FkZA=="]}}, "data_format": {"s": "TkhXQw=="}, "num_host_args": {"i": "0"}, "T": {"type": "DT_FLOAT"}, "dilations": {"list": {"i": ["1", "1", "1", "1"]}}, "explicit_paddings": {"list": {}}, "leakyrelu_alpha": {"f": 0.2}, "use_cudnn_on_gpu": {"b": true}, "epsilon": {"f": 0.0}, "padding": {"s": "U0FNRQ=="}}}, {"name": "PartitionedCall/model_31/tf.math.sigmoid_33/Sigmoid", "op": "Sigmoid", "input": ["PartitionedCall/model_31/tf.math.add_66/Add"], "attr": {"T": {"type": "DT_FLOAT"}}}, {"name": "PartitionedCall/model_31/tf.math.multiply_159/Mul", "op": "Mul", "input": ["PartitionedCall/model_31/tf.math.add_66/Add", "PartitionedCall/model_31/tf.math.sigmoid_33/Sigmoid"], "attr": {"T": {"type": "DT_FLOAT"}}}, {"name": "PartitionedCall/model_31/tf.math.add_67/Add", "op": "_FusedConv2D", "input": ["PartitionedCall/model_31/tf.math.multiply_159/Mul", "21684", "21686"], "device": "/device:CPU:0", "attr": {"fused_ops": {"list": {"s": ["Qmlhc0FkZA=="]}}, "padding": {"s": "U0FNRQ=="}, "TArgs": {"list": {"type": ["DT_FLOAT"]}}, "explicit_paddings": {"list": {}}, "filter_format": {"s": "SFdJTw=="}, "leakyrelu_alpha": {"f": 0.2}, "num_host_args": {"i": "0"}, "num_args": {"i": "1"}, "T": {"type": "DT_FLOAT"}, "data_format": {"s": "TkhXQw=="}, "strides": {"list": {"i": ["1", "1", "1", "1"]}}, "epsilon": {"f": 0.0}, "dilations": {"list": {"i": ["1", "1", "1", "1"]}}, "use_cudnn_on_gpu": {"b": true}}}, {"name": "PartitionedCall/model_31/tf.math.sigmoid_34/Sigmoid", "op": "Sigmoid", "input": ["PartitionedCall/model_31/tf.math.add_67/Add"], "attr": {"T": {"type": "DT_FLOAT"}}}, {"name": "PartitionedCall/model_31/tf.math.multiply_163/Mul", "op": "Mul", "input": ["PartitionedCall/model_31/tf.math.add_67/Add", "PartitionedCall/model_31/tf.math.sigmoid_34/Sigmoid"], "attr": {"T": {"type": "DT_FLOAT"}}}, {"name": "PartitionedCall/model_31/tf.math.add_69/Add", "op": "AddV2", "input": ["PartitionedCall/model_31/tf.math.add_65/Add", "PartitionedCall/model_31/tf.math.multiply_163/Mul"], "attr": {"T": {"type": "DT_FLOAT"}}}, {"name": "PartitionedCall/model_31/tf.math.add_70/Add", "op": "_FusedConv2D", "input": ["PartitionedCall/model_31/tf.math.add_69/Add", "21688", "21690"], "device": "/device:CPU:0", "attr": {"use_cudnn_on_gpu": {"b": true}, "fused_ops": {"list": {"s": ["Qmlhc0FkZA=="]}}, "T": {"type": "DT_FLOAT"}, "leakyrelu_alpha": {"f": 0.2}, "epsilon": {"f": 0.0}, "num_host_args": {"i": "0"}, "padding": {"s": "U0FNRQ=="}, "explicit_paddings": {"list": {}}, "filter_format": {"s": "SFdJTw=="}, "num_args": {"i": "1"}, "dilations": {"list": {"i": ["1", "1", "1", "1"]}}, "data_format": {"s": "TkhXQw=="}, "strides": {"list": {"i": ["1", "1", "1", "1"]}}, "TArgs": {"list": {"type": ["DT_FLOAT"]}}}}, {"name": "PartitionedCall/model_31/tf.math.sigmoid_35/Sigmoid", "op": "Sigmoid", "input": ["PartitionedCall/model_31/tf.math.add_70/Add"], "attr": {"T": {"type": "DT_FLOAT"}}}, {"name": "PartitionedCall/model_31/tf.math.multiply_169/Mul", "op": "Mul", "input": ["PartitionedCall/model_31/tf.math.add_70/Add", "PartitionedCall/model_31/tf.math.sigmoid_35/Sigmoid"], "attr": {"T": {"type": "DT_FLOAT"}}}, {"name": "PartitionedCall/model_31/tf.math.add_71/Add", "op": "_FusedConv2D", "input": ["PartitionedCall/model_31/tf.math.multiply_169/Mul", "21692", "21694"], "device": "/device:CPU:0", "attr": {"dilations": {"list": {"i": ["1", "1", "1", "1"]}}, "epsilon": {"f": 0.0}, "TArgs": {"list": {"type": ["DT_FLOAT"]}}, "data_format": {"s": "TkhXQw=="}, "fused_ops": {"list": {"s": ["Qmlhc0FkZA=="]}}, "filter_format": {"s": "SFdJTw=="}, "T": {"type": "DT_FLOAT"}, "padding": {"s": "U0FNRQ=="}, "leakyrelu_alpha": {"f": 0.2}, "explicit_paddings": {"list": {}}, "num_host_args": {"i": "0"}, "strides": {"list": {"i": ["1", "1", "1", "1"]}}, "use_cudnn_on_gpu": {"b": true}, "num_args": {"i": "1"}}}, {"name": "PartitionedCall/model_31/tf.math.sigmoid_36/Sigmoid", "op": "Sigmoid", "input": ["PartitionedCall/model_31/tf.math.add_71/Add"], "attr": {"T": {"type": "DT_FLOAT"}}}, {"name": "PartitionedCall/model_31/tf.math.multiply_173/Mul", "op": "Mul", "input": ["PartitionedCall/model_31/tf.math.add_71/Add", "PartitionedCall/model_31/tf.math.sigmoid_36/Sigmoid"], "attr": {"T": {"type": "DT_FLOAT"}}}, {"name": "PartitionedCall/model_31/tf.math.add_73/Add", "op": "AddV2", "input": ["PartitionedCall/model_31/tf.math.add_69/Add", "PartitionedCall/model_31/tf.math.multiply_173/Mul"], "attr": {"T": {"type": "DT_FLOAT"}}}, {"name": "PartitionedCall/model_31/tf.math.add_74/Add", "op": "_FusedConv2D", "input": ["PartitionedCall/model_31/tf.math.add_73/Add", "21696", "21698"], "device": "/device:CPU:0", "attr": {"T": {"type": "DT_FLOAT"}, "fused_ops": {"list": {"s": ["Qmlhc0FkZA=="]}}, "strides": {"list": {"i": ["1", "1", "1", "1"]}}, "explicit_paddings": {"list": {}}, "num_host_args": {"i": "0"}, "num_args": {"i": "1"}, "filter_format": {"s": "SFdJTw=="}, "leakyrelu_alpha": {"f": 0.2}, "dilations": {"list": {"i": ["1", "1", "1", "1"]}}, "padding": {"s": "U0FNRQ=="}, "TArgs": {"list": {"type": ["DT_FLOAT"]}}, "epsilon": {"f": 0.0}, "data_format": {"s": "TkhXQw=="}, "use_cudnn_on_gpu": {"b": true}}}, {"name": "PartitionedCall/model_31/tf.math.sigmoid_37/Sigmoid", "op": "Sigmoid", "input": ["PartitionedCall/model_31/tf.math.add_74/Add"], "attr": {"T": {"type": "DT_FLOAT"}}}, {"name": "PartitionedCall/model_31/tf.math.multiply_179/Mul", "op": "Mul", "input": ["PartitionedCall/model_31/tf.math.add_74/Add", "PartitionedCall/model_31/tf.math.sigmoid_37/Sigmoid"], "attr": {"T": {"type": "DT_FLOAT"}}}, {"name": "PartitionedCall/model_31/tf.math.add_75/Add", "op": "_FusedConv2D", "input": ["PartitionedCall/model_31/tf.math.multiply_179/Mul", "21700", "21702"], "device": "/device:CPU:0", "attr": {"num_host_args": {"i": "0"}, "filter_format": {"s": "SFdJTw=="}, "fused_ops": {"list": {"s": ["Qmlhc0FkZA=="]}}, "padding": {"s": "U0FNRQ=="}, "epsilon": {"f": 0.0}, "num_args": {"i": "1"}, "TArgs": {"list": {"type": ["DT_FLOAT"]}}, "explicit_paddings": {"list": {}}, "T": {"type": "DT_FLOAT"}, "dilations": {"list": {"i": ["1", "1", "1", "1"]}}, "leakyrelu_alpha": {"f": 0.2}, "data_format": {"s": "TkhXQw=="}, "use_cudnn_on_gpu": {"b": true}, "strides": {"list": {"i": ["1", "1", "1", "1"]}}}}, {"name": "PartitionedCall/model_31/tf.math.sigmoid_38/Sigmoid", "op": "Sigmoid", "input": ["PartitionedCall/model_31/tf.math.add_75/Add"], "attr": {"T": {"type": "DT_FLOAT"}}}, {"name": "PartitionedCall/model_31/tf.math.multiply_183/Mul", "op": "Mul", "input": ["PartitionedCall/model_31/tf.math.add_75/Add", "PartitionedCall/model_31/tf.math.sigmoid_38/Sigmoid"], "attr": {"T": {"type": "DT_FLOAT"}}}, {"name": "PartitionedCall/model_31/tf.math.add_77/Add", "op": "AddV2", "input": ["PartitionedCall/model_31/tf.math.add_73/Add", "PartitionedCall/model_31/tf.math.multiply_183/Mul"], "attr": {"T": {"type": "DT_FLOAT"}}}, {"name": "PartitionedCall/model_31/tf.concat_2/concat", "op": "ConcatV2", "input": ["PartitionedCall/model_31/tf.strided_slice_4/StridedSlice", "PartitionedCall/model_31/tf.strided_slice_5/StridedSlice", "PartitionedCall/model_31/tf.math.add_57/Add", "PartitionedCall/model_31/tf.math.add_61/Add", "PartitionedCall/model_31/tf.math.add_65/Add", "PartitionedCall/model_31/tf.math.add_69/Add", "PartitionedCall/model_31/tf.math.add_73/Add", "PartitionedCall/model_31/tf.math.add_77/Add", "PartitionedCall/model_31/tf.concat_2/concat/axis"], "attr": {"N": {"i": "8"}, "T": {"type": "DT_FLOAT"}, "Tidx": {"type": "DT_INT32"}}}, {"name": "PartitionedCall/model_31/tf.math.add_78/Add", "op": "_FusedConv2D", "input": ["PartitionedCall/model_31/tf.concat_2/concat", "21708", "21710"], "device": "/device:CPU:0", "attr": {"leakyrelu_alpha": {"f": 0.2}, "use_cudnn_on_gpu": {"b": true}, "num_args": {"i": "1"}, "data_format": {"s": "TkhXQw=="}, "filter_format": {"s": "SFdJTw=="}, "num_host_args": {"i": "0"}, "TArgs": {"list": {"type": ["DT_FLOAT"]}}, "epsilon": {"f": 0.0}, "dilations": {"list": {"i": ["1", "1", "1", "1"]}}, "padding": {"s": "U0FNRQ=="}, "strides": {"list": {"i": ["1", "1", "1", "1"]}}, "fused_ops": {"list": {"s": ["Qmlhc0FkZA=="]}}, "explicit_paddings": {"list": {}}, "T": {"type": "DT_FLOAT"}}}, {"name": "PartitionedCall/model_31/tf.math.sigmoid_39/Sigmoid", "op": "Sigmoid", "input": ["PartitionedCall/model_31/tf.math.add_78/Add"], "attr": {"T": {"type": "DT_FLOAT"}}}, {"name": "PartitionedCall/model_31/tf.math.multiply_189/Mul", "op": "Mul", "input": ["PartitionedCall/model_31/tf.math.add_78/Add", "PartitionedCall/model_31/tf.math.sigmoid_39/Sigmoid"], "attr": {"T": {"type": "DT_FLOAT"}}}, {"name": "PartitionedCall/model_31/tf.compat.v1.pad_4/Pad", "op": "Pad", "input": ["PartitionedCall/model_31/tf.math.multiply_189/Mul", "21712"], "attr": {"Tpaddings": {"type": "DT_INT32"}, "T": {"type": "DT_FLOAT"}}}, {"name": "PartitionedCall/model_31/tf.math.add_79/Add", "op": "_FusedConv2D", "input": ["PartitionedCall/model_31/tf.compat.v1.pad_4/Pad", "21714", "21716"], "device": "/device:CPU:0", "attr": {"TArgs": {"list": {"type": ["DT_FLOAT"]}}, "explicit_paddings": {"list": {}}, "dilations": {"list": {"i": ["1", "1", "1", "1"]}}, "padding": {"s": "VkFMSUQ="}, "T": {"type": "DT_FLOAT"}, "strides": {"list": {"i": ["1", "2", "2", "1"]}}, "use_cudnn_on_gpu": {"b": true}, "fused_ops": {"list": {"s": ["Qmlhc0FkZA=="]}}, "num_host_args": {"i": "0"}, "epsilon": {"f": 0.0}, "num_args": {"i": "1"}, "leakyrelu_alpha": {"f": 0.2}, "data_format": {"s": "TkhXQw=="}, "filter_format": {"s": "SFdJTw=="}}}, {"name": "PartitionedCall/model_31/tf.math.sigmoid_40/Sigmoid", "op": "Sigmoid", "input": ["PartitionedCall/model_31/tf.math.add_79/Add"], "attr": {"T": {"type": "DT_FLOAT"}}}, {"name": "PartitionedCall/model_31/tf.math.multiply_193/Mul", "op": "Mul", "input": ["PartitionedCall/model_31/tf.math.add_79/Add", "PartitionedCall/model_31/tf.math.sigmoid_40/Sigmoid"], "attr": {"T": {"type": "DT_FLOAT"}}}, {"name": "PartitionedCall/model_31/tf.math.add_80/Add", "op": "_FusedConv2D", "input": ["PartitionedCall/model_31/tf.math.multiply_193/Mul", "21718", "21720"], "device": "/device:CPU:0", "attr": {"data_format": {"s": "TkhXQw=="}, "epsilon": {"f": 0.0}, "strides": {"list": {"i": ["1", "1", "1", "1"]}}, "TArgs": {"list": {"type": ["DT_FLOAT"]}}, "num_host_args": {"i": "0"}, "padding": {"s": "U0FNRQ=="}, "leakyrelu_alpha": {"f": 0.2}, "dilations": {"list": {"i": ["1", "1", "1", "1"]}}, "explicit_paddings": {"list": {}}, "T": {"type": "DT_FLOAT"}, "filter_format": {"s": "SFdJTw=="}, "use_cudnn_on_gpu": {"b": true}, "fused_ops": {"list": {"s": ["Qmlhc0FkZA=="]}}, "num_args": {"i": "1"}}}, {"name": "PartitionedCall/model_31/tf.math.sigmoid_41/Sigmoid", "op": "Sigmoid", "input": ["PartitionedCall/model_31/tf.math.add_80/Add"], "attr": {"T": {"type": "DT_FLOAT"}}}, {"name": "PartitionedCall/model_31/tf.math.multiply_197/Mul", "op": "Mul", "input": ["PartitionedCall/model_31/tf.math.add_80/Add", "PartitionedCall/model_31/tf.math.sigmoid_41/Sigmoid"], "attr": {"T": {"type": "DT_FLOAT"}}}, {"name": "PartitionedCall/model_31/tf.strided_slice_6/StridedSlice", "op": "StridedSlice", "input": ["PartitionedCall/model_31/tf.math.multiply_197/Mul", "21750", "21752", "PartitionedCall/model_31/tf.strided_slice_6/ones_like"], "attr": {"begin_mask": {"i": "15"}, "T": {"type": "DT_FLOAT"}, "new_axis_mask": {"i": "0"}, "ellipsis_mask": {"i": "0"}, "Index": {"type": "DT_INT64"}, "shrink_axis_mask": {"i": "0"}, "end_mask": {"i": "7"}}}, {"name": "PartitionedCall/model_31/tf.strided_slice_7/StridedSlice", "op": "StridedSlice", "input": ["PartitionedCall/model_31/tf.math.multiply_197/Mul", "21722", "21724", "PartitionedCall/model_31/tf.strided_slice_7/ones_like"], "attr": {"Index": {"type": "DT_INT64"}, "begin_mask": {"i": "7"}, "T": {"type": "DT_FLOAT"}, "new_axis_mask": {"i": "0"}, "ellipsis_mask": {"i": "0"}, "shrink_axis_mask": {"i": "0"}, "end_mask": {"i": "7"}}}, {"name": "PartitionedCall/model_31/tf.math.add_81/Add", "op": "_FusedConv2D", "input": ["PartitionedCall/model_31/tf.strided_slice_7/StridedSlice", "21726", "21728"], "device": "/device:CPU:0", "attr": {"fused_ops": {"list": {"s": ["Qmlhc0FkZA=="]}}, "padding": {"s": "U0FNRQ=="}, "T": {"type": "DT_FLOAT"}, "leakyrelu_alpha": {"f": 0.2}, "num_args": {"i": "1"}, "explicit_paddings": {"list": {}}, "data_format": {"s": "TkhXQw=="}, "use_cudnn_on_gpu": {"b": true}, "epsilon": {"f": 0.0}, "filter_format": {"s": "SFdJTw=="}, "num_host_args": {"i": "0"}, "TArgs": {"list": {"type": ["DT_FLOAT"]}}, "dilations": {"list": {"i": ["1", "1", "1", "1"]}}, "strides": {"list": {"i": ["1", "1", "1", "1"]}}}}, {"name": "PartitionedCall/model_31/tf.math.sigmoid_42/Sigmoid", "op": "Sigmoid", "input": ["PartitionedCall/model_31/tf.math.add_81/Add"], "attr": {"T": {"type": "DT_FLOAT"}}}, {"name": "PartitionedCall/model_31/tf.math.multiply_201/Mul", "op": "Mul", "input": ["PartitionedCall/model_31/tf.math.add_81/Add", "PartitionedCall/model_31/tf.math.sigmoid_42/Sigmoid"], "attr": {"T": {"type": "DT_FLOAT"}}}, {"name": "PartitionedCall/model_31/tf.math.add_82/Add", "op": "_FusedConv2D", "input": ["PartitionedCall/model_31/tf.math.multiply_201/Mul", "21730", "21732"], "device": "/device:CPU:0", "attr": {"explicit_paddings": {"list": {}}, "filter_format": {"s": "SFdJTw=="}, "use_cudnn_on_gpu": {"b": true}, "TArgs": {"list": {"type": ["DT_FLOAT"]}}, "strides": {"list": {"i": ["1", "1", "1", "1"]}}, "leakyrelu_alpha": {"f": 0.2}, "dilations": {"list": {"i": ["1", "1", "1", "1"]}}, "fused_ops": {"list": {"s": ["Qmlhc0FkZA=="]}}, "data_format": {"s": "TkhXQw=="}, "T": {"type": "DT_FLOAT"}, "padding": {"s": "U0FNRQ=="}, "num_host_args": {"i": "0"}, "epsilon": {"f": 0.0}, "num_args": {"i": "1"}}}, {"name": "PartitionedCall/model_31/tf.math.sigmoid_43/Sigmoid", "op": "Sigmoid", "input": ["PartitionedCall/model_31/tf.math.add_82/Add"], "attr": {"T": {"type": "DT_FLOAT"}}}, {"name": "PartitionedCall/model_31/tf.math.multiply_205/Mul", "op": "Mul", "input": ["PartitionedCall/model_31/tf.math.add_82/Add", "PartitionedCall/model_31/tf.math.sigmoid_43/Sigmoid"], "attr": {"T": {"type": "DT_FLOAT"}}}, {"name": "PartitionedCall/model_31/tf.math.add_84/Add", "op": "AddV2", "input": ["PartitionedCall/model_31/tf.strided_slice_7/StridedSlice", "PartitionedCall/model_31/tf.math.multiply_205/Mul"], "attr": {"T": {"type": "DT_FLOAT"}}}, {"name": "PartitionedCall/model_31/tf.math.add_85/Add", "op": "_FusedConv2D", "input": ["PartitionedCall/model_31/tf.math.add_84/Add", "21734", "21736"], "device": "/device:CPU:0", "attr": {"use_cudnn_on_gpu": {"b": true}, "data_format": {"s": "TkhXQw=="}, "fused_ops": {"list": {"s": ["Qmlhc0FkZA=="]}}, "num_host_args": {"i": "0"}, "filter_format": {"s": "SFdJTw=="}, "num_args": {"i": "1"}, "leakyrelu_alpha": {"f": 0.2}, "TArgs": {"list": {"type": ["DT_FLOAT"]}}, "dilations": {"list": {"i": ["1", "1", "1", "1"]}}, "T": {"type": "DT_FLOAT"}, "strides": {"list": {"i": ["1", "1", "1", "1"]}}, "explicit_paddings": {"list": {}}, "padding": {"s": "U0FNRQ=="}, "epsilon": {"f": 0.0}}}, {"name": "PartitionedCall/model_31/tf.math.sigmoid_44/Sigmoid", "op": "Sigmoid", "input": ["PartitionedCall/model_31/tf.math.add_85/Add"], "attr": {"T": {"type": "DT_FLOAT"}}}, {"name": "PartitionedCall/model_31/tf.math.multiply_211/Mul", "op": "Mul", "input": ["PartitionedCall/model_31/tf.math.add_85/Add", "PartitionedCall/model_31/tf.math.sigmoid_44/Sigmoid"], "attr": {"T": {"type": "DT_FLOAT"}}}, {"name": "PartitionedCall/model_31/tf.math.add_86/Add", "op": "_FusedConv2D", "input": ["PartitionedCall/model_31/tf.math.multiply_211/Mul", "21738", "21740"], "device": "/device:CPU:0", "attr": {"use_cudnn_on_gpu": {"b": true}, "padding": {"s": "U0FNRQ=="}, "num_host_args": {"i": "0"}, "leakyrelu_alpha": {"f": 0.2}, "num_args": {"i": "1"}, "fused_ops": {"list": {"s": ["Qmlhc0FkZA=="]}}, "explicit_paddings": {"list": {}}, "TArgs": {"list": {"type": ["DT_FLOAT"]}}, "dilations": {"list": {"i": ["1", "1", "1", "1"]}}, "filter_format": {"s": "SFdJTw=="}, "strides": {"list": {"i": ["1", "1", "1", "1"]}}, "epsilon": {"f": 0.0}, "data_format": {"s": "TkhXQw=="}, "T": {"type": "DT_FLOAT"}}}, {"name": "PartitionedCall/model_31/tf.math.sigmoid_45/Sigmoid", "op": "Sigmoid", "input": ["PartitionedCall/model_31/tf.math.add_86/Add"], "attr": {"T": {"type": "DT_FLOAT"}}}, {"name": "PartitionedCall/model_31/tf.math.multiply_215/Mul", "op": "Mul", "input": ["PartitionedCall/model_31/tf.math.add_86/Add", "PartitionedCall/model_31/tf.math.sigmoid_45/Sigmoid"], "attr": {"T": {"type": "DT_FLOAT"}}}, {"name": "PartitionedCall/model_31/tf.math.add_88/Add", "op": "AddV2", "input": ["PartitionedCall/model_31/tf.math.add_84/Add", "PartitionedCall/model_31/tf.math.multiply_215/Mul"], "attr": {"T": {"type": "DT_FLOAT"}}}, {"name": "PartitionedCall/model_31/tf.math.add_89/Add", "op": "_FusedConv2D", "input": ["PartitionedCall/model_31/tf.math.add_88/Add", "21742", "21744"], "device": "/device:CPU:0", "attr": {"filter_format": {"s": "SFdJTw=="}, "fused_ops": {"list": {"s": ["Qmlhc0FkZA=="]}}, "T": {"type": "DT_FLOAT"}, "epsilon": {"f": 0.0}, "explicit_paddings": {"list": {}}, "TArgs": {"list": {"type": ["DT_FLOAT"]}}, "num_host_args": {"i": "0"}, "use_cudnn_on_gpu": {"b": true}, "leakyrelu_alpha": {"f": 0.2}, "dilations": {"list": {"i": ["1", "1", "1", "1"]}}, "num_args": {"i": "1"}, "strides": {"list": {"i": ["1", "1", "1", "1"]}}, "data_format": {"s": "TkhXQw=="}, "padding": {"s": "U0FNRQ=="}}}, {"name": "PartitionedCall/model_31/tf.math.sigmoid_46/Sigmoid", "op": "Sigmoid", "input": ["PartitionedCall/model_31/tf.math.add_89/Add"], "attr": {"T": {"type": "DT_FLOAT"}}}, {"name": "PartitionedCall/model_31/tf.math.multiply_221/Mul", "op": "Mul", "input": ["PartitionedCall/model_31/tf.math.add_89/Add", "PartitionedCall/model_31/tf.math.sigmoid_46/Sigmoid"], "attr": {"T": {"type": "DT_FLOAT"}}}, {"name": "PartitionedCall/model_31/tf.math.add_90/Add", "op": "_FusedConv2D", "input": ["PartitionedCall/model_31/tf.math.multiply_221/Mul", "21746", "21748"], "device": "/device:CPU:0", "attr": {"num_args": {"i": "1"}, "padding": {"s": "U0FNRQ=="}, "filter_format": {"s": "SFdJTw=="}, "data_format": {"s": "TkhXQw=="}, "T": {"type": "DT_FLOAT"}, "dilations": {"list": {"i": ["1", "1", "1", "1"]}}, "strides": {"list": {"i": ["1", "1", "1", "1"]}}, "leakyrelu_alpha": {"f": 0.2}, "explicit_paddings": {"list": {}}, "epsilon": {"f": 0.0}, "use_cudnn_on_gpu": {"b": true}, "fused_ops": {"list": {"s": ["Qmlhc0FkZA=="]}}, "TArgs": {"list": {"type": ["DT_FLOAT"]}}, "num_host_args": {"i": "0"}}}, {"name": "PartitionedCall/model_31/tf.math.sigmoid_47/Sigmoid", "op": "Sigmoid", "input": ["PartitionedCall/model_31/tf.math.add_90/Add"], "attr": {"T": {"type": "DT_FLOAT"}}}, {"name": "PartitionedCall/model_31/tf.math.multiply_225/Mul", "op": "Mul", "input": ["PartitionedCall/model_31/tf.math.add_90/Add", "PartitionedCall/model_31/tf.math.sigmoid_47/Sigmoid"], "attr": {"T": {"type": "DT_FLOAT"}}}, {"name": "PartitionedCall/model_31/tf.math.add_92/Add", "op": "AddV2", "input": ["PartitionedCall/model_31/tf.math.add_88/Add", "PartitionedCall/model_31/tf.math.multiply_225/Mul"], "attr": {"T": {"type": "DT_FLOAT"}}}, {"name": "PartitionedCall/model_31/tf.concat_3/concat", "op": "ConcatV2", "input": ["PartitionedCall/model_31/tf.strided_slice_6/StridedSlice", "PartitionedCall/model_31/tf.strided_slice_7/StridedSlice", "PartitionedCall/model_31/tf.math.add_84/Add", "PartitionedCall/model_31/tf.math.add_88/Add", "PartitionedCall/model_31/tf.math.add_92/Add", "PartitionedCall/model_31/tf.concat_3/concat/axis"], "attr": {"Tidx": {"type": "DT_INT32"}, "T": {"type": "DT_FLOAT"}, "N": {"i": "5"}}}, {"name": "PartitionedCall/model_31/tf.math.add_93/Add", "op": "_FusedConv2D", "input": ["PartitionedCall/model_31/tf.concat_3/concat", "21754", "21756"], "device": "/device:CPU:0", "attr": {"TArgs": {"list": {"type": ["DT_FLOAT"]}}, "dilations": {"list": {"i": ["1", "1", "1", "1"]}}, "strides": {"list": {"i": ["1", "1", "1", "1"]}}, "explicit_paddings": {"list": {}}, "use_cudnn_on_gpu": {"b": true}, "filter_format": {"s": "SFdJTw=="}, "epsilon": {"f": 0.0}, "T": {"type": "DT_FLOAT"}, "padding": {"s": "U0FNRQ=="}, "leakyrelu_alpha": {"f": 0.2}, "data_format": {"s": "TkhXQw=="}, "num_args": {"i": "1"}, "fused_ops": {"list": {"s": ["Qmlhc0FkZA=="]}}, "num_host_args": {"i": "0"}}}, {"name": "PartitionedCall/model_31/tf.math.sigmoid_48/Sigmoid", "op": "Sigmoid", "input": ["PartitionedCall/model_31/tf.math.add_93/Add"], "attr": {"T": {"type": "DT_FLOAT"}}}, {"name": "PartitionedCall/model_31/tf.math.multiply_231/Mul", "op": "Mul", "input": ["PartitionedCall/model_31/tf.math.add_93/Add", "PartitionedCall/model_31/tf.math.sigmoid_48/Sigmoid"], "attr": {"T": {"type": "DT_FLOAT"}}}, {"name": "PartitionedCall/model_31/tf.math.add_94/Add", "op": "_FusedConv2D", "input": ["PartitionedCall/model_31/tf.math.multiply_231/Mul", "21758", "21760"], "device": "/device:CPU:0", "attr": {"TArgs": {"list": {"type": ["DT_FLOAT"]}}, "data_format": {"s": "TkhXQw=="}, "T": {"type": "DT_FLOAT"}, "strides": {"list": {"i": ["1", "1", "1", "1"]}}, "explicit_paddings": {"list": {}}, "dilations": {"list": {"i": ["1", "1", "1", "1"]}}, "filter_format": {"s": "SFdJTw=="}, "epsilon": {"f": 0.0}, "num_host_args": {"i": "0"}, "leakyrelu_alpha": {"f": 0.2}, "num_args": {"i": "1"}, "fused_ops": {"list": {"s": ["Qmlhc0FkZA=="]}}, "use_cudnn_on_gpu": {"b": true}, "padding": {"s": "U0FNRQ=="}}}, {"name": "PartitionedCall/model_31/tf.math.sigmoid_49/Sigmoid", "op": "Sigmoid", "input": ["PartitionedCall/model_31/tf.math.add_94/Add"], "attr": {"T": {"type": "DT_FLOAT"}}}, {"name": "PartitionedCall/model_31/tf.math.multiply_235/Mul", "op": "Mul", "input": ["PartitionedCall/model_31/tf.math.add_94/Add", "PartitionedCall/model_31/tf.math.sigmoid_49/Sigmoid"], "attr": {"T": {"type": "DT_FLOAT"}}}, {"name": "PartitionedCall/model_31/tf.compat.v1.nn.pool/max_pool", "op": "MaxPool", "input": ["PartitionedCall/model_31/tf.math.multiply_235/Mul"], "attr": {"data_format": {"s": "TkhXQw=="}, "ksize": {"list": {"i": ["1", "5", "5", "1"]}}, "explicit_paddings": {"list": {}}, "strides": {"list": {"i": ["1", "1", "1", "1"]}}, "padding": {"s": "U0FNRQ=="}, "T": {"type": "DT_FLOAT"}}}, {"name": "PartitionedCall/model_31/tf.compat.v1.nn.pool_1/max_pool", "op": "MaxPool", "input": ["PartitionedCall/model_31/tf.compat.v1.nn.pool/max_pool"], "attr": {"explicit_paddings": {"list": {}}, "data_format": {"s": "TkhXQw=="}, "padding": {"s": "U0FNRQ=="}, "strides": {"list": {"i": ["1", "1", "1", "1"]}}, "ksize": {"list": {"i": ["1", "5", "5", "1"]}}, "T": {"type": "DT_FLOAT"}}}, {"name": "PartitionedCall/model_31/tf.compat.v1.nn.pool_2/max_pool", "op": "MaxPool", "input": ["PartitionedCall/model_31/tf.compat.v1.nn.pool_1/max_pool"], "attr": {"T": {"type": "DT_FLOAT"}, "explicit_paddings": {"list": {}}, "ksize": {"list": {"i": ["1", "5", "5", "1"]}}, "strides": {"list": {"i": ["1", "1", "1", "1"]}}, "data_format": {"s": "TkhXQw=="}, "padding": {"s": "U0FNRQ=="}}}, {"name": "PartitionedCall/model_31/tf.concat_4/concat", "op": "ConcatV2", "input": ["PartitionedCall/model_31/tf.math.multiply_235/Mul", "PartitionedCall/model_31/tf.compat.v1.nn.pool/max_pool", "PartitionedCall/model_31/tf.compat.v1.nn.pool_1/max_pool", "PartitionedCall/model_31/tf.compat.v1.nn.pool_2/max_pool", "PartitionedCall/model_31/tf.concat_4/concat/axis"], "attr": {"N": {"i": "4"}, "Tidx": {"type": "DT_INT32"}, "T": {"type": "DT_FLOAT"}}}, {"name": "PartitionedCall/model_31/tf.math.add_95/Add", "op": "_FusedConv2D", "input": ["PartitionedCall/model_31/tf.concat_4/concat", "21762", "21764"], "device": "/device:CPU:0", "attr": {"padding": {"s": "U0FNRQ=="}, "leakyrelu_alpha": {"f": 0.2}, "TArgs": {"list": {"type": ["DT_FLOAT"]}}, "fused_ops": {"list": {"s": ["Qmlhc0FkZA=="]}}, "data_format": {"s": "TkhXQw=="}, "use_cudnn_on_gpu": {"b": true}, "filter_format": {"s": "SFdJTw=="}, "num_args": {"i": "1"}, "strides": {"list": {"i": ["1", "1", "1", "1"]}}, "T": {"type": "DT_FLOAT"}, "num_host_args": {"i": "0"}, "dilations": {"list": {"i": ["1", "1", "1", "1"]}}, "explicit_paddings": {"list": {}}, "epsilon": {"f": 0.0}}}, {"name": "PartitionedCall/model_31/tf.math.sigmoid_50/Sigmoid", "op": "Sigmoid", "input": ["PartitionedCall/model_31/tf.math.add_95/Add"], "attr": {"T": {"type": "DT_FLOAT"}}}, {"name": "PartitionedCall/model_31/tf.math.multiply_239/Mul", "op": "Mul", "input": ["PartitionedCall/model_31/tf.math.add_95/Add", "PartitionedCall/model_31/tf.math.sigmoid_50/Sigmoid"], "attr": {"T": {"type": "DT_FLOAT"}}}, {"name": "PartitionedCall/model_31/tf.compat.v1.image.resize_nearest_neighbor/ResizeNearestNeighbor", "op": "ResizeNearestNeighbor", "input": ["PartitionedCall/model_31/tf.math.multiply_239/Mul", "PartitionedCall/model_31/tf.compat.v1.image.resize_nearest_neighbor/ResizeNearestNeighbor/size"], "attr": {"T": {"type": "DT_FLOAT"}, "align_corners": {"b": false}, "half_pixel_centers": {"b": false}}}, {"name": "PartitionedCall/model_31/tf.concat_5/concat", "op": "ConcatV2", "input": ["PartitionedCall/model_31/tf.compat.v1.image.resize_nearest_neighbor/ResizeNearestNeighbor", "PartitionedCall/model_31/tf.math.multiply_189/Mul", "PartitionedCall/model_31/tf.concat_5/concat/axis"], "attr": {"T": {"type": "DT_FLOAT"}, "N": {"i": "2"}, "Tidx": {"type": "DT_INT32"}}}, {"name": "PartitionedCall/model_31/tf.math.add_96/Add", "op": "_FusedConv2D", "input": ["PartitionedCall/model_31/tf.concat_5/concat", "21766", "21768"], "device": "/device:CPU:0", "attr": {"strides": {"list": {"i": ["1", "1", "1", "1"]}}, "epsilon": {"f": 0.0}, "use_cudnn_on_gpu": {"b": true}, "fused_ops": {"list": {"s": ["Qmlhc0FkZA=="]}}, "num_host_args": {"i": "0"}, "dilations": {"list": {"i": ["1", "1", "1", "1"]}}, "T": {"type": "DT_FLOAT"}, "filter_format": {"s": "SFdJTw=="}, "TArgs": {"list": {"type": ["DT_FLOAT"]}}, "leakyrelu_alpha": {"f": 0.2}, "data_format": {"s": "TkhXQw=="}, "num_args": {"i": "1"}, "explicit_paddings": {"list": {}}, "padding": {"s": "U0FNRQ=="}}}, {"name": "PartitionedCall/model_31/tf.math.sigmoid_51/Sigmoid", "op": "Sigmoid", "input": ["PartitionedCall/model_31/tf.math.add_96/Add"], "attr": {"T": {"type": "DT_FLOAT"}}}, {"name": "PartitionedCall/model_31/tf.math.multiply_243/Mul", "op": "Mul", "input": ["PartitionedCall/model_31/tf.math.add_96/Add", "PartitionedCall/model_31/tf.math.sigmoid_51/Sigmoid"], "attr": {"T": {"type": "DT_FLOAT"}}}, {"name": "PartitionedCall/model_31/tf.strided_slice_8/StridedSlice", "op": "StridedSlice", "input": ["PartitionedCall/model_31/tf.math.multiply_243/Mul", "21798", "21800", "PartitionedCall/model_31/tf.strided_slice_8/ones_like"], "attr": {"T": {"type": "DT_FLOAT"}, "end_mask": {"i": "7"}, "Index": {"type": "DT_INT64"}, "shrink_axis_mask": {"i": "0"}, "begin_mask": {"i": "15"}, "ellipsis_mask": {"i": "0"}, "new_axis_mask": {"i": "0"}}}, {"name": "PartitionedCall/model_31/tf.strided_slice_9/StridedSlice", "op": "StridedSlice", "input": ["PartitionedCall/model_31/tf.math.multiply_243/Mul", "21770", "21772", "PartitionedCall/model_31/tf.strided_slice_9/ones_like"], "attr": {"new_axis_mask": {"i": "0"}, "ellipsis_mask": {"i": "0"}, "shrink_axis_mask": {"i": "0"}, "Index": {"type": "DT_INT64"}, "begin_mask": {"i": "7"}, "end_mask": {"i": "7"}, "T": {"type": "DT_FLOAT"}}}, {"name": "PartitionedCall/model_31/tf.math.add_97/Add", "op": "_FusedConv2D", "input": ["PartitionedCall/model_31/tf.strided_slice_9/StridedSlice", "21774", "21776"], "device": "/device:CPU:0", "attr": {"dilations": {"list": {"i": ["1", "1", "1", "1"]}}, "fused_ops": {"list": {"s": ["Qmlhc0FkZA=="]}}, "leakyrelu_alpha": {"f": 0.2}, "explicit_paddings": {"list": {}}, "num_host_args": {"i": "0"}, "strides": {"list": {"i": ["1", "1", "1", "1"]}}, "padding": {"s": "U0FNRQ=="}, "epsilon": {"f": 0.0}, "T": {"type": "DT_FLOAT"}, "num_args": {"i": "1"}, "data_format": {"s": "TkhXQw=="}, "use_cudnn_on_gpu": {"b": true}, "TArgs": {"list": {"type": ["DT_FLOAT"]}}, "filter_format": {"s": "SFdJTw=="}}}, {"name": "PartitionedCall/model_31/tf.math.sigmoid_52/Sigmoid", "op": "Sigmoid", "input": ["PartitionedCall/model_31/tf.math.add_97/Add"], "attr": {"T": {"type": "DT_FLOAT"}}}, {"name": "PartitionedCall/model_31/tf.math.multiply_247/Mul", "op": "Mul", "input": ["PartitionedCall/model_31/tf.math.add_97/Add", "PartitionedCall/model_31/tf.math.sigmoid_52/Sigmoid"], "attr": {"T": {"type": "DT_FLOAT"}}}, {"name": "PartitionedCall/model_31/tf.math.add_98/Add", "op": "_FusedConv2D", "input": ["PartitionedCall/model_31/tf.math.multiply_247/Mul", "21778", "21780"], "device": "/device:CPU:0", "attr": {"fused_ops": {"list": {"s": ["Qmlhc0FkZA=="]}}, "data_format": {"s": "TkhXQw=="}, "T": {"type": "DT_FLOAT"}, "strides": {"list": {"i": ["1", "1", "1", "1"]}}, "dilations": {"list": {"i": ["1", "1", "1", "1"]}}, "leakyrelu_alpha": {"f": 0.2}, "explicit_paddings": {"list": {}}, "TArgs": {"list": {"type": ["DT_FLOAT"]}}, "use_cudnn_on_gpu": {"b": true}, "epsilon": {"f": 0.0}, "num_host_args": {"i": "0"}, "num_args": {"i": "1"}, "filter_format": {"s": "SFdJTw=="}, "padding": {"s": "U0FNRQ=="}}}, {"name": "PartitionedCall/model_31/tf.math.sigmoid_53/Sigmoid", "op": "Sigmoid", "input": ["PartitionedCall/model_31/tf.math.add_98/Add"], "attr": {"T": {"type": "DT_FLOAT"}}}, {"name": "PartitionedCall/model_31/tf.math.multiply_251/Mul", "op": "Mul", "input": ["PartitionedCall/model_31/tf.math.add_98/Add", "PartitionedCall/model_31/tf.math.sigmoid_53/Sigmoid"], "attr": {"T": {"type": "DT_FLOAT"}}}, {"name": "PartitionedCall/model_31/tf.math.add_99/Add", "op": "_FusedConv2D", "input": ["PartitionedCall/model_31/tf.math.multiply_251/Mul", "21782", "21784"], "device": "/device:CPU:0", "attr": {"T": {"type": "DT_FLOAT"}, "leakyrelu_alpha": {"f": 0.2}, "dilations": {"list": {"i": ["1", "1", "1", "1"]}}, "fused_ops": {"list": {"s": ["Qmlhc0FkZA=="]}}, "num_host_args": {"i": "0"}, "padding": {"s": "U0FNRQ=="}, "explicit_paddings": {"list": {}}, "filter_format": {"s": "SFdJTw=="}, "TArgs": {"list": {"type": ["DT_FLOAT"]}}, "strides": {"list": {"i": ["1", "1", "1", "1"]}}, "num_args": {"i": "1"}, "use_cudnn_on_gpu": {"b": true}, "data_format": {"s": "TkhXQw=="}, "epsilon": {"f": 0.0}}}, {"name": "PartitionedCall/model_31/tf.math.sigmoid_54/Sigmoid", "op": "Sigmoid", "input": ["PartitionedCall/model_31/tf.math.add_99/Add"], "attr": {"T": {"type": "DT_FLOAT"}}}, {"name": "PartitionedCall/model_31/tf.math.multiply_255/Mul", "op": "Mul", "input": ["PartitionedCall/model_31/tf.math.add_99/Add", "PartitionedCall/model_31/tf.math.sigmoid_54/Sigmoid"], "attr": {"T": {"type": "DT_FLOAT"}}}, {"name": "PartitionedCall/model_31/tf.math.add_100/Add", "op": "_FusedConv2D", "input": ["PartitionedCall/model_31/tf.math.multiply_255/Mul", "21786", "21788"], "device": "/device:CPU:0", "attr": {"num_host_args": {"i": "0"}, "dilations": {"list": {"i": ["1", "1", "1", "1"]}}, "T": {"type": "DT_FLOAT"}, "filter_format": {"s": "SFdJTw=="}, "use_cudnn_on_gpu": {"b": true}, "leakyrelu_alpha": {"f": 0.2}, "data_format": {"s": "TkhXQw=="}, "strides": {"list": {"i": ["1", "1", "1", "1"]}}, "explicit_paddings": {"list": {}}, "padding": {"s": "U0FNRQ=="}, "epsilon": {"f": 0.0}, "TArgs": {"list": {"type": ["DT_FLOAT"]}}, "num_args": {"i": "1"}, "fused_ops": {"list": {"s": ["Qmlhc0FkZA=="]}}}}, {"name": "PartitionedCall/model_31/tf.math.sigmoid_55/Sigmoid", "op": "Sigmoid", "input": ["PartitionedCall/model_31/tf.math.add_100/Add"], "attr": {"T": {"type": "DT_FLOAT"}}}, {"name": "PartitionedCall/model_31/tf.math.multiply_259/Mul", "op": "Mul", "input": ["PartitionedCall/model_31/tf.math.add_100/Add", "PartitionedCall/model_31/tf.math.sigmoid_55/Sigmoid"], "attr": {"T": {"type": "DT_FLOAT"}}}, {"name": "PartitionedCall/model_31/tf.math.add_101/Add", "op": "_FusedConv2D", "input": ["PartitionedCall/model_31/tf.math.multiply_259/Mul", "21790", "21792"], "device": "/device:CPU:0", "attr": {"dilations": {"list": {"i": ["1", "1", "1", "1"]}}, "fused_ops": {"list": {"s": ["Qmlhc0FkZA=="]}}, "explicit_paddings": {"list": {}}, "filter_format": {"s": "SFdJTw=="}, "num_host_args": {"i": "0"}, "T": {"type": "DT_FLOAT"}, "num_args": {"i": "1"}, "strides": {"list": {"i": ["1", "1", "1", "1"]}}, "epsilon": {"f": 0.0}, "TArgs": {"list": {"type": ["DT_FLOAT"]}}, "leakyrelu_alpha": {"f": 0.2}, "padding": {"s": "U0FNRQ=="}, "use_cudnn_on_gpu": {"b": true}, "data_format": {"s": "TkhXQw=="}}}, {"name": "PartitionedCall/model_31/tf.math.sigmoid_56/Sigmoid", "op": "Sigmoid", "input": ["PartitionedCall/model_31/tf.math.add_101/Add"], "attr": {"T": {"type": "DT_FLOAT"}}}, {"name": "PartitionedCall/model_31/tf.math.multiply_263/Mul", "op": "Mul", "input": ["PartitionedCall/model_31/tf.math.add_101/Add", "PartitionedCall/model_31/tf.math.sigmoid_56/Sigmoid"], "attr": {"T": {"type": "DT_FLOAT"}}}, {"name": "PartitionedCall/model_31/tf.math.add_102/Add", "op": "_FusedConv2D", "input": ["PartitionedCall/model_31/tf.math.multiply_263/Mul", "21794", "21796"], "device": "/device:CPU:0", "attr": {"TArgs": {"list": {"type": ["DT_FLOAT"]}}, "use_cudnn_on_gpu": {"b": true}, "leakyrelu_alpha": {"f": 0.2}, "T": {"type": "DT_FLOAT"}, "data_format": {"s": "TkhXQw=="}, "explicit_paddings": {"list": {}}, "dilations": {"list": {"i": ["1", "1", "1", "1"]}}, "epsilon": {"f": 0.0}, "filter_format": {"s": "SFdJTw=="}, "fused_ops": {"list": {"s": ["Qmlhc0FkZA=="]}}, "padding": {"s": "U0FNRQ=="}, "num_host_args": {"i": "0"}, "strides": {"list": {"i": ["1", "1", "1", "1"]}}, "num_args": {"i": "1"}}}, {"name": "PartitionedCall/model_31/tf.math.sigmoid_57/Sigmoid", "op": "Sigmoid", "input": ["PartitionedCall/model_31/tf.math.add_102/Add"], "attr": {"T": {"type": "DT_FLOAT"}}}, {"name": "PartitionedCall/model_31/tf.math.multiply_267/Mul", "op": "Mul", "input": ["PartitionedCall/model_31/tf.math.add_102/Add", "PartitionedCall/model_31/tf.math.sigmoid_57/Sigmoid"], "attr": {"T": {"type": "DT_FLOAT"}}}, {"name": "PartitionedCall/model_31/tf.concat_6/concat", "op": "ConcatV2", "input": ["PartitionedCall/model_31/tf.strided_slice_8/StridedSlice", "PartitionedCall/model_31/tf.strided_slice_9/StridedSlice", "PartitionedCall/model_31/tf.math.multiply_251/Mul", "PartitionedCall/model_31/tf.math.multiply_259/Mul", "PartitionedCall/model_31/tf.math.multiply_267/Mul", "PartitionedCall/model_31/tf.concat_6/concat/axis"], "attr": {"N": {"i": "5"}, "Tidx": {"type": "DT_INT32"}, "T": {"type": "DT_FLOAT"}}}, {"name": "PartitionedCall/model_31/tf.math.add_103/Add", "op": "_FusedConv2D", "input": ["PartitionedCall/model_31/tf.concat_6/concat", "21802", "21804"], "device": "/device:CPU:0", "attr": {"explicit_paddings": {"list": {}}, "data_format": {"s": "TkhXQw=="}, "padding": {"s": "U0FNRQ=="}, "T": {"type": "DT_FLOAT"}, "num_host_args": {"i": "0"}, "TArgs": {"list": {"type": ["DT_FLOAT"]}}, "dilations": {"list": {"i": ["1", "1", "1", "1"]}}, "fused_ops": {"list": {"s": ["Qmlhc0FkZA=="]}}, "strides": {"list": {"i": ["1", "1", "1", "1"]}}, "num_args": {"i": "1"}, "filter_format": {"s": "SFdJTw=="}, "use_cudnn_on_gpu": {"b": true}, "leakyrelu_alpha": {"f": 0.2}, "epsilon": {"f": 0.0}}}, {"name": "PartitionedCall/model_31/tf.math.sigmoid_58/Sigmoid", "op": "Sigmoid", "input": ["PartitionedCall/model_31/tf.math.add_103/Add"], "attr": {"T": {"type": "DT_FLOAT"}}}, {"name": "PartitionedCall/model_31/tf.math.multiply_271/Mul", "op": "Mul", "input": ["PartitionedCall/model_31/tf.math.add_103/Add", "PartitionedCall/model_31/tf.math.sigmoid_58/Sigmoid"], "attr": {"T": {"type": "DT_FLOAT"}}}, {"name": "PartitionedCall/model_31/tf.compat.v1.image.resize_nearest_neighbor_1/ResizeNearestNeighbor", "op": "ResizeNearestNeighbor", "input": ["PartitionedCall/model_31/tf.math.multiply_271/Mul", "PartitionedCall/model_31/tf.compat.v1.image.resize_nearest_neighbor_1/ResizeNearestNeighbor/size"], "attr": {"T": {"type": "DT_FLOAT"}, "half_pixel_centers": {"b": false}, "align_corners": {"b": false}}}, {"name": "PartitionedCall/model_31/tf.concat_7/concat", "op": "ConcatV2", "input": ["PartitionedCall/model_31/tf.compat.v1.image.resize_nearest_neighbor_1/ResizeNearestNeighbor", "PartitionedCall/model_31/tf.math.multiply_117/Mul", "PartitionedCall/model_31/tf.concat_7/concat/axis"], "attr": {"T": {"type": "DT_FLOAT"}, "Tidx": {"type": "DT_INT32"}, "N": {"i": "2"}}}, {"name": "PartitionedCall/model_31/tf.math.add_104/Add", "op": "_FusedConv2D", "input": ["PartitionedCall/model_31/tf.concat_7/concat", "21806", "21808"], "device": "/device:CPU:0", "attr": {"fused_ops": {"list": {"s": ["Qmlhc0FkZA=="]}}, "strides": {"list": {"i": ["1", "1", "1", "1"]}}, "T": {"type": "DT_FLOAT"}, "padding": {"s": "U0FNRQ=="}, "explicit_paddings": {"list": {}}, "dilations": {"list": {"i": ["1", "1", "1", "1"]}}, "leakyrelu_alpha": {"f": 0.2}, "data_format": {"s": "TkhXQw=="}, "filter_format": {"s": "SFdJTw=="}, "num_host_args": {"i": "0"}, "num_args": {"i": "1"}, "use_cudnn_on_gpu": {"b": true}, "epsilon": {"f": 0.0}, "TArgs": {"list": {"type": ["DT_FLOAT"]}}}}, {"name": "PartitionedCall/model_31/tf.math.sigmoid_59/Sigmoid", "op": "Sigmoid", "input": ["PartitionedCall/model_31/tf.math.add_104/Add"], "attr": {"T": {"type": "DT_FLOAT"}}}, {"name": "PartitionedCall/model_31/tf.math.multiply_275/Mul", "op": "Mul", "input": ["PartitionedCall/model_31/tf.math.add_104/Add", "PartitionedCall/model_31/tf.math.sigmoid_59/Sigmoid"], "attr": {"T": {"type": "DT_FLOAT"}}}, {"name": "PartitionedCall/model_31/tf.strided_slice_10/StridedSlice", "op": "StridedSlice", "input": ["PartitionedCall/model_31/tf.math.multiply_275/Mul", "21838", "21840", "PartitionedCall/model_31/tf.strided_slice_10/ones_like"], "attr": {"T": {"type": "DT_FLOAT"}, "shrink_axis_mask": {"i": "0"}, "Index": {"type": "DT_INT64"}, "new_axis_mask": {"i": "0"}, "begin_mask": {"i": "15"}, "ellipsis_mask": {"i": "0"}, "end_mask": {"i": "7"}}}, {"name": "PartitionedCall/model_31/tf.strided_slice_11/StridedSlice", "op": "StridedSlice", "input": ["PartitionedCall/model_31/tf.math.multiply_275/Mul", "21810", "21812", "PartitionedCall/model_31/tf.strided_slice_11/ones_like"], "attr": {"Index": {"type": "DT_INT64"}, "ellipsis_mask": {"i": "0"}, "new_axis_mask": {"i": "0"}, "shrink_axis_mask": {"i": "0"}, "begin_mask": {"i": "7"}, "end_mask": {"i": "7"}, "T": {"type": "DT_FLOAT"}}}, {"name": "PartitionedCall/model_31/tf.math.add_105/Add", "op": "_FusedConv2D", "input": ["PartitionedCall/model_31/tf.strided_slice_11/StridedSlice", "21814", "21816"], "device": "/device:CPU:0", "attr": {"use_cudnn_on_gpu": {"b": true}, "explicit_paddings": {"list": {}}, "fused_ops": {"list": {"s": ["Qmlhc0FkZA=="]}}, "num_args": {"i": "1"}, "dilations": {"list": {"i": ["1", "1", "1", "1"]}}, "data_format": {"s": "TkhXQw=="}, "TArgs": {"list": {"type": ["DT_FLOAT"]}}, "strides": {"list": {"i": ["1", "1", "1", "1"]}}, "padding": {"s": "U0FNRQ=="}, "filter_format": {"s": "SFdJTw=="}, "T": {"type": "DT_FLOAT"}, "num_host_args": {"i": "0"}, "epsilon": {"f": 0.0}, "leakyrelu_alpha": {"f": 0.2}}}, {"name": "PartitionedCall/model_31/tf.math.sigmoid_60/Sigmoid", "op": "Sigmoid", "input": ["PartitionedCall/model_31/tf.math.add_105/Add"], "attr": {"T": {"type": "DT_FLOAT"}}}, {"name": "PartitionedCall/model_31/tf.math.multiply_279/Mul", "op": "Mul", "input": ["PartitionedCall/model_31/tf.math.add_105/Add", "PartitionedCall/model_31/tf.math.sigmoid_60/Sigmoid"], "attr": {"T": {"type": "DT_FLOAT"}}}, {"name": "PartitionedCall/model_31/tf.math.add_106/Add", "op": "_FusedConv2D", "input": ["PartitionedCall/model_31/tf.math.multiply_279/Mul", "21818", "21820"], "device": "/device:CPU:0", "attr": {"num_args": {"i": "1"}, "fused_ops": {"list": {"s": ["Qmlhc0FkZA=="]}}, "epsilon": {"f": 0.0}, "dilations": {"list": {"i": ["1", "1", "1", "1"]}}, "filter_format": {"s": "SFdJTw=="}, "T": {"type": "DT_FLOAT"}, "leakyrelu_alpha": {"f": 0.2}, "data_format": {"s": "TkhXQw=="}, "padding": {"s": "U0FNRQ=="}, "strides": {"list": {"i": ["1", "1", "1", "1"]}}, "use_cudnn_on_gpu": {"b": true}, "explicit_paddings": {"list": {}}, "num_host_args": {"i": "0"}, "TArgs": {"list": {"type": ["DT_FLOAT"]}}}}, {"name": "PartitionedCall/model_31/tf.math.sigmoid_61/Sigmoid", "op": "Sigmoid", "input": ["PartitionedCall/model_31/tf.math.add_106/Add"], "attr": {"T": {"type": "DT_FLOAT"}}}, {"name": "PartitionedCall/model_31/tf.math.multiply_283/Mul", "op": "Mul", "input": ["PartitionedCall/model_31/tf.math.add_106/Add", "PartitionedCall/model_31/tf.math.sigmoid_61/Sigmoid"], "attr": {"T": {"type": "DT_FLOAT"}}}, {"name": "PartitionedCall/model_31/tf.math.add_107/Add", "op": "_FusedConv2D", "input": ["PartitionedCall/model_31/tf.math.multiply_283/Mul", "21822", "21824"], "device": "/device:CPU:0", "attr": {"padding": {"s": "U0FNRQ=="}, "epsilon": {"f": 0.0}, "filter_format": {"s": "SFdJTw=="}, "use_cudnn_on_gpu": {"b": true}, "strides": {"list": {"i": ["1", "1", "1", "1"]}}, "data_format": {"s": "TkhXQw=="}, "leakyrelu_alpha": {"f": 0.2}, "num_host_args": {"i": "0"}, "fused_ops": {"list": {"s": ["Qmlhc0FkZA=="]}}, "dilations": {"list": {"i": ["1", "1", "1", "1"]}}, "explicit_paddings": {"list": {}}, "T": {"type": "DT_FLOAT"}, "num_args": {"i": "1"}, "TArgs": {"list": {"type": ["DT_FLOAT"]}}}}, {"name": "PartitionedCall/model_31/tf.math.sigmoid_62/Sigmoid", "op": "Sigmoid", "input": ["PartitionedCall/model_31/tf.math.add_107/Add"], "attr": {"T": {"type": "DT_FLOAT"}}}, {"name": "PartitionedCall/model_31/tf.math.multiply_287/Mul", "op": "Mul", "input": ["PartitionedCall/model_31/tf.math.add_107/Add", "PartitionedCall/model_31/tf.math.sigmoid_62/Sigmoid"], "attr": {"T": {"type": "DT_FLOAT"}}}, {"name": "PartitionedCall/model_31/tf.math.add_108/Add", "op": "_FusedConv2D", "input": ["PartitionedCall/model_31/tf.math.multiply_287/Mul", "21826", "21828"], "device": "/device:CPU:0", "attr": {"strides": {"list": {"i": ["1", "1", "1", "1"]}}, "data_format": {"s": "TkhXQw=="}, "num_args": {"i": "1"}, "dilations": {"list": {"i": ["1", "1", "1", "1"]}}, "padding": {"s": "U0FNRQ=="}, "use_cudnn_on_gpu": {"b": true}, "epsilon": {"f": 0.0}, "fused_ops": {"list": {"s": ["Qmlhc0FkZA=="]}}, "filter_format": {"s": "SFdJTw=="}, "TArgs": {"list": {"type": ["DT_FLOAT"]}}, "T": {"type": "DT_FLOAT"}, "explicit_paddings": {"list": {}}, "num_host_args": {"i": "0"}, "leakyrelu_alpha": {"f": 0.2}}}, {"name": "PartitionedCall/model_31/tf.math.sigmoid_63/Sigmoid", "op": "Sigmoid", "input": ["PartitionedCall/model_31/tf.math.add_108/Add"], "attr": {"T": {"type": "DT_FLOAT"}}}, {"name": "PartitionedCall/model_31/tf.math.multiply_291/Mul", "op": "Mul", "input": ["PartitionedCall/model_31/tf.math.add_108/Add", "PartitionedCall/model_31/tf.math.sigmoid_63/Sigmoid"], "attr": {"T": {"type": "DT_FLOAT"}}}, {"name": "PartitionedCall/model_31/tf.math.add_109/Add", "op": "_FusedConv2D", "input": ["PartitionedCall/model_31/tf.math.multiply_291/Mul", "21830", "21832"], "device": "/device:CPU:0", "attr": {"filter_format": {"s": "SFdJTw=="}, "dilations": {"list": {"i": ["1", "1", "1", "1"]}}, "num_args": {"i": "1"}, "epsilon": {"f": 0.0}, "strides": {"list": {"i": ["1", "1", "1", "1"]}}, "data_format": {"s": "TkhXQw=="}, "num_host_args": {"i": "0"}, "leakyrelu_alpha": {"f": 0.2}, "fused_ops": {"list": {"s": ["Qmlhc0FkZA=="]}}, "T": {"type": "DT_FLOAT"}, "explicit_paddings": {"list": {}}, "TArgs": {"list": {"type": ["DT_FLOAT"]}}, "use_cudnn_on_gpu": {"b": true}, "padding": {"s": "U0FNRQ=="}}}, {"name": "PartitionedCall/model_31/tf.math.sigmoid_64/Sigmoid", "op": "Sigmoid", "input": ["PartitionedCall/model_31/tf.math.add_109/Add"], "attr": {"T": {"type": "DT_FLOAT"}}}, {"name": "PartitionedCall/model_31/tf.math.multiply_295/Mul", "op": "Mul", "input": ["PartitionedCall/model_31/tf.math.add_109/Add", "PartitionedCall/model_31/tf.math.sigmoid_64/Sigmoid"], "attr": {"T": {"type": "DT_FLOAT"}}}, {"name": "PartitionedCall/model_31/tf.math.add_110/Add", "op": "_FusedConv2D", "input": ["PartitionedCall/model_31/tf.math.multiply_295/Mul", "21834", "21836"], "device": "/device:CPU:0", "attr": {"num_host_args": {"i": "0"}, "padding": {"s": "U0FNRQ=="}, "T": {"type": "DT_FLOAT"}, "TArgs": {"list": {"type": ["DT_FLOAT"]}}, "strides": {"list": {"i": ["1", "1", "1", "1"]}}, "num_args": {"i": "1"}, "explicit_paddings": {"list": {}}, "data_format": {"s": "TkhXQw=="}, "epsilon": {"f": 0.0}, "fused_ops": {"list": {"s": ["Qmlhc0FkZA=="]}}, "filter_format": {"s": "SFdJTw=="}, "dilations": {"list": {"i": ["1", "1", "1", "1"]}}, "use_cudnn_on_gpu": {"b": true}, "leakyrelu_alpha": {"f": 0.2}}}, {"name": "PartitionedCall/model_31/tf.math.sigmoid_65/Sigmoid", "op": "Sigmoid", "input": ["PartitionedCall/model_31/tf.math.add_110/Add"], "attr": {"T": {"type": "DT_FLOAT"}}}, {"name": "PartitionedCall/model_31/tf.math.multiply_299/Mul", "op": "Mul", "input": ["PartitionedCall/model_31/tf.math.add_110/Add", "PartitionedCall/model_31/tf.math.sigmoid_65/Sigmoid"], "attr": {"T": {"type": "DT_FLOAT"}}}, {"name": "PartitionedCall/model_31/tf.concat_8/concat", "op": "ConcatV2", "input": ["PartitionedCall/model_31/tf.strided_slice_10/StridedSlice", "PartitionedCall/model_31/tf.strided_slice_11/StridedSlice", "PartitionedCall/model_31/tf.math.multiply_283/Mul", "PartitionedCall/model_31/tf.math.multiply_291/Mul", "PartitionedCall/model_31/tf.math.multiply_299/Mul", "PartitionedCall/model_31/tf.concat_8/concat/axis"], "attr": {"N": {"i": "5"}, "Tidx": {"type": "DT_INT32"}, "T": {"type": "DT_FLOAT"}}}, {"name": "PartitionedCall/model_31/tf.math.add_111/Add", "op": "_FusedConv2D", "input": ["PartitionedCall/model_31/tf.concat_8/concat", "21842", "21844"], "device": "/device:CPU:0", "attr": {"TArgs": {"list": {"type": ["DT_FLOAT"]}}, "num_host_args": {"i": "0"}, "filter_format": {"s": "SFdJTw=="}, "fused_ops": {"list": {"s": ["Qmlhc0FkZA=="]}}, "data_format": {"s": "TkhXQw=="}, "padding": {"s": "U0FNRQ=="}, "leakyrelu_alpha": {"f": 0.2}, "strides": {"list": {"i": ["1", "1", "1", "1"]}}, "num_args": {"i": "1"}, "explicit_paddings": {"list": {}}, "T": {"type": "DT_FLOAT"}, "dilations": {"list": {"i": ["1", "1", "1", "1"]}}, "epsilon": {"f": 0.0}, "use_cudnn_on_gpu": {"b": true}}}, {"name": "PartitionedCall/model_31/tf.math.sigmoid_66/Sigmoid", "op": "Sigmoid", "input": ["PartitionedCall/model_31/tf.math.add_111/Add"], "attr": {"T": {"type": "DT_FLOAT"}}}, {"name": "PartitionedCall/model_31/tf.math.multiply_303/Mul", "op": "Mul", "input": ["PartitionedCall/model_31/tf.math.add_111/Add", "PartitionedCall/model_31/tf.math.sigmoid_66/Sigmoid"], "attr": {"T": {"type": "DT_FLOAT"}}}, {"name": "PartitionedCall/model_31/tf.math.add_113/Add", "op": "_FusedConv2D", "input": ["PartitionedCall/model_31/tf.math.multiply_303/Mul", "21936", "21940"], "device": "/device:CPU:0", "attr": {"padding": {"s": "U0FNRQ=="}, "filter_format": {"s": "SFdJTw=="}, "epsilon": {"f": 0.0}, "num_args": {"i": "1"}, "num_host_args": {"i": "0"}, "T": {"type": "DT_FLOAT"}, "fused_ops": {"list": {"s": ["Qmlhc0FkZA=="]}}, "dilations": {"list": {"i": ["1", "1", "1", "1"]}}, "TArgs": {"list": {"type": ["DT_FLOAT"]}}, "use_cudnn_on_gpu": {"b": true}, "data_format": {"s": "TkhXQw=="}, "leakyrelu_alpha": {"f": 0.2}, "explicit_paddings": {"list": {}}, "strides": {"list": {"i": ["1", "1", "1", "1"]}}}}, {"name": "PartitionedCall/model_31/tf.math.add_114/Add", "op": "_FusedConv2D", "input": ["PartitionedCall/model_31/tf.math.multiply_303/Mul", "21950", "21960"], "device": "/device:CPU:0", "attr": {"epsilon": {"f": 0.0}, "leakyrelu_alpha": {"f": 0.2}, "fused_ops": {"list": {"s": ["Qmlhc0FkZA=="]}}, "T": {"type": "DT_FLOAT"}, "padding": {"s": "U0FNRQ=="}, "num_args": {"i": "1"}, "num_host_args": {"i": "0"}, "strides": {"list": {"i": ["1", "1", "1", "1"]}}, "explicit_paddings": {"list": {}}, "filter_format": {"s": "SFdJTw=="}, "TArgs": {"list": {"type": ["DT_FLOAT"]}}, "data_format": {"s": "TkhXQw=="}, "dilations": {"list": {"i": ["1", "1", "1", "1"]}}, "use_cudnn_on_gpu": {"b": true}}}, {"name": "PartitionedCall/model_31/tf.compat.v1.pad_5/Pad", "op": "Pad", "input": ["PartitionedCall/model_31/tf.math.multiply_303/Mul", "21846"], "attr": {"Tpaddings": {"type": "DT_INT32"}, "T": {"type": "DT_FLOAT"}}}, {"name": "PartitionedCall/model_31/tf.math.sigmoid_68/Sigmoid", "op": "Sigmoid", "input": ["PartitionedCall/model_31/tf.math.add_113/Add"], "attr": {"T": {"type": "DT_FLOAT"}}}, {"name": "PartitionedCall/model_31/tf.math.sigmoid_69/Sigmoid", "op": "Sigmoid", "input": ["PartitionedCall/model_31/tf.math.add_114/Add"], "attr": {"T": {"type": "DT_FLOAT"}}}, {"name": "PartitionedCall/model_31/tf.math.add_112/Add", "op": "_FusedConv2D", "input": ["PartitionedCall/model_31/tf.compat.v1.pad_5/Pad", "21848", "21850"], "device": "/device:CPU:0", "attr": {"num_args": {"i": "1"}, "use_cudnn_on_gpu": {"b": true}, "TArgs": {"list": {"type": ["DT_FLOAT"]}}, "padding": {"s": "VkFMSUQ="}, "strides": {"list": {"i": ["…
plicit_paddings": {"list": {}}}}, {"name": "PartitionedCall/model_31/tf.math.multiply_359/Mul", "op": "Mul", "input": ["PartitionedCall/model_31/tf.math.add_131/Add", "PartitionedCall/model_31/tf.math.sigmoid_80/Sigmoid"], "attr": {"T": {"type": "DT_FLOAT"}}}, {"name": "PartitionedCall/model_31/tf.math.add_134/Add", "op": "_FusedConv2D", "input": ["PartitionedCall/model_31/tf.math.multiply_363/Mul", "21972", "21982"], "device": "/device:CPU:0", "attr": {"TArgs": {"list": {"type": ["DT_FLOAT"]}}, "use_cudnn_on_gpu": {"b": true}, "fused_ops": {"list": {"s": ["Qmlhc0FkZA=="]}}, "padding": {"s": "U0FNRQ=="}, "num_host_args": {"i": "0"}, "data_format": {"s": "TkhXQw=="}, "leakyrelu_alpha": {"f": 0.2}, "dilations": {"list": {"i": ["1", "1", "1", "1"]}}, "strides": {"list": {"i": ["1", "1", "1", "1"]}}, "num_args": {"i": "1"}, "epsilon": {"f": 0.0}, "filter_format": {"s": "SFdJTw=="}, "explicit_paddings": {"list": {}}, "T": {"type": "DT_FLOAT"}}}, {"name": "PartitionedCall/model_31/tf.math.sigmoid_84/Sigmoid", "op": "Sigmoid", "input": ["PartitionedCall/model_31/tf.math.add_135/Add"], "attr": {"T": {"type": "DT_FLOAT"}}}, {"name": "PartitionedCall/model_31/tf.concat_12/concat", "op": "ConcatV2", "input": ["PartitionedCall/model_31/tf.math.multiply_359/Mul", "PartitionedCall/model_31/tf.math.multiply_239/Mul", "PartitionedCall/model_31/tf.concat_12/concat/axis"], "attr": {"N": {"i": "2"}, "T": {"type": "DT_FLOAT"}, "Tidx": {"type": "DT_INT32"}}}, {"name": "PartitionedCall/model_31/tf.math.sigmoid_83/Sigmoid", "op": "Sigmoid", "input": ["PartitionedCall/model_31/tf.math.add_134/Add"], "attr": {"T": {"type": "DT_FLOAT"}}}, {"name": "PartitionedCall/model_31/tf.math.multiply_375/Mul", "op": "Mul", "input": ["PartitionedCall/model_31/tf.math.add_135/Add", "PartitionedCall/model_31/tf.math.sigmoid_84/Sigmoid"], "attr": {"T": {"type": "DT_FLOAT"}}}, {"name": "PartitionedCall/model_31/tf.math.add_136/Add", "op": "_FusedConv2D", "input": ["PartitionedCall/model_31/tf.concat_12/concat", "21898", "21900"], "device": "/device:CPU:0", "attr": {"TArgs": {"list": {"type": ["DT_FLOAT"]}}, "strides": {"list": {"i": ["1", "1", "1", "1"]}}, "num_args": {"i": "1"}, "epsilon": {"f": 0.0}, "filter_format": {"s": "SFdJTw=="}, "T": {"type": "DT_FLOAT"}, "leakyrelu_alpha": {"f": 0.2}, "dilations": {"list": {"i": ["1", "1", "1", "1"]}}, "use_cudnn_on_gpu": {"b": true}, "fused_ops": {"list": {"s": ["Qmlhc0FkZA=="]}}, "data_format": {"s": "TkhXQw=="}, "padding": {"s": "U0FNRQ=="}, "explicit_paddings": {"list": {}}, "num_host_args": {"i": "0"}}}, {"name": "PartitionedCall/model_31/tf.math.multiply_371/Mul", "op": "Mul", "input": ["PartitionedCall/model_31/tf.math.add_134/Add", "PartitionedCall/model_31/tf.math.sigmoid_83/Sigmoid"], "attr": {"T": {"type": "DT_FLOAT"}}}, {"name": "PartitionedCall/model_31/tf.math.add_138/Add", "op": "_FusedConv2D", "input": ["PartitionedCall/model_31/tf.math.multiply_375/Mul", "21990", "22004"], "device": "/device:CPU:0", "attr": {"leakyrelu_alpha": {"f": 0.2}, "data_format": {"s": "TkhXQw=="}, "padding": {"s": "U0FNRQ=="}, "strides": {"list": {"i": ["1", "1", "1", "1"]}}, "num_host_args": {"i": "0"}, "num_args": {"i": "1"}, "TArgs": {"list": {"type": ["DT_FLOAT"]}}, "dilations": {"list": {"i": ["1", "1", "1", "1"]}}, "use_cudnn_on_gpu": {"b": true}, "epsilon": {"f": 0.0}, "filter_format": {"s": "SFdJTw=="}, "explicit_paddings": {"list": {}}, "fused_ops": {"list": {"s": ["Qmlhc0FkZA=="]}}, "T": {"type": "DT_FLOAT"}}}, {"name": "PartitionedCall/model_31/tf.math.sigmoid_85/Sigmoid", "op": "Sigmoid", "input": ["PartitionedCall/model_31/tf.math.add_136/Add"], "attr": {"T": {"type": "DT_FLOAT"}}}, {"name": "PartitionedCall/model_31/tf.math.add_137/Add", "op": "_FusedConv2D", "input": ["PartitionedCall/model_31/tf.math.multiply_371/Mul", "21992", "22002"], "device": "/device:CPU:0", "attr": {"strides": {"list": {"i": ["1", "1", "1", "1"]}}, "num_host_args": {"i": "0"}, "leakyrelu_alpha": {"f": 0.2}, "T": {"type": "DT_FLOAT"}, "explicit_paddings": {"list": {}}, "data_format": {"s": "TkhXQw=="}, "padding": {"s": "U0FNRQ=="}, "filter_format": {"s": "SFdJTw=="}, "epsilon": {"f": 0.0}, "TArgs": {"list": {"type": ["DT_FLOAT"]}}, "use_cudnn_on_gpu": {"b": true}, "dilations": {"list": {"i": ["1", "1", "1", "1"]}}, "fused_ops": {"list": {"s": ["Qmlhc0FkZA=="]}}, "num_args": {"i": "1"}}}, {"name": "PartitionedCall/model_31/tf.math.multiply_379/Mul", "op": "Mul", "input": ["PartitionedCall/model_31/tf.math.add_136/Add", "PartitionedCall/model_31/tf.math.sigmoid_85/Sigmoid"], "attr": {"T": {"type": "DT_FLOAT"}}}, {"name": "PartitionedCall/model_31/tf.concat_13/concat", "op": "ConcatV2", "input": ["PartitionedCall/model_31/tf.math.add_137/Add", "PartitionedCall/model_31/tf.math.add_138/Add", "PartitionedCall/model_31/tf.concat_13/concat/axis"], "attr": {"N": {"i": "2"}, "T": {"type": "DT_FLOAT"}, "Tidx": {"type": "DT_INT32"}}}, {"name": "PartitionedCall/model_31/tf.strided_slice_14/StridedSlice", "op": "StridedSlice", "input": ["PartitionedCall/model_31/tf.math.multiply_379/Mul", "21930", "21932", "PartitionedCall/model_31/tf.strided_slice_14/ones_like"], "attr": {"end_mask": {"i": "7"}, "T": {"type": "DT_FLOAT"}, "ellipsis_mask": {"i": "0"}, "new_axis_mask": {"i": "0"}, "begin_mask": {"i": "15"}, "Index": {"type": "DT_INT64"}, "shrink_axis_mask": {"i": "0"}}}, {"name": "PartitionedCall/model_31/tf.strided_slice_15/StridedSlice", "op": "StridedSlice", "input": ["PartitionedCall/model_31/tf.math.multiply_379/Mul", "21902", "21904", "PartitionedCall/model_31/tf.strided_slice_15/ones_like"], "attr": {"begin_mask": {"i": "7"}, "ellipsis_mask": {"i": "0"}, "T": {"type": "DT_FLOAT"}, "new_axis_mask": {"i": "0"}, "end_mask": {"i": "7"}, "shrink_axis_mask": {"i": "0"}, "Index": {"type": "DT_INT64"}}}, {"name": "PartitionedCall/model_31/tf.compat.v1.transpose_21/transpose", "op": "Transpose", "input": ["PartitionedCall/model_31/tf.concat_13/concat", "PartitionedCall/model_31/tf.compat.v1.transpose_21/transpose/perm"], "attr": {"T": {"type": "DT_FLOAT"}, "Tperm": {"type": "DT_INT32"}}}, {"name": "PartitionedCall/model_31/tf.math.add_139/Add", "op": "_FusedConv2D", "input": ["PartitionedCall/model_31/tf.strided_slice_15/StridedSlice", "21906", "21908"], "device": "/device:CPU:0", "attr": {"strides": {"list": {"i": ["1", "1", "1", "1"]}}, "padding": {"s": "U0FNRQ=="}, "leakyrelu_alpha": {"f": 0.2}, "epsilon": {"f": 0.0}, "dilations": {"list": {"i": ["1", "1", "1", "1"]}}, "num_args": {"i": "1"}, "TArgs": {"list": {"type": ["DT_FLOAT"]}}, "use_cudnn_on_gpu": {"b": true}, "explicit_paddings": {"list": {}}, "data_format": {"s": "TkhXQw=="}, "filter_format": {"s": "SFdJTw=="}, "T": {"type": "DT_FLOAT"}, "num_host_args": {"i": "0"}, "fused_ops": {"list": {"s": ["Qmlhc0FkZA=="]}}}}, {"name": "PartitionedCall/model_31/tf.reshape_5/Reshape", "op": "Reshape", "input": ["PartitionedCall/model_31/tf.compat.v1.transpose_21/transpose", "PartitionedCall/model_31/tf.reshape_5/Reshape/shape"], "attr": {"Tshape": {"type": "DT_INT32"}, "T": {"type": "DT_FLOAT"}}}, {"name": "PartitionedCall/model_31/tf.math.sigmoid_86/Sigmoid", "op": "Sigmoid", "input": ["PartitionedCall/model_31/tf.math.add_139/Add"], "attr": {"T": {"type": "DT_FLOAT"}}}, {"name": "PartitionedCall/model_31/tf.math.multiply_383/Mul", "op": "Mul", "input": ["PartitionedCall/model_31/tf.math.add_139/Add", "PartitionedCall/model_31/tf.math.sigmoid_86/Sigmoid"], "attr": {"T": {"type": "DT_FLOAT"}}}, {"name": "PartitionedCall/model_31/tf.math.add_140/Add", "op": "_FusedConv2D", "input": ["PartitionedCall/model_31/tf.math.multiply_383/Mul", "21910", "21912"], "device": "/device:CPU:0", "attr": {"dilations": {"list": {"i": ["1", "1", "1", "1"]}}, "use_cudnn_on_gpu": {"b": true}, "leakyrelu_alpha": {"f": 0.2}, "data_format": {"s": "TkhXQw=="}, "fused_ops": {"list": {"s": ["Qmlhc0FkZA=="]}}, "epsilon": {"f": 0.0}, "explicit_paddings": {"list": {}}, "TArgs": {"list": {"type": ["DT_FLOAT"]}}, "padding": {"s": "U0FNRQ=="}, "strides": {"list": {"i": ["1", "1", "1", "1"]}}, "filter_format": {"s": "SFdJTw=="}, "T": {"type": "DT_FLOAT"}, "num_host_args": {"i": "0"}, "num_args": {"i": "1"}}}, {"name": "PartitionedCall/model_31/tf.math.sigmoid_87/Sigmoid", "op": "Sigmoid", "input": ["PartitionedCall/model_31/tf.math.add_140/Add"], "attr": {"T": {"type": "DT_FLOAT"}}}, {"name": "PartitionedCall/model_31/tf.math.multiply_387/Mul", "op": "Mul", "input": ["PartitionedCall/model_31/tf.math.add_140/Add", "PartitionedCall/model_31/tf.math.sigmoid_87/Sigmoid"], "attr": {"T": {"type": "DT_FLOAT"}}}, {"name": "PartitionedCall/model_31/tf.math.add_141/Add", "op": "_FusedConv2D", "input": ["PartitionedCall/model_31/tf.math.multiply_387/Mul", "21914", "21916"], "device": "/device:CPU:0", "attr": {"padding": {"s": "U0FNRQ=="}, "explicit_paddings": {"list": {}}, "strides": {"list": {"i": ["1", "1", "1", "1"]}}, "data_format": {"s": "TkhXQw=="}, "use_cudnn_on_gpu": {"b": true}, "leakyrelu_alpha": {"f": 0.2}, "num_args": {"i": "1"}, "filter_format": {"s": "SFdJTw=="}, "T": {"type": "DT_FLOAT"}, "num_host_args": {"i": "0"}, "fused_ops": {"list": {"s": ["Qmlhc0FkZA=="]}}, "dilations": {"list": {"i": ["1", "1", "1", "1"]}}, "TArgs": {"list": {"type": ["DT_FLOAT"]}}, "epsilon": {"f": 0.0}}}, {"name": "PartitionedCall/model_31/tf.math.sigmoid_88/Sigmoid", "op": "Sigmoid", "input": ["PartitionedCall/model_31/tf.math.add_141/Add"], "attr": {"T": {"type": "DT_FLOAT"}}}, {"name": "PartitionedCall/model_31/tf.math.multiply_391/Mul", "op": "Mul", "input": ["PartitionedCall/model_31/tf.math.add_141/Add", "PartitionedCall/model_31/tf.math.sigmoid_88/Sigmoid"], "attr": {"T": {"type": "DT_FLOAT"}}}, {"name": "PartitionedCall/model_31/tf.math.add_142/Add", "op": "_FusedConv2D", "input": ["PartitionedCall/model_31/tf.math.multiply_391/Mul", "21918", "21920"], "device": "/device:CPU:0", "attr": {"T": {"type": "DT_FLOAT"}, "dilations": {"list": {"i": ["1", "1", "1", "1"]}}, "num_host_args": {"i": "0"}, "explicit_paddings": {"list": {}}, "padding": {"s": "U0FNRQ=="}, "num_args": {"i": "1"}, "filter_format": {"s": "SFdJTw=="}, "epsilon": {"f": 0.0}, "strides": {"list": {"i": ["1", "1", "1", "1"]}}, "TArgs": {"list": {"type": ["DT_FLOAT"]}}, "data_format": {"s": "TkhXQw=="}, "leakyrelu_alpha": {"f": 0.2}, "use_cudnn_on_gpu": {"b": true}, "fused_ops": {"list": {"s": ["Qmlhc0FkZA=="]}}}}, {"name": "PartitionedCall/model_31/tf.math.sigmoid_89/Sigmoid", "op": "Sigmoid", "input": ["PartitionedCall/model_31/tf.math.add_142/Add"], "attr": {"T": {"type": "DT_FLOAT"}}}, {"name": "PartitionedCall/model_31/tf.math.multiply_395/Mul", "op": "Mul", "input": ["PartitionedCall/model_31/tf.math.add_142/Add", "PartitionedCall/model_31/tf.math.sigmoid_89/Sigmoid"], "attr": {"T": {"type": "DT_FLOAT"}}}, {"name": "PartitionedCall/model_31/tf.math.add_143/Add", "op": "_FusedConv2D", "input": ["PartitionedCall/model_31/tf.math.multiply_395/Mul", "21922", "21924"], "device": "/device:CPU:0", "attr": {"num_args": {"i": "1"}, "strides": {"list": {"i": ["1", "1", "1", "1"]}}, "TArgs": {"list": {"type": ["DT_FLOAT"]}}, "num_host_args": {"i": "0"}, "use_cudnn_on_gpu": {"b": true}, "data_format": {"s": "TkhXQw=="}, "dilations": {"list": {"i": ["1", "1", "1", "1"]}}, "fused_ops": {"list": {"s": ["Qmlhc0FkZA=="]}}, "epsilon": {"f": 0.0}, "explicit_paddings": {"list": {}}, "padding": {"s": "U0FNRQ=="}, "T": {"type": "DT_FLOAT"}, "leakyrelu_alpha": {"f": 0.2}, "filter_format": {"s": "SFdJTw=="}}}, {"name": "PartitionedCall/model_31/tf.math.sigmoid_90/Sigmoid", "op": "Sigmoid", "input": ["PartitionedCall/model_31/tf.math.add_143/Add"], "attr": {"T": {"type": "DT_FLOAT"}}}, {"name": "PartitionedCall/model_31/tf.math.multiply_399/Mul", "op": "Mul", "input": ["PartitionedCall/model_31/tf.math.add_143/Add", "PartitionedCall/model_31/tf.math.sigmoid_90/Sigmoid"], "attr": {"T": {"type": "DT_FLOAT"}}}, {"name": "PartitionedCall/model_31/tf.math.add_144/Add", "op": "_FusedConv2D", "input": ["PartitionedCall/model_31/tf.math.multiply_399/Mul", "21926", "21928"], "device": "/device:CPU:0", "attr": {"num_host_args": {"i": "0"}, "use_cudnn_on_gpu": {"b": true}, "num_args": {"i": "1"}, "T": {"type": "DT_FLOAT"}, "filter_format": {"s": "SFdJTw=="}, "strides": {"list": {"i": ["1", "1", "1", "1"]}}, "padding": {"s": "U0FNRQ=="}, "fused_ops": {"list": {"s": ["Qmlhc0FkZA=="]}}, "data_format": {"s": "TkhXQw=="}, "dilations": {"list": {"i": ["1", "1", "1", "1"]}}, "leakyrelu_alpha": {"f": 0.2}, "TArgs": {"list": {"type": ["DT_FLOAT"]}}, "epsilon": {"f": 0.0}, "explicit_paddings": {"list": {}}}}, {"name": "PartitionedCall/model_31/tf.math.sigmoid_91/Sigmoid", "op": "Sigmoid", "input": ["PartitionedCall/model_31/tf.math.add_144/Add"], "attr": {"T": {"type": "DT_FLOAT"}}}, {"name": "PartitionedCall/model_31/tf.math.multiply_403/Mul", "op": "Mul", "input": ["PartitionedCall/model_31/tf.math.add_144/Add", "PartitionedCall/model_31/tf.math.sigmoid_91/Sigmoid"], "attr": {"T": {"type": "DT_FLOAT"}}}, {"name": "PartitionedCall/model_31/tf.concat_14/concat", "op": "ConcatV2", "input": ["PartitionedCall/model_31/tf.strided_slice_14/StridedSlice", "PartitionedCall/model_31/tf.strided_slice_15/StridedSlice", "PartitionedCall/model_31/tf.math.multiply_387/Mul", "PartitionedCall/model_31/tf.math.multiply_395/Mul", "PartitionedCall/model_31/tf.math.multiply_403/Mul", "PartitionedCall/model_31/tf.concat_14/concat/axis"], "attr": {"N": {"i": "5"}, "Tidx": {"type": "DT_INT32"}, "T": {"type": "DT_FLOAT"}}}, {"name": "PartitionedCall/model_31/tf.math.add_145/Add", "op": "_FusedConv2D", "input": ["PartitionedCall/model_31/tf.concat_14/concat", "21934", "21938"], "device": "/device:CPU:0", "attr": {"dilations": {"list": {"i": ["1", "1", "1", "1"]}}, "leakyrelu_alpha": {"f": 0.2}, "num_host_args": {"i": "0"}, "use_cudnn_on_gpu": {"b": true}, "T": {"type": "DT_FLOAT"}, "epsilon": {"f": 0.0}, "data_format": {"s": "TkhXQw=="}, "padding": {"s": "U0FNRQ=="}, "TArgs": {"list": {"type": ["DT_FLOAT"]}}, "strides": {"list": {"i": ["1", "1", "1", "1"]}}, "filter_format": {"s": "SFdJTw=="}, "fused_ops": {"list": {"s": ["Qmlhc0FkZA=="]}}, "num_args": {"i": "1"}, "explicit_paddings": {"list": {}}}}, {"name": "PartitionedCall/model_31/tf.math.sigmoid_92/Sigmoid", "op": "Sigmoid", "input": ["PartitionedCall/model_31/tf.math.add_145/Add"], "attr": {"T": {"type": "DT_FLOAT"}}}, {"name": "PartitionedCall/model_31/tf.math.multiply_407/Mul", "op": "Mul", "input": ["PartitionedCall/model_31/tf.math.add_145/Add", "PartitionedCall/model_31/tf.math.sigmoid_92/Sigmoid"], "attr": {"T": {"type": "DT_FLOAT"}}}, {"name": "PartitionedCall/model_31/tf.math.add_146/Add", "op": "_FusedConv2D", "input": ["PartitionedCall/model_31/tf.math.multiply_407/Mul", "21944", "21954"], "device": "/device:CPU:0", "attr": {"fused_ops": {"list": {"s": ["Qmlhc0FkZA=="]}}, "data_format": {"s": "TkhXQw=="}, "strides": {"list": {"i": ["1", "1", "1", "1"]}}, "num_host_args": {"i": "0"}, "dilations": {"list": {"i": ["1", "1", "1", "1"]}}, "epsilon": {"f": 0.0}, "padding": {"s": "U0FNRQ=="}, "TArgs": {"list": {"type": ["DT_FLOAT"]}}, "filter_format": {"s": "SFdJTw=="}, "leakyrelu_alpha": {"f": 0.2}, "num_args": {"i": "1"}, "use_cudnn_on_gpu": {"b": true}, "explicit_paddings": {"list": {}}, "T": {"type": "DT_FLOAT"}}}, {"name": "PartitionedCall/model_31/tf.math.add_147/Add", "op": "_FusedConv2D", "input": ["PartitionedCall/model_31/tf.math.multiply_407/Mul", "21942", "21952"], "device": "/device:CPU:0", "attr": {"num_host_args": {"i": "0"}, "dilations": {"list": {"i": ["1", "1", "1", "1"]}}, "fused_ops": {"list": {"s": ["Qmlhc0FkZA=="]}}, "data_format": {"s": "TkhXQw=="}, "padding": {"s": "U0FNRQ=="}, "use_cudnn_on_gpu": {"b": true}, "strides": {"list": {"i": ["1", "1", "1", "1"]}}, "explicit_paddings": {"list": {}}, "leakyrelu_alpha": {"f": 0.2}, "T": {"type": "DT_FLOAT"}, "TArgs": {"list": {"type": ["DT_FLOAT"]}}, "filter_format": {"s": "SFdJTw=="}, "num_args": {"i": "1"}, "epsilon": {"f": 0.0}}}, {"name": "PartitionedCall/model_31/tf.math.sigmoid_93/Sigmoid", "op": "Sigmoid", "input": ["PartitionedCall/model_31/tf.math.add_146/Add"], "attr": {"T": {"type": "DT_FLOAT"}}}, {"name": "PartitionedCall/model_31/tf.math.sigmoid_94/Sigmoid", "op": "Sigmoid", "input": ["PartitionedCall/model_31/tf.math.add_147/Add"], "attr": {"T": {"type": "DT_FLOAT"}}}, {"name": "PartitionedCall/model_31/tf.math.multiply_411/Mul", "op": "Mul", "input": ["PartitionedCall/model_31/tf.math.add_146/Add", "PartitionedCall/model_31/tf.math.sigmoid_93/Sigmoid"], "attr": {"T": {"type": "DT_FLOAT"}}}, {"name": "PartitionedCall/model_31/tf.math.multiply_415/Mul", "op": "Mul", "input": ["PartitionedCall/model_31/tf.math.add_147/Add", "PartitionedCall/model_31/tf.math.sigmoid_94/Sigmoid"], "attr": {"T": {"type": "DT_FLOAT"}}}, {"name": "PartitionedCall/model_31/tf.math.add_148/Add", "op": "_FusedConv2D", "input": ["PartitionedCall/model_31/tf.math.multiply_411/Mul", "21968", "21978"], "device": "/device:CPU:0", "attr": {"data_format": {"s": "TkhXQw=="}, "strides": {"list": {"i": ["1", "1", "1", "1"]}}, "num_host_args": {"i": "0"}, "explicit_paddings": {"list": {}}, "filter_format": {"s": "SFdJTw=="}, "leakyrelu_alpha": {"f": 0.2}, "epsilon": {"f": 0.0}, "use_cudnn_on_gpu": {"b": true}, "TArgs": {"list": {"type": ["DT_FLOAT"]}}, "T": {"type": "DT_FLOAT"}, "padding": {"s": "U0FNRQ=="}, "dilations": {"list": {"i": ["1", "1", "1", "1"]}}, "num_args": {"i": "1"}, "fused_ops": {"list": {"s": ["Qmlhc0FkZA=="]}}}}, {"name": "PartitionedCall/model_31/tf.math.add_149/Add", "op": "_FusedConv2D", "input": ["PartitionedCall/model_31/tf.math.multiply_415/Mul", "21966", "21976"], "device": "/device:CPU:0", "attr": {"dilations": {"list": {"i": ["1", "1", "1", "1"]}}, "fused_ops": {"list": {"s": ["Qmlhc0FkZA=="]}}, "T": {"type": "DT_FLOAT"}, "num_host_args": {"i": "0"}, "data_format": {"s": "TkhXQw=="}, "TArgs": {"list": {"type": ["DT_FLOAT"]}}, "use_cudnn_on_gpu": {"b": true}, "filter_format": {"s": "SFdJTw=="}, "leakyrelu_alpha": {"f": 0.2}, "epsilon": {"f": 0.0}, "padding": {"s": "U0FNRQ=="}, "strides": {"list": {"i": ["1", "1", "1", "1"]}}, "num_args": {"i": "1"}, "explicit_paddings": {"list": {}}}}, {"name": "PartitionedCall/model_31/tf.math.sigmoid_95/Sigmoid", "op": "Sigmoid", "input": ["PartitionedCall/model_31/tf.math.add_148/Add"], "attr": {"T": {"type": "DT_FLOAT"}}}, {"name": "PartitionedCall/model_31/tf.math.sigmoid_96/Sigmoid", "op": "Sigmoid", "input": ["PartitionedCall/model_31/tf.math.add_149/Add"], "attr": {"T": {"type": "DT_FLOAT"}}}, {"name": "PartitionedCall/model_31/tf.math.multiply_419/Mul", "op": "Mul", "input": ["PartitionedCall/model_31/tf.math.add_148/Add", "PartitionedCall/model_31/tf.math.sigmoid_95/Sigmoid"], "attr": {"T": {"type": "DT_FLOAT"}}}, {"name": "PartitionedCall/model_31/tf.math.multiply_423/Mul", "op": "Mul", "input": ["PartitionedCall/model_31/tf.math.add_149/Add", "PartitionedCall/model_31/tf.math.sigmoid_96/Sigmoid"], "attr": {"T": {"type": "DT_FLOAT"}}}, {"name": "PartitionedCall/model_31/tf.math.add_150/Add", "op": "_FusedConv2D", "input": ["PartitionedCall/model_31/tf.math.multiply_419/Mul", "21988", "21998"], "device": "/device:CPU:0", "attr": {"epsilon": {"f": 0.0}, "explicit_paddings": {"list": {}}, "leakyrelu_alpha": {"f": 0.2}, "use_cudnn_on_gpu": {"b": true}, "TArgs": {"list": {"type": ["DT_FLOAT"]}}, "filter_format": {"s": "SFdJTw=="}, "padding": {"s": "U0FNRQ=="}, "data_format": {"s": "TkhXQw=="}, "num_args": {"i": "1"}, "T": {"type": "DT_FLOAT"}, "strides": {"list": {"i": ["1", "1", "1", "1"]}}, "fused_ops": {"list": {"s": ["Qmlhc0FkZA=="]}}, "dilations": {"list": {"i": ["1", "1", "1", "1"]}}, "num_host_args": {"i": "0"}}}, {"name": "PartitionedCall/model_31/tf.math.add_151/Add", "op": "_FusedConv2D", "input": ["PartitionedCall/model_31/tf.math.multiply_423/Mul", "21986", "22000"], "device": "/device:CPU:0", "attr": {"epsilon": {"f": 0.0}, "num_args": {"i": "1"}, "strides": {"list": {"i": ["1", "1", "1", "1"]}}, "T": {"type": "DT_FLOAT"}, "use_cudnn_on_gpu": {"b": true}, "TArgs": {"list": {"type": ["DT_FLOAT"]}}, "num_host_args": {"i": "0"}, "dilations": {"list": {"i": ["1", "1", "1", "1"]}}, "leakyrelu_alpha": {"f": 0.2}, "fused_ops": {"list": {"s": ["Qmlhc0FkZA=="]}}, "filter_format": {"s": "SFdJTw=="}, "padding": {"s": "U0FNRQ=="}, "data_format": {"s": "TkhXQw=="}, "explicit_paddings": {"list": {}}}}, {"name": "PartitionedCall/model_31/tf.concat_15/concat", "op": "ConcatV2", "input": ["PartitionedCall/model_31/tf.math.add_150/Add", "PartitionedCall/model_31/tf.math.add_151/Add", "PartitionedCall/model_31/tf.concat_15/concat/axis"], "attr": {"T": {"type": "DT_FLOAT"}, "Tidx": {"type": "DT_INT32"}, "N": {"i": "2"}}}, {"name": "PartitionedCall/model_31/tf.compat.v1.transpose_26/transpose", "op": "Transpose", "input": ["PartitionedCall/model_31/tf.concat_15/concat", "PartitionedCall/model_31/tf.compat.v1.transpose_26/transpose/perm"], "attr": {"Tperm": {"type": "DT_INT32"}, "T": {"type": "DT_FLOAT"}}}, {"name": "PartitionedCall/model_31/tf.reshape_8/Reshape", "op": "Reshape", "input": ["PartitionedCall/model_31/tf.compat.v1.transpose_26/transpose", "PartitionedCall/model_31/tf.reshape_8/Reshape/shape"], "attr": {"Tshape": {"type": "DT_INT32"}, "T": {"type": "DT_FLOAT"}}}, {"name": "PartitionedCall/model_31/tf.concat_16/concat", "op": "ConcatV2", "input": ["PartitionedCall/model_31/tf.reshape_2/Reshape", "PartitionedCall/model_31/tf.reshape_5/Reshape", "PartitionedCall/model_31/tf.reshape_8/Reshape", "PartitionedCall/model_31/tf.concat_16/concat/axis"], "attr": {"N": {"i": "3"}, "Tidx": {"type": "DT_INT32"}, "T": {"type": "DT_FLOAT"}}}, {"name": "PartitionedCall/model_31/tf.strided_slice_17/StridedSlice", "op": "StridedSlice", "input": ["PartitionedCall/model_31/tf.concat_16/concat", "22030", "22032", "PartitionedCall/model_31/tf.strided_slice_17/StridedSlice/strides"], "attr": {"shrink_axis_mask": {"i": "0"}, "begin_mask": {"i": "5"}, "T": {"type": "DT_FLOAT"}, "ellipsis_mask": {"i": "0"}, "end_mask": {"i": "5"}, "new_axis_mask": {"i": "0"}, "Index": {"type": "DT_INT64"}}}, {"name": "PartitionedCall/model_31/tf.strided_slice_16/StridedSlice", "op": "StridedSlice", "input": ["PartitionedCall/model_31/tf.concat_16/concat", "22010", "22012", "PartitionedCall/model_31/tf.strided_slice_16/StridedSlice/strides"], "attr": {"ellipsis_mask": {"i": "0"}, "Index": {"type": "DT_INT64"}, "new_axis_mask": {"i": "0"}, "end_mask": {"i": "5"}, "shrink_axis_mask": {"i": "0"}, "T": {"type": "DT_FLOAT"}, "begin_mask": {"i": "7"}}}, {"name": "PartitionedCall/model_31/tf.math.sigmoid_97/Sigmoid", "op": "Sigmoid", "input": ["PartitionedCall/model_31/tf.strided_slice_17/StridedSlice"], "attr": {"T": {"type": "DT_FLOAT"}}}, {"name": "PartitionedCall/model_31/tf.reshape_11/Reshape", "op": "Reshape", "input": ["PartitionedCall/model_31/tf.strided_slice_16/StridedSlice", "PartitionedCall/model_31/tf.reshape_11/Reshape/shape"], "attr": {"Tshape": {"type": "DT_INT32"}, "T": {"type": "DT_FLOAT"}}}, {"name": "PartitionedCall/model_31/tf.compat.v1.transpose_33/transpose", "op": "Transpose", "input": ["PartitionedCall/model_31/tf.reshape_11/Reshape", "PartitionedCall/model_31/tf.compat.v1.transpose_33/transpose/perm"], "attr": {"T": {"type": "DT_FLOAT"}, "Tperm": {"type": "DT_INT32"}}}, {"name": "PartitionedCall/model_31/tf.compat.v1.transpose_34/transpose", "op": "Transpose", "input": ["PartitionedCall/model_31/tf.compat.v1.transpose_33/transpose", "PartitionedCall/model_31/tf.compat.v1.transpose_34/transpose/perm"], "attr": {"Tperm": {"type": "DT_INT32"}, "T": {"type": "DT_FLOAT"}}}, {"name": "PartitionedCall/model_31/tf.nn.softmax//model.22/dfl/Softmax", "op": "Softmax", "input": ["PartitionedCall/model_31/tf.compat.v1.transpose_34/transpose"], "attr": {"T": {"type": "DT_FLOAT"}}}, {"name": "PartitionedCall/model_31/tf.nn.convolution_116/convolution", "op": "Conv2D", "input": ["PartitionedCall/model_31/tf.nn.softmax//model.22/dfl/Softmax", "22014"], "device": "/device:CPU:0", "attr": {"explicit_paddings": {"list": {}}, "strides": {"list": {"i": ["1", "1", "1", "1"]}}, "dilations": {"list": {"i": ["1", "1", "1", "1"]}}, "padding": {"s": "U0FNRQ=="}, "use_cudnn_on_gpu": {"b": true}, "data_format": {"s": "TkhXQw=="}, "T": {"type": "DT_FLOAT"}}}, {"name": "PartitionedCall/model_31/tf.compat.v1.transpose_39/transpose", "op": "Transpose", "input": ["PartitionedCall/model_31/tf.nn.convolution_116/convolution", "PartitionedCall/model_31/tf.compat.v1.transpose_39/transpose/perm"], "attr": {"Tperm": {"type": "DT_INT32"}, "T": {"type": "DT_FLOAT"}}}, {"name": "PartitionedCall/model_31/tf.reshape_14/Reshape", "op": "Reshape", "input": ["PartitionedCall/model_31/tf.compat.v1.transpose_39/transpose", "PartitionedCall/model_31/tf.reshape_14/Reshape/shape"], "attr": {"Tshape": {"type": "DT_INT32"}, "T": {"type": "DT_FLOAT"}}}, {"name": "PartitionedCall/model_31/tf.strided_slice_19/StridedSlice", "op": "StridedSlice", "input": ["PartitionedCall/model_31/tf.reshape_14/Reshape", "22016", "22018", "PartitionedCall/model_31/tf.strided_slice_19/ones_like"], "attr": {"Index": {"type": "DT_INT64"}, "begin_mask": {"i": "5"}, "end_mask": {"i": "5"}, "T": {"type": "DT_FLOAT"}, "shrink_axis_mask": {"i": "0"}, "new_axis_mask": {"i": "0"}, "ellipsis_mask": {"i": "0"}}}, {"name": "PartitionedCall/model_31/tf.strided_slice_18/StridedSlice", "op": "StridedSlice", "input": ["PartitionedCall/model_31/tf.reshape_14/Reshape", "22020", "22022", "PartitionedCall/model_31/tf.strided_slice_18/ones_like"], "attr": {"shrink_axis_mask": {"i": "0"}, "Index": {"type": "DT_INT64"}, "new_axis_mask": {"i": "0"}, "end_mask": {"i": "5"}, "begin_mask": {"i": "7"}, "ellipsis_mask": {"i": "0"}, "T": {"type": "DT_FLOAT"}}}, {"name": "PartitionedCall/model_31/tf.math.add_152/Add", "op": "AddV2", "input": ["22024", "PartitionedCall/model_31/tf.strided_slice_19/StridedSlice"], "attr": {"T": {"type": "DT_FLOAT"}}}, {"name": "PartitionedCall/model_31/tf.math.subtract/Sub", "op": "Sub", "input": ["22026", "PartitionedCall/model_31/tf.strided_slice_18/StridedSlice"], "attr": {"T": {"type": "DT_FLOAT"}}}, {"name": "PartitionedCall/model_31/tf.math.add_153/Add", "op": "AddV2", "input": ["PartitionedCall/model_31/tf.math.subtract/Sub", "PartitionedCall/model_31/tf.math.add_152/Add"], "attr": {"T": {"type": "DT_FLOAT"}}}, {"name": "PartitionedCall/model_31/tf.math.subtract_1/Sub", "op": "Sub", "input": ["PartitionedCall/model_31/tf.math.add_152/Add", "PartitionedCall/model_31/tf.math.subtract/Sub"], "attr": {"T": {"type": "DT_FLOAT"}}}, {"name": "PartitionedCall/model_31/tf.math.divide/truediv", "op": "Mul", "input": ["PartitionedCall/model_31/tf.math.add_153/Add", "ConstantFolding/PartitionedCall/model_31/tf.math.divide/truediv_recip"], "attr": {"T": {"type": "DT_FLOAT"}}}, {"name": "PartitionedCall/model_31/tf.concat_20/concat", "op": "ConcatV2", "input": ["PartitionedCall/model_31/tf.math.divide/truediv", "PartitionedCall/model_31/tf.math.subtract_1/Sub", "PartitionedCall/model_31/tf.concat_20/concat/axis"], "attr": {"Tidx": {"type": "DT_INT32"}, "N": {"i": "2"}, "T": {"type": "DT_FLOAT"}}}, {"name": "PartitionedCall/model_31/tf.math.multiply_436/Mul", "op": "Mul", "input": ["PartitionedCall/model_31/tf.concat_20/concat", "PartitionedCall/model_31/tf.math.multiply_436/Mul/y"], "attr": {"T": {"type": "DT_FLOAT"}}}, {"name": "PartitionedCall/model_31/output0/concat", "op": "ConcatV2", "input": ["PartitionedCall/model_31/tf.math.multiply_436/Mul", "PartitionedCall/model_31/tf.math.sigmoid_97/Sigmoid", "PartitionedCall/model_31/output0/concat/axis"], "attr": {"N": {"i": "2"}, "Tidx": {"type": "DT_INT32"}, "T": {"type": "DT_FLOAT"}}}, {"name": "Identity", "op": "Identity", "input": ["PartitionedCall/model_31/output0/concat"], "attr": {"T": {"type": "DT_FLOAT"}}}], "library": {}, "versions": {"producer": 1766}}, "weightsManifest": [{"paths": ["group1-shard1of66.bin", "group1-shard2of66.bin", "group1-shard3of66.bin", "group1-shard4of66.bin", "group1-shard5of66.bin", "group1-shard6of66.bin", "group1-shard7of66.bin", "group1-shard8of66.bin", "group1-shard9of66.bin", "group1-shard10of66.bin", "group1-shard11of66.bin", "group1-shard12of66.bin", "group1-shard13of66.bin", "group1-shard14of66.bin", "group1-shard15of66.bin", "group1-shard16of66.bin", "group1-shard17of66.bin", "group1-shard18of66.bin", "group1-shard19of66.bin", "group1-shard20of66.bin", "group1-shard21of66.bin", "group1-shard22of66.bin", "group1-shard23of66.bin", "group1-shard24of66.bin", "group1-shard25of66.bin", "group1-shard26of66.bin", "group1-shard27of66.bin", "group1-shard28of66.bin", "group1-shard29of66.bin", "group1-shard30of66.bin", "group1-shard31of66.bin", "group1-shard32of66.bin", "group1-shard33of66.bin", "group1-shard34of66.bin", "group1-shard35of66.bin", "group1-shard36of66.bin", "group1-shard37of66.bin", "group1-shard38of66.bin", "group1-shard39of66.bin", "group1-shard40of66.bin", "group1-shard41of66.bin", "group1-shard42of66.bin", "group1-shard43of66.bin", "group1-shard44of66.bin", "group1-shard45of66.bin", "group1-shard46of66.bin", "group1-shard47of66.bin", "group1-shard48of66.bin", "group1-shard49of66.bin", "group1-shard50of66.bin", "group1-shard51of66.bin", "group1-shard52of66.bin", "group1-shard53of66.bin", "group1-shard54of66.bin", "group1-shard55of66.bin", "group1-shard56of66.bin", "group1-shard57of66.bin", "group1-shard58of66.bin", "group1-shard59of66.bin", "group1-shard60of66.bin", "group1-shard61of66.bin", "group1-shard62of66.bin", "group1-shard63of66.bin", "group1-shard64of66.bin", "group1-shard65of66.bin", "group1-shard66of66.bin"], "weights": [{"name": "ConstantFolding/PartitionedCall/model_31/tf.math.divide/truediv_recip", "shape": [1, 1, 1], "dtype": "float32"}, {"name": "22024", "shape": [1, 2, 8400], "dtype": "float32"}, {"name": "22016", "shape": [3], "dtype": "int32"}, {"name": "22018", "shape": [3], "dtype": "int32"}, {"name": "PartitionedCall/model_31/tf.strided_slice_19/ones_like", "shape": [3], "dtype": "int32"}, {"name": "22026", "shape": [1, 2, 8400], "dtype": "float32"}, {"name": "22010", "shape": [3], "dtype": "int32"}, {"name": "22012", "shape": [3], "dtype": "int32"}, {"name": "PartitionedCall/model_31/tf.strided_slice_16/StridedSlice/strides", "shape": [3], "dtype": "int32"}, {"name": "PartitionedCall/model_31/tf.reshape_11/Reshape/shape", "shape": [4], "dtype": "int32"}, {"name": "PartitionedCall/model_31/tf.compat.v1.transpose_33/transpose/perm", "shape": [4], "dtype": "int32"}, {"name": "PartitionedCall/model_31/tf.compat.v1.transpose_34/transpose/perm", "shape": [4], "dtype": "int32"}, {"name": "22014", "shape": [1, 1, 16, 1], "dtype": "float32"}, {"name": "PartitionedCall/model_31/tf.compat.v1.transpose_39/transpose/perm", "shape": [4], "dtype": "int32"}, {"name": "PartitionedCall/model_31/tf.reshape_14/Reshape/shape", "shape": [3], "dtype": "int32"}, {"name": "22020", "shape": [3], "dtype": "int32"}, {"name": "22022", "shape": [3], "dtype": "int32"}, {"name": "PartitionedCall/model_31/tf.strided_slice_18/ones_like", "shape": [3], "dtype": "int32"}, {"name": "PartitionedCall/model_31/tf.concat_20/concat/axis", "shape": [], "dtype": "int32"}, {"name": "PartitionedCall/model_31/tf.math.multiply_436/Mul/y", "shape": [1, 1, 8400], "dtype": "float32"}, {"name": "21936", "shape": [3, 3, 320, 80], "dtype": "float32"}, {"name": "21940", "shape": [80], "dtype": "float32"}, {"name": "21962", "shape": [3, 3, 80, 80], "dtype": "float32"}, {"name": "21964", "shape": [80], "dtype": "float32"}, {"name": "21996", "shape": [1, 1, 80, 64], "dtype": "float32"}, {"name": "22006", "shape": [64], "dtype": "float32"}, {"name": "21950", "shape": [3, 3, 320, 320], "dtype": "float32"}, {"name": "21960", "shape": [320], "dtype": "float32"}, {"name": "21974", "shape": [3, 3, 320, 320], "dtype": "float32"}, {"name": "21984", "shape": [320], "dtype": "float32"}, {"name": "21994", "shape": [1, 1, 320, 1], "dtype": "float32"}, {"name": "22008", "shape": [1], "dtype": "float32"}, {"name": "PartitionedCall/model_31/tf.concat_10/concat/axis", "shape": [], "dtype": "int32"}, {"name": "PartitionedCall/model_31/tf.compat.v1.transpose_16/transpose/perm", "shape": [4], "dtype": "int32"}, {"name": "PartitionedCall/model_31/tf.reshape_2/Reshape/shape", "shape": [3], "dtype": "int32"}, {"name": "21948", "shape": [3, 3, 640, 80], "dtype": "float32"}, {"name": "21958", "shape": [80], "dtype": "float32"}, {"name": "21972", "shape": [3, 3, 80, 80], "dtype": "float32"}, {"name": "21982", "shape": [80], "dtype": "float32"}, {"name": "21992", "shape": [1, 1, 80, 64], "dtype": "float32"}, {"name": "22002", "shape": [64], "dtype": "float32"}, {"name": "21946", "shape": [3, 3, 640, 320], "dtype": "float32"}, {"name": "21956", "shape": [320], "dtype": "float32"}, {"name": "21970", "shape": [3, 3, 320, 320], "dtype": "float32"}, {"name": "21980", "shape": [320], "dtype": "float32"}, {"name": "21990", "shape": [1, 1, 320, 1], "dtype": "float32"}, {"name": "22004", "shape": [1], "dtype": "float32"}, {"name": "PartitionedCall/model_31/tf.concat_13/concat/axis", "shape": [], "dtype": "int32"}, {"name": "PartitionedCall/model_31/tf.compat.v1.transpose_21/transpose/perm", "shape": [4], "dtype": "int32"}, {"name": "PartitionedCall/model_31/tf.reshape_5/Reshape/shape", "shape": [3], "dtype": "int32"}, {"name": "21944", "shape": [3, 3, 640, 80], "dtype": "float32"}, {"name": "21954", "shape": [80], "dtype": "float32"}, {"name": "21968", "shape": [3, 3, 80, 80], "dtype": "float32"}, {"name": "21978", "shape": [80], "dtype": "float32"}, {"name": "21988", "shape": [1, 1, 80, 64], "dtype": "float32"}, {"name": "21998", "shape": [64], "dtype": "float32"}, {"name": "21930", "shape": [4], "dtype": "int32"}, {"name": "21932", "shape": [4], "dtype": "int32"}, {"name": "PartitionedCall/model_31/tf.strided_slice_14/ones_like", "shape": [4], "dtype": "int32"}, {"name": "21884", "shape": [4], "dtype": "int32"}, {"name": "21886", "shape": [4], "dtype": "int32"}, {"name": "PartitionedCall/model_31/tf.strided_slice_12/ones_like", "shape": [4], "dtype": "int32"}, {"name": "21838", "shape": [4], "dtype": "int32"}, {"name": "21840", "shape": [4], "dtype": "int32"}, {"name": "PartitionedCall/model_31/tf.strided_slice_10/ones_like", "shape": [4], "dtype": "int32"}, {"name": "PartitionedCall/model_31/tf.compat.v1.image.resize_nearest_neighbor_1/ResizeNearestNeighbor/size", "shape": [2], "dtype": "int32"}, {"name": "PartitionedCall/model_31/tf.concat_7/concat/axis", "shape": [], "dtype": "int32"}, {"name": "21806", "shape": [1, 1, 960, 320], "dtype": "float32"}, {"name": "21808", "shape": [320], "dtype": "float32"}, {"name": "21810", "shape": [4], "dtype": "int32"}, {"name": "21812", "shape": [4], "dtype": "int32"}, {"name": "PartitionedCall/model_31/tf.strided_slice_11/ones_like", "shape": [4], "dtype": "int32"}, {"name": "21814", "shape": [3, 3, 160, 160], "dtype": "float32"}, {"name": "21816", "shape": [160], "dtype": "float32"}, {"name": "21818", "shape": [3, 3, 160, 160], "dtype": "float32"}, {"name": "21820", "shape": [160], "dtype": "float32"}, {"name": "21822", "shape": [3, 3, 160, 160], "dtype": "float32"}, {"name": "21824", "shape": [160], "dtype": "float32"}, {"name": "21826", "shape": [3, 3, 160, 160], "dtype": "float32"}, {"name": "21828", "shape": [160], "dtype": "float32"}, {"name": "21830", "shape": [3, 3, 160, 160], "dtype": "float32"}, {"name": "21832", "shape": [160], "dtype": "float32"}, {"name": "21834", "shape": [3, 3, 160, 160], "dtype": "float32"}, {"name": "21836", "shape": [160], "dtype": "float32"}, {"name": "PartitionedCall/model_31/tf.concat_8/concat/axis", "shape": [], "dtype": "int32"}, {"name": "21842", "shape": [1, 1, 800, 320], "dtype": "float32"}, {"name": "21844", "shape": [320], "dtype": "float32"}, {"name": "21846", "shape": [4, 2], "dtype": "int32"}, {"name": "21848", "shape": [3, 3, 320, 320], "dtype": "float32"}, {"name": "21850", "shape": [320], "dtype": "float32"}, {"name": "21798", "shape": [4], "dtype": "int32"}, {"name": "21800", "shape": [4], "dtype": "int32"}, {"name": "PartitionedCall/model_31/tf.strided_slice_8/ones_like", "shape": [4], "dtype": "int32"}, {"name": "PartitionedCall/model_31/tf.compat.v1.image.resize_nearest_neighbor/ResizeNearestNeighbor/size", "shape": [2], "dtype": "int32"}, {"name": "PartitionedCall/model_31/tf.concat_5/concat/axis", "shape": [], "dtype": "int32"}, {"name": "21766", "shape": [1, 1, 1280, 640], "dtype": "float32"}, {"name": "21768", "shape": [640], "dtype": "float32"}, {"name": "21770", "shape": [4], "dtype": "int32"}, {"name": "21772", "shape": [4], "dtype": "int32"}, {"name": "PartitionedCall/model_31/tf.strided_slice_9/ones_like", "shape": [4], "dtype": "int32"}, {"name": "21774", "shape": [3, 3, 320, 320], "dtype": "float32"}, {"name": "21776", "shape": [320], "dtype": "float32"}, {"name": "21778", "shape": [3, 3, 320, 320], "dtype": "float32"}, {"name": "21780", "shape": [320], "dtype": "float32"}, {"name": "21782", "shape": [3, 3, 320, 320], "dtype": "float32"}, {"name": "21784", "shape": [320], "dtype": "float32"}, {"name": "21786", "shape": [3, 3, 320, 320], "dtype": "float32"}, {"name": "21788", "shape": [320], "dtype": "float32"}, {"name": "21790", "shape": [3, 3, 320, 320], "dtype": "float32"}, {"name": "21792", "shape": [320], "dtype": "float32"}, {"name": "21794", "shape": [3, 3, 320, 320], "dtype": "float32"}, {"name": "21796", "shape": [320], "dtype": "float32"}, {"name": "PartitionedCall/model_31/tf.concat_6/concat/axis", "shape": [], "dtype": "int32"}, {"name": "21802", "shape": [1, 1, 1600, 640], "dtype": "float32"}, {"name": "21804", "shape": [640], "dtype": "float32"}, {"name": "PartitionedCall/model_31/tf.concat_9/concat/axis", "shape": [], "dtype": "int32"}, {"name": "21852", "shape": [1, 1, 960, 640], "dtype": "float32"}, {"name": "21854", "shape": [640], "dtype": "float32"}, {"name": "21856", "shape": [4], "dtype": "int32"}, {"name": "21858", "shape": [4], "dtype": "int32"}, {"name": "PartitionedCall/model_31/tf.strided_slice_13/ones_like", "shape": [4], "dtype": "int32"}, {"name": "21860", "shape": [3, 3, 320, 320], "dtype": "float32"}, {"name": "21862", "shape": [320], "dtype": "float32"}, {"name": "21864", "shape": [3, 3, 320, 320], "dtype": "float32"}, {"name": "21866", "shape": [320], "dtype": "float32"}, {"name": "21868", "shape": [3, 3, 320, 320], "dtype": "float32"}, {"name": "21870", "shape": [320], "dtype": "float32"}, {"name": "21872", "shape": [3, 3, 320, 320], "dtype": "float32"}, {"name": "21874", "shape": [320], "dtype": "float32"}, {"name": "21876", "shape": [3, 3, 320, 320], "dtype": "float32"}, {"name": "21878", "shape": [320], "dtype": "float32"}, {"name": "21880", "shape": [3, 3, 320, 320], "dtype": "float32"}, {"name": "21882", "shape": [320], "dtype": "float32"}, {"name": "PartitionedCall/model_31/tf.concat_11/concat/axis", "shape": [], "dtype": "int32"}, {"name": "21888", "shape": [1, 1, 1600, 640], "dtype": "float32"}, {"name": "21890", "shape": [640], "dtype": "float32"}, {"name": "21892", "shape": [4, 2], "dtype": "int32"}, {"name": "21894", "shape": [3, 3, 640, 640], "dtype": "float32"}, {"name": "21896", "shape": [640], "dtype": "float32"}, {"name": "21750", "shape": [4], "dtype": "int32"}, {"name": "21752", "shape": [4], "dtype": "int32"}, {"name": "PartitionedCall/model_31/tf.strided_slice_6/ones_like", "shape": [4], "dtype": "int32"}, {"name": "21704", "shape": [4], "dtype": "int32"}, {"name": "21706", "shape": [4], "dtype": "int32"}, {"name": "PartitionedCall/model_31/tf.strided_slice_4/ones_like", "shape": [4], "dtype": "int32"}, {"name": "21634", "shape": [4], "dtype": "int32"}, {"name": "21636", "shape": [4], "dtype": "int32"}, {"name": "PartitionedCall/model_31/tf.strided_slice_2/ones_like", "shape": [4], "dtype": "int32"}, {"name": "21564", "shape": [4], "dtype": "int32"}, {"name": "21566", "shape": [4], "dtype": "int32"}, {"name": "PartitionedCall/model_31/tf.strided_slice/ones_like", "shape": [4], "dtype": "int32"}, {"name": "21520", "shape": [4, 2], "dtype": "int32"}, {"name": "21522", "shape": [3, 3, 3, 80], "dtype": "float32"}, {"name": "21524", "shape": [80], "dtype": "float32"}, {"name": "21526", "shape": [4, 2], "dtype": "int32"}, {"name": "21528", "shape": [3, 3, 80, 160], "dtype": "float32"}, {"name": "21530", "shape": [160], "dtype": "float32"}, {"name": "21532", "shape": [1, 1, 160, 160], "dtype": "float32"}, {"name": "21534", "shape": [160], "dtype": "float32"}, {"name": "21536", "shape": [4], "dtype": "int32"}, {"name": "21538", "shape": [4], "dtype": "int32"}, {"name": "PartitionedCall/model_31/tf.strided_slice_1/ones_like", "shape": [4], "dtype": "int32"}, {"name": "21540", "shape": [3, 3, 80, 80], "dtype": "float32"}, {"name": "21542", "shape": [80], "dtype": "float32"}, {"name": "21544", "shape": [3, 3, 80, 80], "dtype": "float32"}, {"name": "21546", "shape": [80], "dtype": "float32"}, {"name": "21548", "shape": [3, 3, 80, 80], "dtype": "float32"}, {"name": "21550", "shape": [80], "dtype": "float32"}, {"name": "21552", "shape": [3, 3, 80, 80], "dtype": "float32"}, {"name": "21554", "shape": [80], "dtype": "float32"}, {"name": "21556", "shape": [3, 3, 80, 80], "dtype": "float32"}, {"name": "21558", "shape": [80], "dtype": "float32"}, {"name": "21560", "shape": [3, 3, 80, 80], "dtype": "float32"}, {"name": "21562", "shape": [80], "dtype": "float32"}, {"name": "PartitionedCall/model_31/tf.concat/concat/axis", "shape": [], "dtype": "int32"}, {"name": "21568", "shape": [1, 1, 400, 160], "dtype": "float32"}, {"name": "21570", "shape": [160], "dtype": "float32"}, {"name": "21572", "shape": [4, 2], "dtype": "int32"}, {"name": "21574", "shape": [3, 3, 160, 320], "dtype": "float32"}, {"name": "21576", "shape": [320], "dtype": "float32"}, {"name": "21578", "shape": [1, 1, 320, 320], "dtype": "float32"}, {"name": "21580", "shape": [320], "dtype": "float32"}, {"name": "21582", "shape": [4], "dtype": "int32"}, {"name": "21584", "shape": [4], "dtype": "int32"}, {"name": "PartitionedCall/model_31/tf.strided_slice_3/ones_like", "shape": [4], "dtype": "int32"}, {"name": "21586", "shape": [3, 3, 160, 160], "dtype": "float32"}, {"name": "21588", "shape": [160], "dtype": "float32"}, {"name": "21590", "shape": [3, 3, 160, 160], "dtype": "float32"}, {"name": "21592", "shape": [160], "dtype": "float32"}, {"name": "21594", "shape": [3, 3, 160, 160], "dtype": "float32"}, {"name": "21596", "shape": [160], "dtype": "float32"}, {"name": "21598", "shape": [3, 3, 160, 160], "dtype": "float32"}, {"name": "21600", "shape": [160], "dtype": "float32"}, {"name": "21602", "shape": [3, 3, 160, 160], "dtype": "float32"}, {"name": "21604", "shape": [160], "dtype": "float32"}, {"name": "21606", "shape": [3, 3, 160, 160], "dtype": "float32"}, {"name": "21608", "shape": [160], "dtype": "float32"}, {"name": "21610", "shape": [3, 3, 160, 160], "dtype": "float32"}, {"name": "21612", "shape": [160], "dtype": "float32"}, {"name": "21614", "shape": [3, 3, 160, 160], "dtype": "float32"}, {"name": "21616", "shape": [160], "dtype": "float32"}, {"name": "21618", "shape": [3, 3, 160, 160], "dtype": "float32"}, {"name": "21620", "shape": [160], "dtype": "float32"}, {"name": "21622", "shape": [3, 3, 160, 160], "dtype": "float32"}, {"name": "21624", "shape": [160], "dtype": "float32"}, {"name": "21626", "shape": [3, 3, 160, 160], "dtype": "float32"}, {"name": "21628", "shape": [160], "dtype": "float32"}, {"name": "21630", "shape": [3, 3, 160, 160], "dtype": "float32"}, {"name": "21632", "shape": [160], "dtype": "float32"}, {"name": "PartitionedCall/model_31/tf.concat_1/concat/axis", "shape": [], "dtype": "int32"}, {"name": "21638", "shape": [1, 1, 1280, 320], "dtype": "float32"}, {"name": "21640", "shape": [320], "dtype": "float32"}, {"name": "21642", "shape": [4, 2], "dtype": "int32"}, {"name": "21644", "shape": [3, 3, 320, 640], "dtype": "float32"}, {"name": "21646", "shape": [640], "dtype": "float32"}, {"name": "21648", "shape": [1, 1, 640, 640], "dtype": "float32"}, {"name": "21650", "shape": [640], "dtype": "float32"}, {"name": "21652", "shape": [4], "dtype": "int32"}, {"name": "21654", "shape": [4], "dtype": "int32"}, {"name": "PartitionedCall/model_31/tf.strided_slice_5/ones_like", "shape": [4], "dtype": "int32"}, {"name": "21656", "shape": [3, 3, 320, 320], "dtype": "float32"}, {"name": "21658", "shape": [320], "dtype": "float32"}, {"name": "21660", "shape": [3, 3, 320, 320], "dtype": "float32"}, {"name": "21662", "shape": [320], "dtype": "float32"}, {"name": "21664", "shape": [3, 3, 320, 320], "dtype": "float32"}, {"name": "21666", "shape": [320], "dtype": "float32"}, {"name": "21668", "shape": [3, 3, 320, 320], "dtype": "float32"}, {"name": "21670", "shape": [320], "dtype": "float32"}, {"name": "21672", "shape": [3, 3, 320, 320], "dtype": "float32"}, {"name": "21674", "shape": [320], "dtype": "float32"}, {"name": "21676", "shape": [3, 3, 320, 320], "dtype": "float32"}, {"name": "21678", "shape": [320], "dtype": "float32"}, {"name": "21680", "shape": [3, 3, 320, 320], "dtype": "float32"}, {"name": "21682", "shape": [320], "dtype": "float32"}, {"name": "21684", "shape": [3, 3, 320, 320], "dtype": "float32"}, {"name": "21686", "shape": [320], "dtype": "float32"}, {"name": "21688", "shape": [3, 3, 320, 320], "dtype": "float32"}, {"name": "21690", "shape": [320], "dtype": "float32"}, {"name": "21692", "shape": [3, 3, 320, 320], "dtype": "float32"}, {"name": "21694", "shape": [320], "dtype": "float32"}, {"name": "21696", "shape": [3, 3, 320, 320], "dtype": "float32"}, {"name": "21698", "shape": [320], "dtype": "float32"}, {"name": "21700", "shape": [3, 3, 320, 320], "dtype": "float32"}, {"name": "21702", "shape": [320], "dtype": "float32"}, {"name": "PartitionedCall/model_31/tf.concat_2/concat/axis", "shape": [], "dtype": "int32"}, {"name": "21708", "shape": [1, 1, 2560, 640], "dtype": "float32"}, {"name": "21710", "shape": [640], "dtype": "float32"}, {"name": "21712", "shape": [4, 2], "dtype": "int32"}, {"name": "21714", "shape": [3, 3, 640, 640], "dtype": "float32"}, {"name": "21716", "shape": [640], "dtype": "float32"}, {"name": "21718", "shape": [1, 1, 640, 640], "dtype": "float32"}, {"name": "21720", "shape": [640], "dtype": "float32"}, {"name": "21722", "shape": [4], "dtype": "int32"}, {"name": "21724", "shape": [4], "dtype": "int32"}, {"name": "PartitionedCall/model_31/tf.strided_slice_7/ones_like", "shape": [4], "dtype": "int32"}, {"name": "21726", "shape": [3, 3, 320, 320], "dtype": "float32"}, {"name": "21728", "shape": [320], "dtype": "float32"}, {"name": "21730", "shape": [3, 3, 320, 320], "dtype": "float32"}, {"name": "21732", "shape": [320], "dtype": "float32"}, {"name": "21734", "shape": [3, 3, 320, 320], "dtype": "float32"}, {"name": "21736", "shape": [320], "dtype": "float32"}, {"name": "21738", "shape": [3, 3, 320, 320], "dtype": "float32"}, {"name": "21740", "shape": [320], "dtype": "float32"}, {"name": "21742", "shape": [3, 3, 320, 320], "dtype": "float32"}, {"name": "21744", "shape": [320], "dtype": "float32"}, {"name": "21746", "shape": [3, 3, 320, 320], "dtype": "float32"}, {"name": "21748", "shape": [320], "dtype": "float32"}, {"name": "PartitionedCall/model_31/tf.concat_3/concat/axis", "shape": [], "dtype": "int32"}, {"name": "21754", "shape": [1, 1, 1600, 640], "dtype": "float32"}, {"name": "21756", "shape": [640], "dtype": "float32"}, {"name": "21758", "shape": [1, 1, 640, 320], "dtype": "float32"}, {"name": "21760", "shape": [320], "dtype": "float32"}, {"name": "PartitionedCall/model_31/tf.concat_4/concat/axis", "shape": [], "dtype": "int32"}, {"name": "21762", "shape": [1, 1, 1280, 640], "dtype": "float32"}, {"name": "21764", "shape": [640], "dtype": "float32"}, {"name": "PartitionedCall/model_31/tf.concat_12/concat/axis", "shape": [], "dtype": "int32"}, {"name": "21898", "shape": [1, 1, 1280, 640], "dtype": "float32"}, {"name": "21900", "shape": [640], "dtype": "float32"}, {"name": "21902", "shape": [4], "dtype": "int32"}, {"name": "21904", "shape": [4], "dtype": "int32"}, {"name": "PartitionedCall/model_31/tf.strided_slice_15/ones_like", "shape": [4], "dtype": "int32"}, {"name": "21906", "shape": [3, 3, 320, 320], "dtype": "float32"}, {"name": "21908", "shape": [320], "dtype": "float32"}, {"name": "21910", "shape": [3, 3, 320, 320], "dtype": "float32"}, {"name": "21912", "shape": [320], "dtype": "float32"}, {"name": "21914", "shape": [3, 3, 320, 320], "dtype": "float32"}, {"name": "21916", "shape": [320], "dtype": "float32"}, {"name": "21918", "shape": [3, 3, 320, 320], "dtype": "float32"}, {"name": "21920", "shape": [320], "dtype": "float32"}, {"name": "21922", "shape": [3, 3, 320, 320], "dtype": "float32"}, {"name": "21924", "shape": [320], "dtype": "float32"}, {"name": "21926", "shape": [3, 3, 320, 320], "dtype": "float32"}, {"name": "21928", "shape": [320], "dtype": "float32"}, {"name": "PartitionedCall/model_31/tf.concat_14/concat/axis", "shape": [], "dtype": "int32"}, {"name": "21934", "shape": [1, 1, 1600, 640], "dtype": "float32"}, {"name": "21938", "shape": [640], "dtype": "float32"}, {"name": "21942", "shape": [3, 3, 640, 320], "dtype": "float32"}, {"name": "21952", "shape": [320], "dtype": "float32"}, {"name": "21966", "shape": [3, 3, 320, 320], "dtype": "float32"}, {"name": "21976", "shape": [320], "dtype": "float32"}, {"name": "21986", "shape": [1, 1, 320, 1], "dtype": "float32"}, {"name": "22000", "shape": [1], "dtype": "float32"}, {"name": "PartitionedCall/model_31/tf.concat_15/concat/axis", "shape": [], "dtype": "int32"}, {"name": "PartitionedCall/model_31/tf.compat.v1.transpose_26/transpose/perm", "shape": [4], "dtype": "int32"}, {"name": "PartitionedCall/model_31/tf.reshape_8/Reshape/shape", "shape": [3], "dtype": "int32"}, {"name": "PartitionedCall/model_31/tf.concat_16/concat/axis", "shape": [], "dtype": "int32"}, {"name": "22030", "shape": [3], "dtype": "int32"}, {"name": "22032", "shape": [3], "dtype": "int32"}, {"name": "PartitionedCall/model_31/tf.strided_slice_17/StridedSlice/strides", "shape": [3], "dtype": "int32"}, {"name": "PartitionedCall/model_31/output0/concat/axis", "shape": [], "dtype": "int32"}]}]}